gesture_detection/checkpoints/train_22/model/100_net_netClassifier.pth (torch_old, 3172 bytes, 19 tensors)

feature.0.weight f4 [4, 9]
0	0xbce5b07a	-0.028038252
1	0x3d2a4b5e	0.041575782
2	0x3d4e9cb8	0.050442427
3	0x3e468e66	0.19390258
4	0xbd88e295	-0.06683842
5	0xbe906b4c	-0.2820686
6	0x3e9aba76	0.30220383
7	0xbe9a405c	-0.30127227
8	0xbe98c33b	-0.2983645
9	0xbd297dc0	-0.04137969
10	0xbe655314	-0.22394973
11	0xbe98508c	-0.29748952
12	0x3e3cefaf	0.18450807
13	0x3e880c9c	0.2657212
14	0x3d8b9371	0.068152316
15	0x3d333327	0.043749955
16	0x3e669da2	0.2252107
17	0x3e6d275d	0.23159547
18	0x3e348b95	0.17631371
19	0xbe45ad32	-0.1930435
20	0xbe81ae4c	-0.2532829
21	0x3e61d58f	0.22054122
22	0x3e10cc28	0.1414038
23	0xbe162d58	-0.14665735
24	0xbe89eb8b	-0.26937518
25	0xbea7240a	-0.32644683
26	0x3cdcfd59	0.026976274
27	0xbea589ea	-0.32331783
28	0x3df4dbc2	0.11955978
29	0x3dc9d1a6	0.098544404
30	0x3e508579	0.20363416
31	0xbcebe058	-0.028793499
32	0x3e3a82e0	0.18213987
33	0x3dea69c4	0.114459544
34	0xbe6058fe	-0.21908948
35	0x3d865a6f	0.065602176

feature.0.bias f4 [4]
0	0x3e45f4eb	0.1933171
1	0x3e1d37cd	0.15353318
2	0xbe383ac2	-0.17991164
3	0xbdb2dc15	-0.087333836

feature.1.weight f4 [4]
0	0x3f638339	0.88872105
1	0x3def8bf1	0.116966136
2	0x3e9f753c	0.3114413
3	0x3f384dc0	0.7199364

feature.1.bias f4 [4]
0	0x3c94bb05	0.018155584
1	0x3c95408a	0.018219251
2	0xbc965692	-0.018351827
3	0x3c81492e	0.015781965

feature.1.running_mean f4 [4]
0	0x3fb5b653	1.4196266
1	0x3f264536	0.6494936
2	0x3ea3ec87	0.32016394
3	0x4053b39a	3.307837

feature.1.running_var f4 [4]
0	0x416a580b	14.646495
1	0x3ed0c976	0.40778702
2	0x401dbdd3	2.464711
3	0x4128ba6b	10.545512

feature.3.weight f4 [4, 4]
0	0xbedf5f93	-0.43627605
1	0x3ec95d75	0.39329115
2	0xbeefc9cc	-0.46833646
3	0xbe9db621	-0.30803016
4	0xbedcaa8d	-0.4309887
5	0x3ea53629	0.32267883
6	0xbeece04f	-0.46264884
7	0x3e04e5ff	0.12978362
8	0x3e5daa25	0.21646936
9	0xbeb39665	-0.3507568
10	0xbec3e950	-0.3826394
11	0x3ceced6a	0.028921802
12	0x3eb8c7b1	0.36089852
13	0xbdead943	-0.11467221
14	0x3e4376a6	0.1908823
15	0xbbb6e5e4	-0.0055816043

feature.3.bias f4 [4]
0	0xbc5244e7	-0.01283381
1	0xbe70a7c7	-0.23501502
2	0xbeed0dec	-0.46299684
3	0xbd47dddf	-0.048795577

feature.4.weight f4 [4]
0	0x3f40f9fa	0.75381434
1	0x3eb6b6b6	0.35686272
2	0x3f685015	0.90747195
3	0x3f63331d	0.8874987

feature.4.bias f4 [4]
0	0xbc8083b6	-0.015687805
1	0xbc827cb2	-0.0159286
2	0x3c7ee316	0.015557071
3	0xbc8d6c56	-0.017263573

feature.4.running_mean f4 [4]
0	0xbe96904c	-0.29406965
1	0xbec6c80e	-0.38824505
2	0xbee1f524	-0.4413234
3	0x3dc6a68c	0.09699735

feature.4.running_var f4 [4]
0	0x3ef14f8f	0.4713101
1	0x3e25ad9e	0.16179511
2	0x3c78c9c9	0.015184828
3	0x3de46b98	0.111533344

feature.6.weight f4 [4, 4]
0	0x3f0584a0	0.52155495
1	0xbe2f8358	-0.17139947
2	0x3eb02d7f	0.3440971
3	0xbb8bdae8	-0.004268039
4	0xbedfebd6	-0.43734616
5	0xbea73824	-0.3266002
6	0xbf01d342	-0.5071298
7	0x3cef4e05	0.029212007
8	0xbe641d5b	-0.22276823
9	0xbd4de1e9	-0.050264273
10	0x3ee0b68d	0.43889275
11	0x3ecc6f69	0.3992875
12	0x3e9d9d23	0.30783948
13	0xbed65d87	-0.4186823
14	0xbed5efbb	-0.41784462
15	0x3d99d6cc	0.075116724

feature.6.bias f4 [4]
0	0xbe8bdebd	-0.27318373
1	0xbde9a699	-0.11408729
2	0xbd1f4ef7	-0.038893666
3	0x3d8c1370	0.06839645

feature.7.weight f4 [4]
0	0x3edb0245	0.4277517
1	0x3f39e669	0.72617203
2	0x3ec27489	0.37979534
3	0x3e9cfb4b	0.3066047

feature.7.bias f4 [4]
0	0xbda15d10	-0.078790784
1	0xbdb5e8b8	-0.08882278
2	0x3de0b6b8	0.10972351
3	0xbd7989b7	-0.06092235

feature.7.running_mean f4 [4]
0	0xbc8695a2	-0.016428772
1	0xbeed3bb3	-0.4633461
2	0x3e3fec35	0.1874245
3	0xbce53801	-0.027980806

feature.7.running_var f4 [4]
0	0x3b000f23	0.0019540272
1	0x37f55e54	2.92502e-05
2	0x3f19001a	0.5976578
3	0x3df995d3	0.1218678

feature.9.weight f4 [1, 4]
0	0x3d82d529	0.06388313
1	0x3ea7ead2	0.3279634
2	0xbe801b1e	-0.2502069
3	0x3b1d66aa	0.0024017491
