gesture_detection/checkpoints/train_22/model/10_net_netClassifier.pth (torch_old, 3168 bytes, 19 tensors)

feature.0.weight f4 [4, 9]
-0.028045408 0.04157823 0.05044616 0.19288962 -0.065923415 -0.28199708 0.30220565 -0.30127275
-0.29836392 -0.040378407 -0.22435959 -0.29749456 0.19277188 0.25754744 0.06419067 0.04367106
0.22527902 0.23168927 0.17635684 -0.19305947 -0.25328654 0.22255543 0.13949034 -0.14695781
-0.26937953 -0.32644415 0.026978817 -0.32331836 0.11956003 0.09854293 0.20348597 -0.028669588
0.18213695 0.11445904 -0.21908951 0.06560171
00000000: 7cbf e5bc ef4d 2a3d a2a0 4e3d db84 453e
00000010: db02 87bd ec61 90be b3ba 9a3e 6c40 9abe
00000020: 28c3 98be d463 25bd 85be 65be 3551 98be
00000030: fe65 453e 42dd 833e 6676 833d 6de0 323d
00000040: 8baf 663e f43f 6d3e e396 343e 62b1 45be
00000050: c6ae 81be 92e5 633e 8ed6 0e3e 1c7c 16be
00000060: 1dec 89be b023 a7be ae02 dd3c fc89 a5be
00000070: e4db f43d e0d0 c93d a05e 503e 7cdc eabc
00000080: 1c82 3a3e 8069 ea3d 0059 60be 305a 863d

feature.0.bias f4 [4]
0.19332111 0.15356451 -0.17991427 -0.08733551
00000000: f8f5 453e 0440 1d3e 723b 38be f6dc b2bd

feature.1.weight f4 [4]
0.88322055 0.1114315 0.317132 0.71590793
00000000: be1a 623f 3336 e43d 205f a23e be45 373f

feature.1.bias f4 [4]
0.012654302 0.012685617 -0.012660402 0.011753986
00000000: fd53 4f3c 56d7 4f3c 936d 4fbc ca93 403c

feature.1.running_mean f4 [4]
0.9160433 0.51823276 0.22754695 2.1534936
00000000: d081 6a3f e7aa 043f 1102 693e d7d2 0940

feature.1.running_var f4 [4]
9.781269 0.43888482 2.0553746 7.207018
00000000: 1480 1c41 83b5 e03e 428b 0340 e49f e640

feature.3.weight f4 [4, 4]
-0.43842152 0.39473456 -0.47076696 -0.31014654 -0.43305224 0.32409102 -0.46502048 0.12774599
0.21092191 -0.3456929 -0.3884938 0.02339582 0.36426356 -0.117261305 0.19450003 -0.0022490611
00000000: c978 e0be a61a ca3e 5e08 f1be 87cb 9ebe
00000010: 06b9 ddbe 42ef a53e 2a17 eebe d8cf 023e
00000020: eafb 573e a9fe b0be a9e8 c6be 97a8 bf3c
00000030: c180 ba3e b226 f0bd 042b 473e fc64 13bb

feature.3.bias f4 [4]
0.0004910159 -0.24015127 -0.47811544 -0.0485607
00000000: 85b7 003a 37ea 75be 8ccb f4be 96e7 46bd

feature.4.weight f4 [4]
0.7561488 0.35944277 0.9052876 0.8915196
00000000: f892 413f e208 b83e eec0 673f a13a 643f

feature.4.bias f4 [4]
-0.01335341 -0.01334863 0.013371142 -0.013242699
00000000: 43c8 5abc 36b4 5abc a212 5b3c e8f7 58bc

feature.4.running_mean f4 [4]
-0.18790103 -0.26350558 -0.30323634 0.06657896
00000000: 2169 40be 34ea 86be cb41 9bbe 8d5a 883d

feature.4.running_var f4 [4]
0.6560609 0.45877117 0.35364503 0.42468736
00000000: 9bf3 273f 0ee4 ea3e f610 b53e 9f70 d93e

feature.6.weight f4 [4, 4]
0.38107237 -0.31065708 0.48550746 0.13634326 -0.43981963 -0.32919708 -0.5048538 0.03166929
-0.14606483 0.019534549 0.360123 0.32162133 0.37174267 -0.36018977 -0.48334312 0.010473271
00000000: eb1b c33e 720e 9fbe 6f94 f83e 919d 0b3e
00000010: 0a30 e1be 858c a8be 193e 01bf a8b7 013d
00000020: 0592 15be eb06 a03c 0b62 b83e 8dab a43e
00000030: 0e55 be3e cb6a b8be c078 f7be 1598 2b3c

feature.6.bias f4 [4]
-0.272046 -0.096482255 -0.038821965 0.06862057
00000000: 9d49 8bbe 7d98 c5bd c803 1fbd f188 8c3d

feature.7.weight f4 [4]
0.49456367 0.7733605 0.28196883 0.35914037
00000000: 7337 fd3e f4fa 453f 385e 903e 3fe1 b73e

feature.7.bias f4 [4]
-0.009871157 -0.009936963 0.010084159 -0.0098104095
00000000: a2ba 21bc a5ce 22bc 0738 253c d7bb 20bc

feature.7.running_mean f4 [4]
0.015789887 -0.29098684 0.106607445 -0.028321348
00000000: cb59 813c 3afc 94be 0155 da3d 2c02 e8bc

feature.7.running_var f4 [4]
0.4222901 0.3498782 0.5815768 0.51139975
00000000: 6836 d83e 3c23 b33e 38e2 143f 18eb 023f

feature.9.weight f4 [1, 4]
0.1365035 0.3671349 -0.14945374 0.07902477
00000000: 93c7 0b3e 1bf9 bb3e 670a 19be bdd7 a13d
