gesture_detection/checkpoints/train_22/model/115_net_netClassifier.pth (torch_old, 3184 bytes, 19 tensors)

feature.0.weight f4 [4, 9]
00000000: 08b1 e5bc b84b 2a3d 3998 4e3d 0d75 463e
00000010: 3fb8 88bd aa6d 90be 3eba 9a3e 5740 9abe
00000020: 67c3 98be 587f 29bd bc52 65be 3d52 98be
00000030: 4aec 3c3e 2e0e 883e c08a 8b3d 2d2e 333d
00000040: ae9d 663e 5126 6d3e c08e 343e 8dae 45be
00000050: eaac 81be 332d 623e 3477 103e 9a36 16be
00000060: 20eb 89be fa23 a7be 2506 dd3c f089 a5be
00000070: cbdb f43d 5dd1 c93d 6c7d 503e b4ab ebbc
00000080: 5d82 3a3e a969 ea3d ff58 60be 565a 863d
-0.028038517 0.041576117 0.05043814 0.19380589 -0.06675767 -0.28208667 0.30220217 -0.30127212
-0.2983658 -0.04138121 -0.22394842 -0.29750243 0.18449512 0.26573318 0.06813574 0.04374521
0.22521088 0.23159148 0.1763258 -0.19304867 -0.25327235 0.22087555 0.14107972 -0.14669266
-0.269372 -0.32644635 0.026980469 -0.323318 0.11955985 0.09854386 0.20360345 -0.028768398
0.18213792 0.11445934 -0.2190895 0.06560199

feature.0.bias f4 [4]
00000000: a3f3 453e f133 1d3e 8537 38be 69dc b2bd
0.19331221 0.15351845 -0.17989929 -0.08733446

feature.1.weight f4 [4]
00000000: 9b74 633f 6517 ef3d 4591 9f3e 2837 383f
0.888498 0.11674384 0.3116552 0.7195916

feature.1.bias f4 [4]
00000000: 19e7 923c 746e 933c de95 94bc a5ec 7c3c
0.017932462 0.017997004 -0.018137868 0.01543728

feature.1.running_mean f4 [4]
00000000: f7fa b53f 60bf 243f af1d a33e e9b9 5340
1.4217213 0.64354515 0.31858584 3.308222

feature.1.running_var f4 [4]
00000000: 0cc9 6a41 0d7e d83e 991e 1d40 c4c9 2841
14.674084 0.4228367 2.4549925 10.549259

feature.3.weight f4 [4, 4]
00000000: 1f91 dfbe a693 c93e d9f7 efbe dae7 9dbe
00000010: 0108 ddbe 6099 a53e e039 edbe cd2a 043e
00000020: af6f 5d3e 7774 b3be 7503 c4be df16 eb3c
00000030: 030a b93e a2f7 ebbd e6f3 433e 3e46 a6bb
-0.43665406 0.3937046 -0.4686878 -0.3084095 -0.4317017 0.32343578 -0.46333218 0.12906952
0.21624635 -0.35049793 -0.38283888 0.02869743 0.3614045 -0.115218416 0.19136009 -0.0050742915

feature.3.bias f4 [4]
00000000: 07bd 81bc 255a 70be cfb5 edbe e8c4 42bd
-0.015837206 -0.23471887 -0.4642777 -0.047551066

feature.4.weight f4 [4]
00000000: 1512 413f 9d0f b73e fd30 683f 5951 633f
0.75418216 0.357541 0.9069975 0.88796

feature.4.bias f4 [4]
00000000: 3800 7bbc 74dc 79bc 771d 773c d5a4 89bc
-0.015319876 -0.015250314 0.015082709 -0.01680223

feature.4.running_mean f4 [4]
00000000: 20a6 97be 3618 c7be 2ee1 e1be 20ec c63d
-0.2961893 -0.3888566 -0.4411711 0.09713006

feature.4.running_var f4 [4]
00000000: 6c5c f13e 1dde 253e b328 7c3c d358 e43d
0.47140825 0.1619801 0.015390563 0.111497544

feature.6.weight f4 [4, 4]
00000000: 040c 033f da67 39be d11b b53e 5233 b03b
00000010: 7038 e0be 8d83 a7be 08ac 01bf 8918 f43c
00000020: 6b41 71be 1d03 7fbd 2e64 e73e c20f d33e
00000030: 434f 9e3e 33b7 d5be a7a4 d6be e308 973d
0.5119021 -0.18106022 0.35372785 0.0053772116 -0.43793058 -0.32717553 -0.50653124 0.029796856
-0.23560111 -0.06225883 0.4519362 0.4122296 0.30919847 -0.41741332 -0.41922495 0.07374742

feature.6.bias f4 [4]
00000000: 9c09 8bbe 262a efbd 5e48 1ebd 0b15 8c3d
-0.2715577 -0.11677961 -0.038643233 0.06839951

feature.7.weight f4 [4]
00000000: a342 d73e 19ef 383f 3c98 cb3e 4e56 9d3e
0.42043027 0.72239834 0.39764583 0.30729908

feature.7.bias f4 [4]
00000000: 651e b2bd ba4e ccbd ccef 023e b1c3 76bd
-0.086972035 -0.099759534 0.12786788 -0.06024522

feature.7.running_mean f4 [4]
00000000: ed26 72bc 57f4 edbe 3827 443e 6349 dfbc
-0.014779788 -0.4647548 0.19155586 -0.027256673

feature.7.running_var f4 [4]
00000000: 3f63 fa39 a88f eb36 94a1 253f 133d f03d
0.0004775766 7.0202695e-06 0.64699674 0.11730399

feature.9.weight f4 [1, 4]
00000000: 570e 603d 119d a73e dc9d 89be a8ec 16bc
0.054701176 0.3273702 -0.2687825 -0.009211697
