gesture_detection/checkpoints/train_22/model/125_net_netClassifier.pth (torch_old, 3168 bytes, 19 tensors)

feature.0.weight f4 [4, 9]
00000000: 96aa e5bc e94a 2a3d 3591 4e3d 76ba 463e
00000010: 813e 89bd c674 90be e1b9 9a3e 4b40 9abe
00000020: a2c3 98be 8cdb 29bd bb48 65be 2054 98be
00000030: 167a 3c3e f846 883e 5713 8c3d f82f 333d
00000040: 1a9c 663e de22 6d3e 2b8b 343e 31ad 45be
00000050: f1ac 81be ced6 613e 13cc 103e ea20 16be
00000060: 04eb 89be 1624 a7be 8f03 dd3c e489 a5be
00000070: b2db f43d b1d1 c93d 0196 503e 2b53 ecbc
00000080: 5d82 3a3e c669 ea3d fe58 60be 745a 863d
-0.028035443 0.041575346 0.05043145 0.19407067 -0.06701375 -0.2821409 0.3021994 -0.30127177
-0.29836756 -0.04146914 -0.22391026 -0.29751682 0.18405947 0.26616645 0.06839626 0.04374692
0.22520486 0.23157832 0.17631213 -0.19304349 -0.25327256 0.22054598 0.14140348 -0.14660993
-0.26937115 -0.3264472 0.026979236 -0.32331765 0.11955966 0.098544486 0.20369722 -0.028848251
0.18213792 0.11445956 -0.21908948 0.06560221

feature.0.bias f4 [4]
00000000: abf1 453e bd2e 1d3e b737 38be 09dc b2bd
0.1933047 0.1534986 -0.17990004 -0.087333746

feature.1.weight f4 [4]
00000000: aa93 633f f610 f03d 0d52 9f3e 1754 383f
0.8889719 0.11721985 0.31117287 0.7200331

feature.1.bias f4 [4]
00000000: eec8 963c cc54 973c 3d89 98bc 3114 823c
0.018406358 0.018473051 -0.018620128 0.015878769

feature.1.running_mean f4 [4]
00000000: 302c b63f 1ed5 233f e28c a23e 9ac4 5340
1.4232235 0.63997066 0.3174811 3.3088746

feature.1.running_var f4 [4]
00000000: 331e 6b41 5716 dd3e 51bb 1c40 7de5 2841
14.694873 0.43181106 2.448933 10.556027

feature.3.weight f4 [4, 4]
00000000: b266 dfbe b36b c93e dfcb efbe 9abd 9dbe
00000010: 2bc4 dcbe aa57 a53e c1f4 ecbe 18b2 043e
00000020: ccec 5d3e 38b1 b3be bec3 c3be f9fc ee3c
00000030: 6bc3 b83e bde5 eabd 3564 433e b0df b7bb
-0.43633038 0.3933998 -0.4683523 -0.30808717 -0.43118414 0.32293445 -0.46280482 0.12958562
0.21672362 -0.35096145 -0.38235277 0.029173361 0.36086592 -0.114696 0.19081195 -0.0056113824

feature.3.bias f4 [4]
00000000: d24b 82bc 2fd9 6fbe aa1c eebe a61d 3dbd
-0.015905295 -0.23422693 -0.46506244 -0.046170853

feature.4.weight f4 [4]
00000000: 72fc 403f cac8 b63e b849 683f 3c2c 633f
0.753852 0.35700065 0.90737486 0.8873937

feature.4.bias f4 [4]
00000000: 8c34 80bc 6e5b 81bc 1a4c 7d3c 6d48 8ebc
-0.015650056 -0.015790667 0.015460039 -0.01736852

feature.4.running_mean f4 [4]
00000000: 8c18 98be 5dc8 c6be ac6d e1be 859d c93d
-0.29706228 -0.3882474 -0.44028986 0.098444976

feature.4.running_var f4 [4]
00000000: 1064 f13e 1be9 253e 7a77 7e3c 4837 e43d
0.47146654 0.16202204 0.015531415 0.111433566

feature.6.weight f4 [4, 4]
00000000: 6368 043f def4 33be 7a63 b23e af8f 8338
00000010: abfa dfbe 0c45 a7be 54ca 01bf f73e f03c
00000020: 8006 7abe 10f3 8fbd 9dd7 eb3e b57a d73e
00000030: 3fb3 a03e ce7b d3be 6c12 d9be 9966 8d3d
0.5172178 -0.17573878 0.3484152 6.27333e-05 -0.43745932 -0.32669866 -0.50699353 0.029326899
-0.24416542 -0.07028782 0.46062937 0.42085806 0.31386754 -0.41305393 -0.42396867 0.069043346

feature.6.bias f4 [4]
00000000: 40ba 8cbe bebe eebd ea50 1ebd 1716 8c3d
-0.27485847 -0.11657475 -0.038651384 0.06840151

feature.7.weight f4 [4]
00000000: a5b1 d53e 784e 383f b9ce d13e 7ba2 9e3e
0.41737095 0.71994734 0.4097803 0.30983338

feature.7.bias f4 [4]
00000000: df08 bcbd 3ea1 dbbd 8488 0f3e 2ab5 6cbd
-0.091813795 -0.10724114 0.1401692 -0.05778996

feature.7.running_mean f4 [4]
00000000: 86fc 66bc 3082 eebe d0ee 463e bb07 e4bc
-0.014098292 -0.465837 0.19427037 -0.027835717

feature.7.running_var f4 [4]
00000000: 8a4b 3c39 c964 4636 245f 2e3f 4f58 f63d
0.00017957218 2.9562964e-06 0.68113923 0.12028562

feature.9.weight f4 [1, 4]
00000000: 7e76 533d 54a8 a73e 7414 90be c27c 8cbc
0.051626675 0.32745612 -0.28140604 -0.017149333
