gesture_detection/checkpoints/train_22/model/135_net_netClassifier.pth (torch_old, 3172 bytes, 19 tensors)

feature.0.weight f4 [4, 9]
-0.02803451 0.041575186 0.050428167 0.19413033 -0.067074865 -0.2821631 0.30219805 -0.30127168
-0.29836842 -0.04151891 -0.22388957 -0.29750645 0.18382564 0.26640022 0.068572186 0.04375491
0.225201 0.23157635 0.17630424 -0.19304147 -0.25325418 0.22041823 0.14153613 -0.14649495
-0.2693636 -0.32644808 0.026984092 -0.32331747 0.119559616 0.0985443 0.20372446 -0.028872559
0.18213582 0.11445948 -0.21908948 0.065602176
00000000: a1a8 e5bc be4a 2a3d c48d 4e3d 1aca 463e
00000010: 8c5e 89bd af77 90be b4b9 9a3e 4840 9abe
00000020: bfc3 98be bc0f 2abd 4f43 65be c452 98be
00000030: ca3c 3c3e 9c65 883e 936f 8c3d 5938 333d
00000040: 179b 663e 5a22 6d3e 1989 343e aaac 45be
00000050: 88aa 81be 51b5 613e d9ee 103e c602 16be
00000060: 07ea 89be 3424 a7be be0d dd3c de89 a5be
00000070: acdb f43d 98d1 c93d 259d 503e 2586 ecbc
00000080: d081 3a3e bb69 ea3d fe58 60be 6f5a 863d

feature.0.bias f4 [4]
0.19330099 0.15350842 -0.17987947 -0.08733395
00000000: b2f0 453e 5031 1d3e 5332 38be 24dc b2bd

feature.1.weight f4 [4]
0.88917005 0.11741821 0.31096882 0.72017395
00000000: a6a0 633f f578 f03d 4e37 9f3e 525d 383f

feature.1.bias f4 [4]
0.018604904 0.018671075 -0.018824471 0.016020037
00000000: 5069 983c 15f4 983c c735 9abc 743c 833c

feature.1.running_mean f4 [4]
1.4239029 0.6374798 0.31750453 3.3092694
00000000: 7342 b63f e031 233f f48f a23e 12cb 5340

feature.1.running_var f4 [4]
14.705454 0.43832675 2.4479609 10.560143
00000000: 8a49 6b41 5d6c e03e 64ab 1c40 59f6 2841

feature.3.weight f4 [4, 4]
-0.4362452 0.3933335 -0.46825245 -0.30800316 -0.4311702 0.32294032 -0.46277648 0.12959851
0.2169227 -0.35114178 -0.3821418 0.029371288 0.36075115 -0.114602566 0.19068341 -0.005725006
00000000: 885b dfbe 0263 c93e c9be efbe 97b2 9dbe
00000010: 57c2 dcbe 6f58 a53e 0af1 ecbe 79b5 043e
00000020: fc20 5e3e dbc8 b3be 17a8 c3be 0e9c f03c
00000030: 60b4 b83e c0b4 eabd 8342 433e d598 bbbb

feature.3.bias f4 [4]
-0.01859269 -0.23762512 -0.4589231 -0.04620116
00000000: b24f 98bc 0054 73be f8f7 eabe 6d3d 3dbd

feature.4.weight f4 [4]
0.75375384 0.35696098 0.9074439 0.8872503
00000000: 03f6 403f 97c3 b63e 3e4e 683f d622 633f

feature.4.bias f4 [4]
-0.015748197 -0.015830327 0.015529132 -0.017512022
00000000: 5d02 81bc 9aae 81bc e76d 7e3c 5f75 8fbc

feature.4.running_mean f4 [4]
-0.29821008 -0.389371 -0.43796012 0.09914236
00000000: feae 98be a35b c7be 4f3c e0be 260b cb3d

feature.4.running_var f4 [4]
0.47164044 0.16211516 0.015610957 0.11142145
00000000: db7a f13e 8401 263e 19c5 7f3c ee30 e43d

feature.6.weight f4 [4, 4]
0.5159947 -0.17696518 0.34962603 0.0012831159 -0.4374041 -0.32663766 -0.5070398 0.029272474
-0.25267553 -0.07827946 0.46926197 0.42942965 0.32105455 -0.40633756 -0.4312669 0.061804283
00000000: 3b18 043f 5c36 35be 2f02 b33e 3a2e a83a
00000010: 6ef3 dfbe 0d3d a7be 5ccd 01bf d4cc ef3c
00000020: b05e 81be fb50 a0bd 1b43 f03e 34de db3e
00000030: 4361 a43e 7a0b d0be 04cf dcbe 7d26 7d3d

feature.6.bias f4 [4]
-0.2752343 -0.118165046 -0.038614795 0.068396635
00000000: 83eb 8cbe 8400 f2bd 8c2a 1ebd 8913 8c3d

feature.7.weight f4 [4]
0.41527337 0.71726525 0.42200708 0.3142195
00000000: b69e d43e b29e 373f 5011 d83e 61e1 a03e

feature.7.bias f4 [4]
-0.09616817 -0.11434592 0.15259427 -0.053552914
00000000: d1f3 c4bd 322e eabd ac41 1c3e 4d5a 5bbd

feature.7.running_mean f4 [4]
-0.017390648 -0.46644422 0.19690114 -0.029231206
00000000: d576 8ebc c7d1 eebe 74a0 493e 4876 efbc

feature.7.running_var f4 [4]
6.805633e-05 1.7673043e-06 0.7159914 0.12821616
00000000: 77b9 8e38 1d34 ed35 364b 373f 194b 033e

feature.9.weight f4 [1, 4]
0.050320435 0.32740623 -0.29413965 -0.025474038
00000000: cd1c 4e3d caa1 a73e 7999 96be eeae d0bc
