gesture_detection/checkpoints/train_22/model/140_net_netClassifier.pth (torch_old, 3172 bytes, 19 tensors)

feature.0.weight f4 [4, 9]
000000 35 a8 e5 bc bc 4a 2a 3d 84 8c 4e 3d 7c cb 46 3e
       -0.028034309 0.04157518 0.050426975 0.1941356
000010 3f 62 89 bd 9a 78 90 be a4 b9 9a 3e 47 40 9a be
       -0.06708192 -0.28217012 0.30219758 -0.30127165
000020 ca c3 98 be f4 1d 2a bd d1 41 65 be 7f 52 98 be
       -0.29836875 -0.04153247 -0.22388388 -0.2975044
000030 34 2c 3c 3e e4 6d 88 3e d7 87 8c 3d 52 3a 33 3d
       0.18376237 0.2664634 0.06861847 0.04375679
000040 d1 9a 66 3e 26 22 6d 3e 3c 89 34 3e cd ac 45 be
       0.22519995 0.23157558 0.17630476 -0.193042
000050 ba a9 81 be 78 bd 61 3e 6e e7 10 3e c7 fd 15 be
       -0.25324804 0.22044933 0.14150783 -0.1464759
000060 b9 e9 89 be 39 24 a7 be b7 11 dd 3c df 89 a5 be
       -0.2693613 -0.32644823 0.026985986 -0.3233175
000070 aa db f4 3d d4 d1 c9 3d 73 9e 50 3e 7f 8c ec bc
       0.1195596 0.09854475 0.20372944 -0.028875588
000080 70 82 3a 3e d1 69 ea 3d ff 58 60 be 81 5a 86 3d
       0.1821382 0.11445964 -0.2190895 0.06560231

feature.0.bias f4 [4]
000000 58 f0 45 3e c8 31 1d 3e 7e 30 38 be df db b2 bd
       0.19329965 0.15351021 -0.17987248 -0.08733343

feature.1.weight f4 [4]
000000 09 a2 63 3f 6b 84 f0 3d ed 33 9f 3e da 5c 38 3f
       0.8891912 0.11744007 0.31094304 0.7201668

feature.1.bias f4 [4]
000000 12 96 98 3c 8f 21 99 3c 43 6c 9a bc ba 2d 83 3c
       0.018626247 0.01869276 -0.018850451 0.016013015

feature.1.running_mean f4 [4]
000000 39 50 b6 3f 97 d4 22 3f 6d 5e a2 3e 4c ce 53 40
       1.4243232 0.63605636 0.31712666 3.3094664

feature.1.running_var f4 [4]
000000 ba 61 6b 41 3e 66 e2 3e 02 7b 1c 40 98 fe 28 41
       14.711359 0.4421863 2.4450078 10.562157

feature.3.weight f4 [4, 4]
000000 6a 64 df be a0 6d c9 3e 91 c6 ef be 88 bb 9d be
       -0.43631297 0.3934145 -0.46831182 -0.30807137
000010 e1 c4 dc be b1 5c a5 3e 91 f2 ec be 3f b0 04 3e
       -0.43118957 0.3229728 -0.46278813 0.12957858
000020 e1 26 5e 3e 67 ca b3 be 40 a4 c3 be 26 ca f0 3c
       0.21694519 -0.35115358 -0.3821125 0.029393267
000030 e7 b3 b8 3e 1e b9 ea bd 8f 3f 43 3e 5e b2 bb bb
       0.36074755 -0.114610896 0.19067214 -0.00572805

feature.3.bias f4 [4]
000000 11 05 94 bc a2 04 71 be c5 35 e9 be 07 d6 3f bd
       -0.018068822 -0.23536924 -0.45548835 -0.04683497

feature.4.weight f4 [4]
000000 ec f9 40 3f ab c4 b6 3e e3 4a 68 3f 9f 21 63 3f
       0.7538135 0.3569692 0.9073927 0.88723177

feature.4.bias f4 [4]
000000 3e 85 80 bc 63 9d 81 bc 9d 97 7d 3c 3e 9c 8f bc
       -0.015688535 -0.015822118 0.015478042 -0.017530557

feature.4.running_mean f4 [4]
000000 c3 0b 99 be b4 7a c7 be 74 13 df be 20 0f cb 3d
       -0.29891786 -0.38960803 -0.4356953 0.09914994

feature.4.running_var f4 [4]
000000 0e 82 f1 3e de 01 26 3e be 65 80 3c 22 1d e4 3d
       0.47169536 0.1621165 0.015673514 0.11138369

feature.6.weight f4 [4, 4]
000000 c1 4d 04 3f 3a 60 34 be e8 96 b2 3e 3e 6c f4 39
       0.51681143 -0.17614833 0.34880757 0.00046619953
000010 ca f6 df be 0a 40 a7 be 5e cb 01 bf 74 03 f0 3c
       -0.43742973 -0.32666045 -0.5070094 0.029298522
000020 ce 87 83 be 07 71 a8 bd d0 73 f2 3e f3 0a de 3e
       -0.25689548 -0.08224683 0.47353983 0.4336773
000030 c9 94 a6 3e 44 fc cd be 4c 0b df be 2a 69 6b 3d
       0.3253539 -0.40231526 -0.43563306 0.05747334

feature.6.bias f4 [4]
000000 62 0d 8d be f7 3f f5 bd 62 56 1e bd 4d ff 8b 3d
       -0.27549273 -0.11975091 -0.0386566 0.06835804

feature.7.weight f4 [4]
000000 da 4c d4 3e b4 45 37 3f a1 34 db 3e db 61 a2 3e
       0.41464883 0.71590734 0.4281359 0.31715283

feature.7.bias f4 [4]
000000 ab 98 c8 bd e2 a6 f2 bd 86 a5 22 3e b5 c5 4f bd
       -0.09794744 -0.118482366 0.15883455 -0.050725657

feature.7.running_mean f4 [4]
000000 0b 8e 8f bc 56 5e ef be ed f6 4a 3e 8a af f7 bc
       -0.017523786 -0.4675166 0.19820757 -0.03023507

feature.7.running_var f4 [4]
000000 5a 9e 2d 38 35 5a b3 35 e2 ce 3b 3f 47 2e 09 3e
       4.139389e-05 1.3362793e-06 0.73362553 0.1339656

feature.9.weight f4 [1, 4]
000000 33 2e 4e 3d 33 cc a7 3e cf de 99 be 48 40 f4 bc
       0.050337028 0.3277298 -0.30052802 -0.029815808
