gesture_detection/checkpoints/train_22/model/155_net_netClassifier.pth (torch_old, 3180 bytes, 19 tensors)

feature.0.weight f4 [4, 9]
00000000: c3aa e5bc 014b 2a3d 3c90 4e3d 2db4 463e
00000010: e133 89bd 3e75 90be d4b9 9a3e 4b40 9abe
00000020: acc3 98be eb07 2abd 3644 65be 1652 98be
00000030: e946 3c3e 9c60 883e 5967 8c3d c639 333d
00000040: 339b 663e f522 6d3e 508c 343e ddad 45be
00000050: c0aa 81be 49fd 613e e4a7 103e d517 16be
00000060: 3aea 89be 1a24 a7be e00e dd3c e689 a5be
00000070: afdb f43d 38d2 c93d 9498 503e ed5e ecbc
00000080: c383 3a3e f669 ea3d 0159 60be 9e5a 863d
-0.028035527 0.041575436 0.05043052 0.19404669 -0.06699348 -0.2821445 0.302199 -0.30127177
-0.29836786 -0.041511457 -0.22389302 -0.29750127 0.18386425 0.26636207 0.068556495 0.04375627
0.22520141 0.23157866 0.1763165 -0.19304605 -0.25325584 0.22069277 0.14126545 -0.14657529
-0.26936513 -0.3264473 0.026984632 -0.3233177 0.11955964 0.09854549 0.20370704 -0.028853858
0.18214326 0.11445992 -0.21908952 0.065602526

feature.0.bias f4 [4]
00000000: 63f1 453e f132 1d3e b932 38be 70db b2bd
0.19330363 0.15351464 -0.17988099 -0.08733261

feature.1.weight f4 [4]
00000000: 2093 633f 770d f03d 1f51 9f3e d94a 383f
0.8889637 0.11721318 0.31116578 0.7198921

feature.1.bias f4 [4]
00000000: d0b8 963c aa45 973c 5799 98bc 94ed 803c
0.018398672 0.018465836 -0.018627806 0.015738286

feature.1.running_mean f4 [4]
00000000: d763 b63f ad2f 223f ec2f a23e 9bd3 5340
1.4249219 0.63354 0.31677186 3.3097904

feature.1.running_var f4 [4]
00000000: 6785 6b41 92e9 e53e 444d 1c40 910b 2941
14.720069 0.44904763 2.442216 10.565324

feature.3.weight f4 [4, 4]
00000000: 558e dfbe 9e99 c93e faee efbe 7fe5 9dbe
00000010: 4bf6 dcbe 6190 a53e 6122 edbe 544d 043e
00000020: 64eb 5d3e a8aa b3be adc0 c3be 6ced ee3c
00000030: 1cdd b83e 9e66 ebbd e68e 433e bc61 b1bb
-0.43663278 0.39375013 -0.46862012 -0.30839154 -0.43156657 0.32336715 -0.46315292 0.12920123
0.21671826 -0.35091138 -0.38232937 0.029165946 0.36106193 -0.11494182 0.1909748 -0.005413262

feature.3.bias f4 [4]
00000000: b685 98bc 80c4 71be 0ede e8be 1f7b 3fbd
-0.018618446 -0.23610115 -0.45481914 -0.046748277

feature.4.weight f4 [4]
00000000: 300e 413f 7ff4 b63e 1335 683f fb34 633f
0.75412273 0.3573341 0.90705985 0.88752717

feature.4.bias f4 [4]
00000000: eef9 7bbc 6040 7dbc 0d24 783c 0131 8dbc
-0.015379412 -0.015457243 0.015145314 -0.017235281

feature.4.running_mean f4 [4]
00000000: f0f4 99be 4270 c7be 63e9 dcbe 606d cb3d
-0.30069685 -0.38952833 -0.4314681 0.09932971

feature.4.running_var f4 [4]
00000000: 4d9a f13e 8b10 263e 432d 813c cc07 e43d
0.47188035 0.16217248 0.015768653 0.111343

feature.6.weight f4 [4, 4]
00000000: eb10 043f 9b52 35be b010 b33e 8a9e b63a
00000010: 9924 e0be 5e6d a7be 1fb4 01bf 14e0 f23c
00000020: 6cff 89be 75cc c0bd 5700 f93e 578c e43e
00000030: a01b ae3e aeed c6be 8bad e6be 3ecc 2e3d
0.51588315 -0.17707293 0.3497367 0.0013932746 -0.43777922 -0.32700628 -0.5066547 0.029647864
-0.26952684 -0.09413997 0.48633072 0.4463832 0.3400545 -0.3885321 -0.45054278 0.04267525

feature.6.bias f4 [4]
00000000: be40 8cbe 6120 f3bd 0c8e 1fbd ca1a 8c3d
-0.27393144 -0.1187141 -0.038953826 0.06841047

feature.7.weight f4 [4]
00000000: 29b5 d33e 2eda 363f 74b0 e43e 477b a83e
0.41349152 0.71426666 0.44665873 0.32906553

feature.7.bias f4 [4]
00000000: 880d d2bd 0dc6 00be 86f8 353e 6ec9 20bd
-0.10256487 -0.1257555 0.17770585 -0.0392546

feature.7.running_mean f4 [4]
00000000: c8eb 8abc 41cd efbe 49ba 4e3e ab64 0bbd
-0.016958132 -0.46836284 0.2018825 -0.03403155

feature.7.running_var f4 [4]
00000000: 6864 1c37 3101 4635 9da2 493f aefa 203e
9.321702e-06 7.376248e-07 0.78763753 0.15720627

feature.9.weight f4 [1, 4]
00000000: 0dfb 523d 7ca1 a83e 57c2 a3be 3526 33bd
0.051508952 0.32935703 -0.31984207 -0.04373761
