gesture_detection/checkpoints/train_22/model/15_net_netClassifier.pth (torch_old, 3168 bytes, 19 tensors)

feature.0.weight f4 [4, 9]
000000 a5 bb e5 bc 26 4d 2a 3d f0 a1 4e 3d e2 ed 45 3e
       -0.028043577 0.04157748 0.050447404 0.19329026
000010 f9 b7 87 bd fd 62 90 be c0 ba 9a 3e 69 40 9a be
       -0.06626887 -0.28200522 0.30220604 -0.30127266
000020 16 c3 98 be ab 75 26 bd e8 a3 65 be 69 50 98 be
       -0.2983634 -0.04063956 -0.22425807 -0.29748848
000030 ea 2d 41 3e 88 ef 85 3e c4 3e 86 3d 62 f6 32 3d
       0.18865171 0.2615931 0.0655494 0.043692
000040 2f ab 66 3e 64 3a 6d 3e 1e 92 34 3e a0 af 45 be
       0.22526239 0.23166806 0.17633864 -0.19305277
000050 a6 ae 81 be 61 10 62 3e e9 89 10 3e c6 57 16 be
       -0.2532856 0.2207656 0.14115109 -0.1468192
000060 e8 eb 89 be d4 23 a7 be 23 00 dd 3c f3 89 a5 be
       -0.26937795 -0.32644522 0.026977604 -0.3233181
000070 d7 db f4 3d e6 d0 c9 3d 7d 6f 50 3e ad 4f eb bc
       0.119559936 0.09854297 0.2035503 -0.028724516
000080 9b 81 3a 3e 81 69 ea 3d ff 58 60 be 35 5a 86 3d
       0.18213503 0.114459045 -0.2190895 0.065601744

feature.0.bias f4 [4]
000000 5a f6 45 3e 7b 3f 1d 3e 50 3b 38 be ee dc b2 bd
       0.19332257 0.15356247 -0.17991376 -0.08733545

feature.1.weight f4 [4]
000000 8e 33 63 3f 46 fe ec 3d aa 2b a0 3e 1f 57 38 3f
       0.8875054 0.11571936 0.31283313 0.72007936

feature.1.bias f4 [4]
000000 51 c3 8a 3c d4 0b 8b 3c cb ed 8a bc d5 71 82 3c
       0.016938837 0.016973414 -0.016959092 0.01592342

feature.1.running_mean f4 [4]
000000 ca 30 8f 3f a4 d7 19 3f 1c 82 89 3e 9a 0e 28 40
       1.1186764 0.60094666 0.26857078 2.6258912

feature.1.running_var f4 [4]
000000 3e a8 3b 41 5f ac b9 3e ae 61 0f 40 25 22 09 41
       11.728575 0.3626432 2.240337 8.570836

feature.3.weight f4 [4, 4]
000000 5a 6a de be 03 2c c8 3e 56 ff ee be 56 be 9c be
       -0.43440515 0.39096078 -0.4667918 -0.30613965
000010 c2 ab db be 47 f7 a3 3e c1 0b ec be cb e8 06 3e
       -0.42904478 0.32024595 -0.46102718 0.13174741
000020 30 60 5c 3e 32 2c b3 be bd b3 c4 be 2b c8 e2 3c
       0.21521068 -0.34994656 -0.3841838 0.027683338
000030 73 6b b8 3e 5d 75 e8 bd cc 11 43 3e cb 9c ce bb
       0.36019477 -0.1135051 0.19049758 -0.0063053123

feature.3.bias f4 [4]
000000 e5 7e b3 b9 7e 93 74 be 6a 99 f7 be ae 66 45 bd
       -0.00034236084 -0.23884389 -0.48359233 -0.048193626

feature.4.weight f4 [4]
000000 02 89 40 3f a4 f4 b5 3e fe c9 68 3f 32 2a 63 3f
       0.7520906 0.35538208 0.90933216 0.8873626

feature.4.bias f4 [4]
000000 c6 a2 8e bc f4 9d 8e bc 94 ab 8e 3c c6 89 8e bc
       -0.0174116 -0.017409302 0.0174158 -0.01739968

feature.4.running_mean f4 [4]
000000 ee fc 67 be 0e 1c a2 be 8f 0d bc be 08 49 a2 3d
       -0.22655079 -0.3166203 -0.36729094 0.07924086

feature.4.running_var f4 [4]
000000 9e 22 14 3f 72 2b ac 3e b0 93 5b 3e 7d ac 97 3e
       0.5786532 0.33626896 0.21443057 0.29623786

feature.6.weight f4 [4, 4]
000000 7b 6c c5 3e f0 d1 9c be 29 30 f6 3e ab f6 06 3e
       0.38559327 -0.3062892 0.48083618 0.13180034
000010 25 1c df be 8f 77 a6 be 31 47 02 bf 1b 33 e2 3c
       -0.4357616 -0.3251309 -0.5088988 0.02761226
000020 14 98 19 be b9 54 84 3c 29 80 ba 3e fc b9 a6 3e
       -0.1499942 0.01615368 0.36425903 0.3256377
000030 83 0c bc 3e 0b 66 ba be a7 12 f5 be 04 2b 76 3c
       0.36728296 -0.36405978 -0.47865793 0.015024904

feature.6.bias f4 [4]
000000 94 49 8b be 5c 31 cd bd b9 14 1f bd 85 83 8c 3d
       -0.27204573 -0.1001918 -0.038838122 0.06861023

feature.7.weight f4 [4]
000000 11 f8 fa 3e f3 f4 44 3f 64 c8 92 3e 78 4a b5 3e
       0.49017385 0.7693626 0.2866851 0.35408378

feature.7.bias f4 [4]
000000 c3 f9 6c bc e0 1e 72 bc 75 fd 75 3c e1 a9 6f bc
       -0.014463845 -0.014777869 0.015014042 -0.014627905

feature.7.running_mean f4 [4]
000000 3b 31 a1 3c 0b 08 b6 be 17 97 06 3e 41 07 13 bd
       0.019676795 -0.3555301 0.13143574 -0.03589559

feature.7.running_var f4 [4]
000000 c1 f1 95 3e 23 95 53 3e 9e 10 fe 3e 5c 85 cd 3e
       0.29286006 0.2066236 0.49622053 0.40140808

feature.9.weight f4 [1, 4]
000000 73 3d 07 3e 40 f1 b9 3e a2 eb 1d be 79 32 97 3d
       0.13207035 0.36316872 -0.15421918 0.07382674
