gesture_detection/checkpoints/train_22/model/160_net_netClassifier.pth (torch_old, 3176 bytes, 19 tensors)

feature.0.weight f4 [4, 9]
0	0xbce5a8a0	-0.028034508
1	0x3d2a4ab4	0.04157515
2	0x3d4e8e8c	0.050428912
3	0x3e46cca3	0.19414
4	0xbd89628b	-0.06708249
5	0xbe907738	-0.28215957
6	0x3e9ab9bd	0.30219832
7	0xbe9a4048	-0.30127168
8	0xbe98c3b9	-0.29836825
9	0xbd2a3676	-0.041555844
10	0xbe653f34	-0.22387391
11	0xbe985273	-0.29750404
12	0x3e3c0f0f	0.1836512
13	0x3e887c6b	0.26657423
14	0x3d8caf37	0.06869357
15	0x3d333c7b	0.04375885
16	0x3e669a5f	0.22519825
17	0x3e6d218f	0.23157333
18	0x3e3489db	0.17630713
19	0xbe45acf8	-0.19304264
20	0xbe81aa56	-0.25325269
21	0x3e61c8a3	0.22049193
22	0x3e10dc00	0.14146423
23	0xbe160613	-0.14650755
24	0xbe89e9fc	-0.26936328
25	0xbea72430	-0.32644796
26	0x3cdd0f2f	0.02698478
27	0xbea589df	-0.3233175
28	0x3df4dba5	0.11955956
29	0x3dc9d23d	0.09854553
30	0x3e50a1cf	0.20374225
31	0xbcec9f31	-0.028884502
32	0x3e3a8373	0.18214206
33	0x3dea69f6	0.11445992
34	0xbe605900	-0.21908951
35	0x3d865aa1	0.06560255

feature.0.bias f4 [4]
0	0x3e45f0eb	0.19330184
1	0x3e1d31a7	0.15350972
2	0xbe3831df	-0.17987774
3	0xbdb2db6a	-0.08733256

feature.1.weight f4 [4]
0	0x3f63a477	0.8892283
1	0x3df0982c	0.117477745
2	0x3e9f2e51	0.31090024
3	0x3f385b53	0.7201435

feature.1.bias f4 [4]
0	0x3c98e383	0.018663174
1	0x3c997093	0.018730437
2	0xbc9ac62c	-0.018893324
3	0x3c82fc93	0.015989577

feature.1.running_mean f4 [4]
0	0x3fb66577	1.4249715
1	0x3f221bc1	0.633236
2	0x3ea25a57	0.3170955
3	0x4053d52a	3.3098855

feature.1.running_var f4 [4]
0	0x416b8661	14.720307
1	0x3ee65aea	0.44991237
2	0x401c6b9d	2.4440682
3	0x41290f2c	10.566204

feature.3.weight f4 [4, 4]
0	0xbedf6edd	-0.4363927
1	0x3ec97b27	0.3935177
2	0xbeefcf12	-0.4683767
3	0xbe9dc61c	-0.30815208
4	0xbedcda3f	-0.4313526
5	0x3ea57537	0.3231599
6	0xbeed05d7	-0.46293518
7	0x3e048545	0.12941463
8	0x3e5e30c2	0.21698287
9	0xbeb3ccd5	-0.35117212
10	0xbec39dac	-0.38206232
11	0x3cf11719	0.02942996
12	0x3eb8bcd5	0.36081567
13	0xbdeae8a5	-0.11470155
14	0x3e434d78	0.1907252
15	0xbbb96e05	-0.0056588673

feature.3.bias f4 [4]
0	0xbc8d3bc5	-0.017240414
1	0xbe70867a	-0.23488799
2	0xbee93354	-0.45546973
3	0xbd3ea66c	-0.04654543

feature.4.weight f4 [4]
0	0x3f40fe1b	0.75387734
1	0x3eb6d751	0.35711148
2	0x3f68447b	0.9072949
3	0x3f632426	0.88727033

feature.4.bias f4 [4]
0	0xbc7fff34	-0.01562481
1	0xbc807315	-0.015679875
2	0x3c7bfe16	0.015380403
3	0xbc8f4b8d	-0.01749208

feature.4.running_mean f4 [4]
0	0xbe99d265	-0.3004333
1	0xbec7591f	-0.38935181
2	0xbedc92b9	-0.4308069
3	0x3dcb0b41	0.09914256

feature.4.running_var f4 [4]
0	0x3ef1a55a	0.47196466
1	0x3e26207f	0.16223334
2	0x3c812bf1	0.015768023
3	0x3de4153b	0.11136862

feature.6.weight f4 [4, 4]
0	0x3f03f8ed	0.51551706
1	0xbe35b297	-0.17743908
2	0x3eb340a6	0.3501026
3	0x3ae694c8	0.0017591948
4	0xbee00686	-0.43754977
5	0xbea74eff	-0.32677457
6	0xbf01c2eb	-0.50688046
7	0x3cf1002b	0.029419025
8	0xbe8c235f	-0.27370736
9	0xbdc8def0	-0.09808147
10	0x3efb2b8e	0.49056667
11	0x3ee6b402	0.4505921
12	0x3eb0d2e6	0.34535903
13	0xbec46055	-0.38354746
14	0xbee96e6c	-0.45592058
15	0x3d18ecc3	0.03733517

feature.6.bias f4 [4]
0	0xbe8be22b	-0.2732099
1	0xbdf4f1bf	-0.11960172
2	0xbd1f6935	-0.038918693
3	0x3d8c0b66	0.068381116

feature.7.weight f4 [4]
0	0x3ed3b45d	0.41348544
1	0x3f36910d	0.7131508
2	0x3ee7dfe1	0.45287994
3	0x3eab1036	0.33410805

feature.7.bias f4 [4]
0	0xbdd3d900	-0.10344124
1	0xbe042597	-0.12904964
2	0x3e3c77a4	0.18405014
3	0xbd0ce6a9	-0.034399662

feature.7.running_mean f4 [4]
0	0xbc866bb3	-0.016408777
1	0xbeefd8d2	-0.46845108
2	0x3e4ffb91	0.20310809
3	0xbd11515a	-0.035477974

feature.7.running_var f4 [4]
0	0x36b9c6bc	5.5365654e-06
1	0x356d13d3	8.831823e-07
2	0x3f4e5424	0.8059714
3	0x3e2aad19	0.16667594

feature.9.weight f4 [1, 4]
0	0x3d55cdfe	0.052198403
1	0x3ea8d68f	0.32976195
2	0xbea714f6	-0.3263318
3	0xbd47a70f	-0.048743304
