gesture_detection/checkpoints/train_22/model/170_net_netClassifier.pth (torch_old, 3184 bytes, 19 tensors)

feature.0.weight f4 [4, 9]
0	0xbce5aa6d	-0.028035367
1	0x3d2a4b71	0.041575853
2	0x3d4e874a	0.05042199
3	0x3e4699ba	0.1939458
4	0xbd890af9	-0.06691546
5	0xbe907a9a	-0.28218538
6	0x3e9ab966	0.30219573
7	0xbe9a4043	-0.30127153
8	0xbe98c402	-0.29837042
9	0xbd2a36c2	-0.041556127
10	0xbe653f1a	-0.22387353
11	0xbe98532e	-0.2975096
12	0x3e3c0e02	0.18364719
13	0x3e887ce5	0.26657787
14	0x3d8cab16	0.068685696
15	0x3d333a4f	0.04375678
16	0x3e669a66	0.22519836
17	0x3e6d211d	0.23157163
18	0x3e348ba4	0.17631394
19	0xbe45add4	-0.19304591
20	0xbe81a8c1	-0.25324062
21	0x3e61f853	0.22067384
22	0x3e10ae32	0.1412895
23	0xbe160561	-0.1465049
24	0xbe89e971	-0.26935914
25	0xbea7242c	-0.32644784
26	0x3cdd1807	0.026988996
27	0xbea589e4	-0.32331765
28	0x3df4dbbb	0.11955973
29	0x3dc9d134	0.098543555
30	0x3e508e02	0.20366672
31	0xbcec211c	-0.028824382
32	0x3e3a813f	0.18213366
33	0x3dea6991	0.114459164
34	0xbe6058fe	-0.21908948
35	0x3d865a50	0.065601945

feature.0.bias f4 [4]
0	0x3e45eedc	0.19329399
1	0x3e1d2fff	0.1535034
2	0xbe382e38	-0.17986381
3	0xbdb2dc97	-0.087334804

feature.1.weight f4 [4]
0	0x3f639ba2	0.8890935
1	0x3df05253	0.11734452
2	0x3e9f3ee5	0.31102672
3	0x3f384e6b	0.71994656

feature.1.bias f4 [4]
0	0x3c97c92d	0.018528545
1	0x3c985919	0.018597173
2	0xbc99bd24	-0.018766947
3	0x3c815f85	0.015792618

feature.1.running_mean f4 [4]
0	0x3fb6656b	1.42497
1	0x3f219202	0.63113415
2	0x3ea1ed69	0.31626442
3	0x4053d58b	3.3099086

feature.1.running_var f4 [4]
0	0x416b87c0	14.720642
1	0x3ee93d6e	0.4555468
2	0x401c1592	2.4388165
3	0x412910cb	10.5666

feature.3.weight f4 [4, 4]
0	0xbedf9655	-0.43669382
1	0x3ec9a642	0.39384657
2	0xbeeff457	-0.46866104
3	0xbe9dedad	-0.30845395
4	0xbedcfed4	-0.43163168
5	0x3ea59d20	0.3234644
6	0xbeed282c	-0.4631971
7	0x3e043be6	0.12913474
8	0x3e5e0dee	0.21685001
9	0xbeb3b895	-0.35101762
10	0xbec3ad39	-0.38218096
11	0x3ceffebf	0.029296277
12	0x3eb8d924	0.36103165
13	0xbdeb66e1	-0.11494232
14	0x3e4381bd	0.1909246
15	0xbbb2535b	-0.0054420657

feature.3.bias f4 [4]
0	0xbc74a2cb	-0.014931391
1	0xbe707de6	-0.23485526
2	0xbee89cca	-0.4543212
3	0xbd442ccc	-0.047894284

feature.4.weight f4 [4]
0	0x3f411074	0.7541573
1	0x3eb6f8e6	0.3573677
2	0x3f6831da	0.9070107
3	0x3f63307d	0.8874586

feature.4.bias f4 [4]
0	0xbc7b68bf	-0.015344798
1	0xbc7cb36f	-0.01542364
2	0x3c775634	0.015096236
3	0xbc8dc0a5	-0.017303774

feature.4.running_mean f4 [4]
0	0xbe994531	-0.299356
1	0xbec6f845	-0.3886129
2	0xbedc9dd8	-0.43089175
3	0x3dca3faf	0.09875428

feature.4.running_var f4 [4]
0	0x3ef1aedf	0.4720373
1	0x3e261c07	0.16221629
2	0x3c81fce1	0.015867652
3	0x3de3f4d6	0.11130683

feature.6.weight f4 [4, 4]
0	0x3f041068	0.51587534
1	0xbe3553ae	-0.17707703
2	0x3eb31221	0.3497477
3	0x3ab79c6f	0.0014008413
4	0xbee02963	-0.43781576
5	0xbea77112	-0.32703453
6	0xbf01b0ec	-0.50660586
7	0x3cf32e50	0.02968517
8	0xbe9069ce	-0.28205723
9	0xbdd9018c	-0.10595998
10	0x3eff7efe	0.49901575
11	0x3eeb0052	0.45898682
12	0x3eb672eb	0.3563455
13	0xbebf14ec	-0.3732065
14	0xbeef2130	-0.46705008
15	0x3cd74e78	0.026282534

feature.6.bias f4 [4]
0	0xbe895d8e	-0.2682919
1	0xbdf72aa4	-0.1206868
2	0xbd208ce1	-0.039196853
3	0x3d8c49e5	0.06850032

feature.7.weight f4 [4]
0	0x3ed36392	0.41286904
1	0x3f35d647	0.71030086
2	0x3eee458b	0.46537432
3	0x3eb10dab	0.3458074

feature.7.bias f4 [4]
0	0xbdda027c	-0.10645005
1	0xbe0b8583	-0.1362515
2	0x3e49875a	0.19680539
3	0xbcbd82d9	-0.023133682

feature.7.running_mean f4 [4]
0	0xbc6d106f	-0.01446925
1	0xbef08917	-0.4697959
2	0x3e5275ea	0.20552793
3	0xbd1e2e4c	-0.03861837

feature.7.running_var f4 [4]
0	0x36500b4e	3.1000995e-06
1	0x35920155	1.0878235e-06
2	0x3f57d130	0.8430357
3	0x3e4061c9	0.18787302

feature.9.weight f4 [1, 4]
0	0x3d5a80cf	0.053345498
1	0x3ea92880	0.33038712
2	0xbeadc204	-0.33937085
3	0xbd734a46	-0.059397005
