gesture_detection/checkpoints/train_22/model/175_net_netClassifier.pth (torch_old, 3188 bytes, 19 tensors)

feature.0.weight f4 [4, 9]
0	0xbce5a534	-0.028032877
1	0x3d2a4ace	0.041575246
2	0x3d4e814c	0.050416276
3	0x3e46ce1e	0.19414565
4	0xbd89711a	-0.067110255
5	0xbe908084	-0.2822305
6	0x3e9ab917	0.30219337
7	0xbe9a403a	-0.30127126
8	0xbe98c434	-0.2983719
9	0xbd2a873c	-0.041632876
10	0xbe653685	-0.22384079
11	0xbe985306	-0.29750842
12	0x3e3baed6	0.18328413
13	0x3e88ac56	0.26693982
14	0x3d8d2bcd	0.0689312
15	0x3d334164	0.043763533
16	0x3e6698ee	0.22519276
17	0x3e6d1f2a	0.2315642
18	0x3e348687	0.17629443
19	0xbe45abe0	-0.19303846
20	0xbe81a8c8	-0.25324082
21	0x3e6188b5	0.22024806
22	0x3e111c0e	0.14170858
23	0xbe15e6f5	-0.14638884
24	0xbe89e947	-0.2693579
25	0xbea72453	-0.326449
26	0x3cdd1468	0.02698727
27	0xbea589d4	-0.32331717
28	0x3df4dbac	0.119559616
29	0x3dc9d098	0.09854239
30	0x3e509f85	0.20373352
31	0xbceca2a8	-0.028886154
32	0x3e3a7ed0	0.18212438
33	0x3dea6950	0.11445868
34	0xbe6058f9	-0.2190894
35	0x3d865a27	0.06560164

feature.0.bias f4 [4]
0	0x3e45ed2e	0.19328758
1	0x3e1d2f8f	0.15350173
2	0xbe382e73	-0.17986469
3	0xbdb2dd45	-0.0873361

feature.1.weight f4 [4]
0	0x3f63bba4	0.8895819
1	0x3df15202	0.1178322
2	0x3e9efef5	0.31053892
3	0x3f386e3a	0.7204319

feature.1.bias f4 [4]
0	0x3c9bc9a9	0.019017057
1	0x3c9c5791	0.019084724
2	0xbc9dbc60	-0.019254863
3	0x3c855999	0.016278075

feature.1.running_mean f4 [4]
0	0x3fb65870	1.4245739
1	0x3f2152d6	0.6301702
2	0x3ea1e0db	0.31616864
3	0x4053d2a3	3.3097312

feature.1.running_var f4 [4]
0	0x416b78be	14.716978
1	0x3eea9075	0.45813337
2	0x401c0510	2.437809
3	0x41290a63	10.565036

feature.3.weight f4 [4, 4]
0	0xbedf5669	-0.43620613
1	0x3ec9669d	0.393361
2	0xbeefb44a	-0.46817237
3	0xbe9dadde	-0.30796713
4	0xbedcc333	-0.43117675
5	0x3ea561bb	0.32301125
6	0xbeecec60	-0.4627409
7	0x3e04b2f1	0.12958886
8	0x3e5e8de1	0.2173381
9	0xbeb3f87e	-0.35150522
10	0xbec36d42	-0.38169295
11	0x3cf3fca3	0.029783553
12	0x3eb897d9	0.3605335
13	0xbdea632c	-0.11444697
14	0x3e42fef9	0.19042577
15	0xbbc29eb0	-0.005939327

feature.3.bias f4 [4]
0	0xbc7caa37	-0.015421442
1	0xbe723b33	-0.23655395
2	0xbee76f66	-0.45202178
3	0xbd423d0a	-0.047421493

feature.4.weight f4 [4]
0	0x3f40f003	0.7536623
1	0x3eb6bbcc	0.35690153
2	0x3f685177	0.90749305
3	0x3f630f48	0.8869519

feature.4.bias f4 [4]
0	0xbc81c270	-0.015839785
1	0xbc822b57	-0.015889807
2	0x3c7f3d98	0.01557865
3	0xbc91e755	-0.017810503

feature.4.running_mean f4 [4]
0	0xbe98c6c6	-0.29839152
1	0xbec70a6c	-0.3887514
2	0xbedc2ddc	-0.43003738
3	0x3dc96cbb	0.09835192

feature.4.running_var f4 [4]
0	0x3ef1b935	0.47211614
1	0x3e262534	0.1622513
2	0x3c8243b9	0.015901433
3	0x3de3f233	0.1113018

feature.6.weight f4 [4, 4]
0	0x3f03f458	0.51544714
1	0xbe35c3da	-0.17750493
2	0x3eb34a15	0.35017458
3	0x3aefa563	0.0018283542
4	0xbedfeb2b	-0.43734106
5	0xbea73292	-0.3265577
6	0xbf01cfca	-0.50707686
7	0x3cef4cf5	0.0292115
8	0xbe928990	-0.28620577
9	0xbde107a8	-0.109877884
10	0x3f00d23b	0.50320786
11	0x3eed226a	0.46315318
12	0x3eb953bc	0.36196697
13	0xbebc5e27	-0.36790583
14	0xbef20b3e	-0.47274202
15	0x3ca8fabb	0.02062737

feature.6.bias f4 [4]
0	0xbe88bcf5	-0.26706663
1	0xbdf8c81c	-0.12147543
2	0xbd21a340	-0.039462328
3	0x3d8c5629	0.06852371

feature.7.weight f4 [4]
0	0x3ed32895	0.412419
1	0x3f358a7c	0.70914435
2	0x3ef17a17	0.4716346
3	0x3eb470c0	0.3524227

feature.7.bias f4 [4]
0	0xbddd6ad4	-0.108113915
1	0xbe0f2098	-0.13977277
2	0x3e5013be	0.20320031
3	0xbc8945ed	-0.016756976

feature.7.running_mean f4 [4]
0	0xbc4efbe8	-0.012633301
1	0xbef0b50e	-0.47013134
2	0x3e5394b9	0.20662202
3	0xbd24add4	-0.040204838

feature.7.running_var f4 [4]
0	0x36296330	2.5240697e-06
1	0x3581685e	9.641624e-07
2	0x3f5ca1d7	0.8618445
3	0x3e4c386d	0.199434

feature.9.weight f4 [1, 4]
0	0x3d5c49e2	0.053781398
1	0x3ea980ce	0.33106083
2	0xbeb11a86	-0.34590548
3	0xbd85397c	-0.06505105
