gesture_detection/checkpoints/train_22/model/180_net_netClassifier.pth (torch_old, 3192 bytes, 19 tensors)

feature.0.weight f4 [4, 9]
-0.028032925 0.041575316 0.05041528 0.19412588 -0.06709378 -0.28223476 0.302193 -0.30127126
-0.2983722 -0.041625675 -0.22384435 -0.29749897 0.18332279 0.2669019 0.0689233 0.043766525
0.22519305 0.23156776 0.17629954 -0.1930405 -0.25323898 0.2203643 0.14159481 -0.14641275
-0.26935753 -0.32644874 0.026988268 -0.32331726 0.11955965 0.09854236 0.20371288 -0.028868226
0.18212497 0.11445867 -0.21908942 0.06560162
00000000: 4ea5 e5bc e14a 2a3d 4180 4e3d efc8 463e
00000010: 7768 89bd 1381 90be 0ab9 9a3e 3a40 9abe
00000020: 3ec4 98be af7f 2abd 7437 65be c951 98be
00000030: f8b8 3b3e 5ea7 883e a927 8d3d 8744 333d
00000040: 0299 663e 1920 6d3e de87 343e 69ac 45be
00000050: 8aa8 81be 2ea7 613e 3bfe 103e 39ed 15be
00000060: 3be9 89be 4a24 a7be 8016 dd3c d789 a5be
00000070: b1db f43d 94d0 c93d 1c9a 503e 0f7d ecbc
00000080: f87e 3a3e 4f69 ea3d fa58 60be 245a 863d

feature.0.bias f4 [4]
0.19328645 0.15351279 -0.17986241 -0.08733614
00000000: e2ec 453e 7532 1d3e da2d 38be 4add b2bd

feature.1.weight f4 [4]
0.88948303 0.11773391 0.31063408 0.7203108
00000000: 29b5 633f 7a1e f13d 6e0b 9f3e 4a66 383f

feature.1.bias f4 [4]
0.01891832 0.01898629 -0.01915983 0.016157012
00000000: 98fa 9a3c 2389 9b3c 13f5 9cbc b65b 843c

feature.1.running_mean f4 [4]
1.4247384 0.6287965 0.31534612 3.309754
00000000: d45d b63f cff8 203f 0c75 a13e 02d3 5340

feature.1.running_var f4 [4]
14.720573 0.46196613 2.432971 10.565531
00000000: 7887 6b41 d386 ec3e ccb5 1b40 6a0c 2941

feature.3.weight f4 [4, 4]
-0.43636996 0.39353552 -0.46832985 -0.3081312 -0.43130657 0.32314906 -0.4628643 0.12945879
0.21724027 -0.351399 -0.38178536 0.029685484 0.36065063 -0.11457295 0.1905367 -0.005821926
00000000: e26b dfbe 7d7d c93e eec8 efbe 5fc3 9dbe
00000010: 37d4 dcbe cb73 a53e 8dfc ecbe d890 043e
00000020: 3c74 5e3e 92ea b3be 5f79 c3be f92e f33c
00000030: 33a7 b83e 39a5 eabd 0d1c 433e dbc5 bebb

feature.3.bias f4 [4]
-0.014320683 -0.23887603 -0.4493384 -0.04723066
00000000: 4ca1 6abc eb9b 74be af0f e6be f074 41bd

feature.4.weight f4 [4]
0.7538261 0.3570217 0.9073376 0.8870572
00000000: bffa 403f 8ccb b63e 4747 683f 2e16 633f

feature.4.bias f4 [4]
-0.015676022 -0.015769653 0.015423212 -0.017705267
00000000: 006b 80bc 5c2f 81bc a4b1 7c3c a30a 91bc

feature.4.running_mean f4 [4]
-0.29761305 -0.3898164 -0.4282362 0.098301135
00000000: bd60 98be 0496 c7be c641 dbbe 1b52 c93d

feature.4.running_var f4 [4]
0.47212175 0.1622256 0.015975555 0.11124842
00000000: f1b9 f13e 781e 263e 2bdf 823c 36d6 e33d

feature.6.weight f4 [4, 4]
0.51604724 -0.17690241 0.34957686 0.0012284672 -0.43747592 -0.32669044 -0.506939 0.029346352
-0.29030943 -0.11375447 0.50736415 0.46728224 0.36768073 -0.36251336 -0.47853038 0.014877866
00000000: ac1b 043f e825 35be bdfb b23e 8504 a13a
00000010: d8fc dfbe f843 a7be c1c6 01bf c367 f03c
00000020: 70a3 94be 1bf8 e8bd 9ee2 013f 9e3f ef3e
00000030: a640 bc3e 5a9b b9be ef01 f5be 4bc2 733c

feature.6.bias f4 [4]
-0.2680523 -0.11991977 -0.03947014 0.068480745
00000000: 273e 89be 7f98 f5bd 71ab 21bd a23f 8c3d

feature.7.weight f4 [4]
0.41207635 0.70813936 0.47787368 0.3595606
00000000: acfb d23e 9f48 353f dcab f43e 5418 b83e

feature.7.bias f4 [4]
-0.1096283 -0.14288819 0.20959583 -0.009885638
00000000: cd84 e0bd 4851 12be 4aa0 563e 5ff7 21bc

feature.7.running_mean f4 [4]
-0.011531175 -0.4701727 0.20773686 -0.041879755
00000000: 41ed 3cbc 7aba f0be f9b8 543e 1b8a 2bbd

feature.7.running_var f4 [4]
1.9050161e-06 8.401266e-07 0.88070905 0.2116443
00000000: dbaf ff35 0f85 6135 2676 613f 49b9 583e

feature.9.weight f4 [1, 4]
0.054329094 0.33173284 -0.35242712 -0.07096671
00000000: 2f88 5e3d e3d8 a93e 5471 b4be ff56 91bd
