gesture_detection/checkpoints/train_22/model/185_net_netClassifier.pth (torch_old, 3180 bytes, 19 tensors)

feature.0.weight f4 [4, 9]
0	0xbce5a698	-0.02803354
1	0x3d2a4b22	0.04157556
2	0x3d4e7ffa	0.050415017
3	0x3e46b5f0	0.19405341
4	0xbd894598	-0.06702727
5	0xbe9080a3	-0.28223142
6	0x3e9ab906	0.30219287
7	0xbe9a403a	-0.30127126
8	0xbe98c442	-0.29837233
9	0xbd2a6b57	-0.041606274
10	0xbe6539a0	-0.22385263
11	0xbe9851ce	-0.29749912
12	0x3e3bd10e	0.18341467
13	0x3e889b5c	0.2668103
14	0x3d8d073b	0.06886145
15	0x3d3342cb	0.04376487
16	0x3e669962	0.22519448
17	0x3e6d209b	0.23156969
18	0x3e348975	0.1763056
19	0xbe45ad03	-0.1930428
20	0xbe81a88e	-0.2532391
21	0x3e61c98f	0.22049545
22	0x3e10dc60	0.14146566
23	0xbe15f6d5	-0.1464494
24	0xbe89e94b	-0.269358
25	0xbea7243d	-0.32644835
26	0x3cdd1783	0.02698875
27	0xbea589dc	-0.3233174
28	0x3df4dbb6	0.11955969
29	0x3dc9d098	0.09854239
30	0x3e509414	0.20368987
31	0xbcec52a4	-0.028848
32	0x3e3a7f44	0.1821261
33	0x3dea6953	0.1144587
34	0xbe6058fa	-0.21908942
35	0x3d865a24	0.06560162

feature.0.bias f4 [4]
0	0x3e45eccd	0.19328614
1	0x3e1d329c	0.15351337
2	0xbe382dd6	-0.17986235
3	0xbdb2dd44	-0.08733609

feature.1.weight f4 [4]
0	0x3f63abf9	0.88934284
1	0x3df0d50b	0.11759385
2	0x3e9f1db5	0.31077352
3	0x3f385c7e	0.7201613

feature.1.bias f4 [4]
0	0x3c99d4b9	0.018778192
1	0x3c9a6360	0.018846214
2	0xbc9bd099	-0.019020366
3	0x3c83222f	0.016007511

feature.1.running_mean f4 [4]
0	0x3fb66846	1.4250572
1	0x3f20b887	0.62781566
2	0x3ea1254f	0.31473777
3	0x4053d394	3.3097887

feature.1.running_var f4 [4]
0	0x416b9bed	14.725568
1	0x3eedf490	0.4647565
2	0x401b7ae4	2.4293756
3	0x41290e8a	10.56605

feature.3.weight f4 [4, 4]
0	0xbedf7fa1	-0.4365206
1	0x3ec9918c	0.39368856
2	0xbeefdc6c	-0.46847856
3	0xbe9dd719	-0.3082817
4	0xbedceba4	-0.4314853
5	0x3ea58b9c	0.32333076
6	0xbeed13b0	-0.46304083
7	0x3e046208	0.12928021
8	0x3e5e4f7a	0.21710005
9	0xbeb3d7d2	-0.35125595
10	0xbec38b81	-0.3819237
11	0x3cf20925	0.029545376
12	0x3eb8bd89	0.36082104
13	0xbdeafff9	-0.11474604
14	0x3e434825	0.1907049
15	0xbbb93170	-0.0056516454

feature.3.bias f4 [4]
0	0xbc6bb3a6	-0.014386093
1	0xbe74bbdb	-0.23899786
2	0xbee5f809	-0.44915798
3	0xbd416e7b	-0.047224503

feature.4.weight f4 [4]
0	0x3f4104a2	0.75397694
1	0x3eb6e2f7	0.35720035
2	0x3f683cdb	0.9071786
3	0x3f63213e	0.887226

feature.4.bias f4 [4]
0	0xbc7e5d18	-0.015525125
1	0xbc7f7168	-0.015591003
2	0x3c7a1648	0.015264101
3	0xbc8fa8b4	-0.017536499

feature.4.running_mean f4 [4]
0	0xbe9812cb	-0.29701838
1	0xbec810b0	-0.39075232
2	0xbeda6e1b	-0.4266213
3	0x3dc94b3d	0.09828804

feature.4.running_var f4 [4]
0	0x3ef1bae1	0.4721289
1	0x3e2616b6	0.16219601
2	0x3c83516f	0.016030042
3	0x3de3bebe	0.111203656

feature.6.weight f4 [4, 4]
0	0x3f040348	0.51567507
1	0xbe35876b	-0.17727439
2	0x3eb32c8d	0.34994927
3	0x3ad1c677	0.0016004582
4	0xbee01323	-0.437646
5	0xbea75a3d	-0.32686034
6	0xbf01bb98	-0.5067687
7	0x3cf1cbe7	0.029516174
8	0xbe96b8ca	-0.29437858
9	0xbdf0d7f2	-0.11759938
10	0x3f02f0b3	0.5114853
11	0x3ef1582a	0.47137576
12	0x3ebf3505	0.37345138
13	0xbeb6d0e2	-0.3570624
14	0xbef7fff3	-0.4843746
15	0x3c14a5fe	0.009072779

feature.6.bias f4 [4]
0	0xbe8924e6	-0.26785964
1	0xbdf59992	-0.11992182
2	0xbd21c291	-0.039492194
3	0x3d8c392c	0.06846842

feature.7.weight f4 [4]
0	0x3ed2f868	0.41205144
1	0x3f3543dc	0.7080667
2	0x3ef7dbd1	0.48409894
3	0x3ebbfe3f	0.36717412

feature.7.bias f4 [4]
0	0xbde28961	-0.11061359
1	0xbe140ad6	-0.14457259
2	0x3e5d2c5b	0.21598952
3	0xbb277a68	-0.0025555138

feature.7.running_mean f4 [4]
0	0xbc341cf0	-0.010993227
1	0xbef0a265	-0.46998897
2	0x3e55eb57	0.20890556
3	0xbd32997e	-0.043603413

feature.7.running_var f4 [4]
0	0x359d7c89	1.1733656e-06
1	0x351c5709	5.824118e-07
2	0x3f665080	0.89966583
3	0x3e65d4e0	0.22444487

feature.9.weight f4 [1, 4]
0	0x3d61a106	0.055085205
1	0x3eaa4ff1	0.33264115
2	0xbeb7c6ed	-0.35893956
3	0xbd9df5ad	-0.077128746
