gesture_detection/checkpoints/train_22/model/190_net_netClassifier.pth (torch_old, 3180 bytes, 19 tensors)

feature.0.weight f4 [4, 9]
-0.028034337 0.041575853 0.050415076 0.19396456 -0.06694505 -0.2822252 0.30219296 -0.30127126
-0.2983724 -0.04158202 -0.22386296 -0.2974997 0.18352953 0.26669577 0.06878351 0.043762673
0.22519626 0.23157199 0.17631292 -0.19304557 -0.2532393 0.22065362 0.14130986 -0.1464939
-0.2693586 -0.3264479 0.026989307 -0.32331756 0.119559735 0.09854241 0.20366064 -0.02882243
0.18212733 0.11445872 -0.21908942 0.06560161
00000000: 44a8 e5bc 714b 2a3d 0a80 4e3d a59e 463e
00000010: 7d1a 89bd d27f 90be 09b9 9a3e 3a40 9abe
00000020: 44c4 98be e951 2abd 553c 65be e151 98be
00000030: 2aef 3b3e 598c 883e 5ede 8c3d 7d40 333d
00000040: d999 663e 3521 6d3e 608b 343e bdad 45be
00000050: 95a8 81be 06f3 613e 88b3 103e 7f02 16be
00000060: 5fe9 89be 2e24 a7be ae18 dd3c e189 a5be
00000070: bcdb f43d 9ad0 c93d 6a8c 503e 041d ecbc
00000080: 967f 3a3e 5569 ea3d fa58 60be 235a 863d

feature.0.bias f4 [4]
0.19328615 0.1535137 -0.17986237 -0.08733608
00000000: ceec 453e b232 1d3e d72d 38be 42dd b2bd

feature.1.weight f4 [4]
0.8891717 0.11742279 0.31094408 0.7199807
00000000: c2a0 633f 5c7b f03d 1034 9f3e a850 383f

feature.1.bias f4 [4]
0.01860708 0.01867516 -0.018849831 0.015826853
00000000: e06d 983c a6fc 983c f66a 9abc 51a7 813c

feature.1.running_mean f4 [4]
1.4246919 0.62784076 0.31533408 3.3096323
00000000: 4e5c b63f 2cba 203f 7873 a13e 04d1 5340

feature.1.running_var f4 [4]
14.7215605 0.4647297 2.4325163 10.56449
00000000: 838b 6b41 0df1 ed3e 59ae 1b40 2708 2941

feature.3.weight f4 [4, 4]
-0.43670017 0.39387038 -0.4686562 -0.3084611 -0.43169877 0.3235471 -0.4632521 0.12906694
0.21692881 -0.35108194 -0.38209307 0.029374281 0.36102697 -0.114954464 0.19090867 -0.005445891
00000000: 2a97 dfbe 61a9 c93e b5f3 efbe 9dee 9dbe
00000010: 9f07 ddbe f7a7 a53e 612f edbe 202a 043e
00000020: 9622 5e3e 03c1 b3be b4a1 c3be 55a2 f03c
00000030: 87d8 b83e 3f6d ebbd 907d 433e 7273 b2bb

feature.3.bias f4 [4]
-0.014423658 -0.23901707 -0.44908965 -0.047184866
00000000: 3551 6cbc e4c0 74be 14ef e5be eb44 41bd

feature.4.weight f4 [4]
0.7541571 0.35741463 0.90698874 0.887431
00000000: 7110 413f 0dff b63e 6a30 683f ae2e 633f

feature.4.bias f4 [4]
-0.015345041 -0.015376732 0.015074323 -0.017331477
00000000: c469 7bbc b0ee 7bbc 4bfa 763c befa 8dbc

feature.4.running_mean f4 [4]
-0.29674548 -0.3914314 -0.42567766 0.098346986
00000000: 06ef 97be b269 c8be 6cf2 d9be 256a c93d

feature.4.running_var f4 [4]
0.47221324 0.16228491 0.016009271 0.111253574
00000000: efc5 f13e 042e 263e e025 833c ead8 e33d

feature.6.weight f4 [4, 4]
0.51521707 -0.17773253 0.3504071 0.0020582061 -0.43784958 -0.32706395 -0.5065652 0.029719457
-0.29846507 -0.12146438 0.51561815 0.47548378 0.37925005 -0.35157648 -0.49023944 0.0032424768
00000000: 44e5 033f 84ff 35be 8f68 b33e f8e2 063b
00000010: d22d e0be ed74 a7be 42ae 01bf 3876 f33c
00000020: 6ad0 98be 51c2 f8bd 8dff 033f 9c72 f33e
00000030: 102d c23e d501 b4be aa00 fbbe bc7f 543b

feature.6.bias f4 [4]
-0.26817116 -0.11996571 -0.039608184 0.06854268
00000000: bb4d 89be 95b0 f5bd 313c 22bd 1b60 8c3d

feature.7.weight f4 [4]
0.4120593 0.708077 0.4903745 0.37518173
00000000: 70f9 d23e 8944 353f 5e12 fb3e d217 c03e

feature.7.bias f4 [4]
-0.111591965 -0.14620878 0.22241254 0.005187686
00000000: 548a e4bd c1b7 15be 1dc0 633e 77fd a93b

feature.7.running_mean f4 [4]
-0.01077773 -0.4698885 0.21006171 -0.045291573
00000000: 1395 30bc 3a95 f0be 6b1a 573e a883 39bd

feature.7.running_var f4 [4]
8.864598e-07 4.3521257e-07 0.9188349 0.23773152
00000000: 0ef5 6d35 29a7 e934 c438 6b3f e46f 733e

feature.9.weight f4 [1, 4]
0.05589708 0.3336241 -0.3654951 -0.08349749
00000000: 56f4 643d c7d0 aa3e 2c22 bbbe bb00 abbd
