gesture_detection/checkpoints/train_22/model/25_net_netClassifier.pth (torch_old, 3172 bytes, 19 tensors)

feature.0.weight f4 [4, 9]
00000000: e0bd e5bc 3b4d 2a3d dfa7 4e3d e6d6 453e
00000010: 9788 87bd 5e5e 90be 0abb 9a3e 6f40 9abe
00000020: e1c2 98be eb7f 26bd 9aa2 65be 1151 98be
00000030: 6d5a 413e 8ed9 853e 0832 863d 5ff5 323d
00000040: ffaa 663e b039 6d3e 0a95 343e afb0 45be
00000050: f5ae 81be 960e 633e 619a 0f3e 2170 16be
00000060: 1fec 89be bd23 a7be 9300 dd3c f989 a5be
00000070: e2db f43d f3d0 c93d b662 503e 76f7 eabc
00000080: 3082 3a3e 8769 ea3d 0059 60be 355a 863d
-0.028044641 0.04157756 0.050453063 0.19320258 -0.06617849 -0.28196996 0.30220824 -0.30127284
-0.2983618 -0.040649336 -0.22425309 -0.2974935 0.18882151 0.26142544 0.065525115 0.043691035
0.22526167 0.23166537 0.17634979 -0.1930568 -0.25328794 0.22173533 0.14023735 -0.14691211
-0.2693796 -0.32644454 0.026977813 -0.32331827 0.11956002 0.09854307 0.20350155 -0.028682452
0.18213725 0.11445909 -0.21908951 0.065601744

feature.0.bias f4 [4]
00000000: 06f8 453e df3d 1d3e ec3b 38be e0dc b2bd
0.19332895 0.15355633 -0.17991608 -0.08733535

feature.1.weight f4 [4]
00000000: 91df 623f 6a62 ea3d 40ce a03e 00ee 373f
0.88622385 0.11444552 0.31407356 0.71847534

feature.1.bias f4 [4]
00000000: 1444 803c 1c9c 803c e5c4 80bc fa9d 6a3c
0.015657462 0.015699439 -0.015718887 0.014319891

feature.1.running_mean f4 [4]
00000000: fa79 a73f 5402 2c3f 6474 9f3e 726d 4440
1.3084099 0.6719105 0.31143486 3.06918

feature.1.running_var f4 [4]
00000000: 7ec9 5841 abcd 9a3e b9fa 1b40 7f90 1d41
13.549192 0.30235037 2.437178 9.847777

feature.3.weight f4 [4, 4]
00000000: b66d dfbe ec3a c93e b0f8 efbe 1dc2 9dbe
00000010: 53b7 dcbe 2910 a53e 9e0d edbe bfd0 043e
00000020: e812 5b3e e777 b2be c351 c5be ec55 d83c
00000030: fd52 b93e 9c3e ecbd 9ccc 443e faa1 94bb
-0.4363839 0.39302766 -0.4686942 -0.3081216 -0.43108615 0.32238892 -0.46299452 0.12970255
0.21393931 -0.34857103 -0.38538942 0.026408158 0.36196128 -0.11535379 0.19218677 -0.0045359107

feature.3.bias f4 [4]
00000000: 6f40 23ba 100b 72be 2f6e f5be 4391 4abd
-0.0006227558 -0.23637033 -0.47935626 -0.04945494

feature.4.weight f4 [4]
00000000: de08 413f 65f3 b63e 7c47 683f 7d96 633f
0.75404155 0.3573257 0.90734076 0.889015

feature.4.bias f4 [4]
00000000: 9e4e 7dbc cd63 7dbc 4ab8 7c3c 5600 81bc
-0.015460638 -0.015465689 0.015424797 -0.01574723

feature.4.running_mean f4 [4]
00000000: 89c7 86be e760 bbbe 30f9 dabe e8bc ba3d
-0.26324108 -0.36597368 -0.4276824 0.09118062

feature.4.running_var f4 [4]
00000000: 61c1 013f f345 633e 992c ab3d 373f 343e
0.506857 0.22194652 0.08358116 0.1760224

feature.6.weight f4 [4, 4]
00000000: 2964 ca3e 8cfd 97be 5317 f13e 2cfc f93d
00000010: e91b e0be 2874 a7be c7c4 01bf a235 f23c
00000020: 2fce 21be d87b 153c f9ca be3e 23e9 aa3e
00000030: 6c73 b73e 5a7e bebe 964c f0be b8d7 c53c
0.3952954 -0.29685628 0.47088107 0.12206301 -0.43771294 -0.32705808 -0.50690883 0.02956659
-0.15801309 0.009123765 0.3726423 0.33380994 0.35830247 -0.37205774 -0.4693343 0.024150714

feature.6.bias f4 [4]
00000000: e347 8bbe c367 ddbd f903 1fbd c46f 8c3d
-0.27203283 -0.108108066 -0.038822148 0.06857255

feature.7.weight f4 [4]
00000000: 999c f63e 5f30 433f f9bb 973e b37a b03e
0.4816635 0.76245683 0.296356 0.34468612

feature.7.bias f4 [4]
00000000: b686 bfbc 9e16 c7bc 9075 cd3c 8b83 c1bc
-0.023379665 -0.024302777 0.025080472 -0.023622295

feature.7.running_mean f4 [4]
00000000: 13d1 b13c dcef d6be 4fbc 1f3e 1695 28bd
0.02170614 -0.41979873 0.15599178 -0.041157804

feature.7.running_var f4 [4]
00000000: da85 273e 6893 933d ab67 db3e 6389 923e
0.16359654 0.0720585 0.4285253 0.28620443

feature.9.weight f4 [1, 4]
00000000: 48bb fc3d 2b7e b63e d8fe 27be 90de 823d
0.123404086 0.35643134 -0.16405809 0.06390107
