gesture_detection/checkpoints/train_22/model/30_net_netClassifier.pth (torch_old, 3168 bytes, 19 tensors)

feature.0.weight f4 [4, 9]
000000 70 b6 e5 bc d7 4b 2a 3d 1c a8 4e 3d c7 73 46 3e
       -0.028041095 0.041576233 0.05045329 0.19380103
000010 02 a0 88 bd c6 61 90 be 06 bb 9a 3e 67 40 9a be
       -0.06671144 -0.28199595 0.30220813 -0.3012726
000020 d6 c2 98 be 1c 97 27 bd 71 86 65 be 25 50 98 be
       -0.29836148 -0.040915594 -0.22414567 -0.29748645
000030 a5 57 3f 3e b4 d9 86 3e 40 6f 88 3d 42 0d 33 3d
       0.18685777 0.2633797 0.06661844 0.043713816
000040 49 a6 66 3e ba 33 6d 3e 2b 8d 34 3e be ad 45 be
       0.2252437 0.23164263 0.17631976 -0.19304559
000050 e1 ae 81 be 3e 71 61 3e 7c 28 11 3e 68 38 16 be
       -0.25328735 0.22015855 0.141756 -0.14669955
000060 d4 eb 89 be f9 23 a7 be b9 fb dc 3c e6 89 a5 be
       -0.26937735 -0.32644632 0.0269755 -0.3233177
000070 c9 db f4 3d bf d0 c9 3d 74 7f 50 3e ec bf eb bc
       0.11955983 0.09854268 0.2036112 -0.028778039
000080 97 80 3a 3e 6d 69 ea 3d fd 58 60 be 2b 5a 86 3d
       0.18213116 0.114458896 -0.21908946 0.06560167

feature.0.bias f4 [4]
000000 1f f8 45 3e 72 3d 1d 3e fe 3b 38 be 19 dd b2 bd
       0.19332932 0.15355471 -0.17991635 -0.08733577

feature.1.weight f4 [4]
000000 91 67 63 3f 0f a3 ee 3d 34 bd 9f 3e b6 71 38 3f
       0.88829905 0.11652195 0.31199038 0.7204851

feature.1.bias f4 [4]
000000 09 44 91 3c a1 9e 91 3c a7 d5 91 bc b8 c5 85 3c
       0.017732637 0.017775835 -0.017802073 0.016329631

feature.1.running_mean f4 [4]
000000 6d 4d ad 3f 28 f5 2c 3f c4 bb 9f 3e 71 b0 4a 40
       1.3539253 0.6756158 0.3119794 3.1670191

feature.1.running_var f4 [4]
000000 d3 f1 5f 41 2f f3 a0 3e d3 ba 1b 40 81 27 22 41
       13.996539 0.31435534 2.4332778 10.1346445

feature.3.weight f4 [4, 4]
000000 2a 70 de be f8 41 c8 3e 74 f9 ee be d6 c4 9c be
       -0.4344495 0.3911283 -0.46674693 -0.30618924
000010 db bc db be 08 1a a4 3e 42 11 ec be 31 c5 06 3e
       -0.42917523 0.3205111 -0.46106917 0.1316116
000020 6d 33 5d 3e 71 85 b3 be ce 3f c4 be d0 56 e9 3c
       0.21601649 -0.35062745 -0.3832993 0.028483778
000030 e4 4d b8 3e ba 3e e8 bd a6 bf 42 3e 7c d5 d5 bb
       0.35996926 -0.11340089 0.1901842 -0.0065256935

feature.3.bias f4 [4]
000000 c7 e9 a0 ba aa b0 6f be 63 94 f5 be a6 9c 4a bd
       -0.0012276702 -0.23407236 -0.47964773 -0.049465798

feature.4.weight f4 [4]
000000 c8 89 40 3f f3 f4 b5 3e c2 c5 68 3f 7b 11 63 3f
       0.7521024 0.35538444 0.90926754 0.8869855

feature.4.bias f4 [4]
000000 ef 89 8e bc 0f 99 8e bc 05 25 8e 3c 8d a0 91 bc
       -0.017399756 -0.017406968 0.017351637 -0.017776752

feature.4.running_mean f4 [4]
000000 29 d4 8a be be d8 bf be 38 f6 e0 be 1c 8e be 3d
       -0.2711499 -0.3747005 -0.4393785 0.09304449

feature.4.running_var f4 [4]
000000 04 2e fb 3e e0 e7 48 3e 2a 25 63 3d 3a ad 18 3e
       0.49058545 0.19619703 0.055455364 0.1490983

feature.6.weight f4 [4, 4]
000000 63 11 cd 3e f9 5f 95 be 04 5c ee 3e df 3f ef 3d
       0.40052328 -0.29174784 0.46554577 0.11682104
000010 c3 1d df be 0c 75 a6 be 14 43 02 bf 5c 56 e2 3c
       -0.43577394 -0.32511175 -0.50883603 0.02762907
000020 54 fe 25 be c0 cf b3 3b 7d f7 c0 3e 89 09 ad 3e
       -0.162103 0.005487412 0.3768882 0.33796337
000030 98 25 b5 3e 4d 93 c0 be b3 eb ed be 03 37 eb 3c
       0.35380244 -0.37612382 -0.46468887 0.028712755

feature.6.bias f4 [4]
000000 1d 4a 8b be 9a 6d de bd e9 4f 1f bd 97 66 8c 3d
       -0.2720498 -0.108607486 -0.038894568 0.06855505

feature.7.weight f4 [4]
000000 03 7d f4 3e fa 36 42 3f be 45 9a 3e a2 3b ae 3e
       0.47751626 0.7586514 0.30131334 0.3402987

feature.7.bias f4 [4]
000000 39 15 e3 bc dc 0f ee bc 8d b4 f7 3c b3 07 e4 bc
       -0.02772008 -0.029060297 0.03023746 -0.027835703

feature.7.running_mean f4 [4]
000000 0e 26 af 3c 2a 10 df be 91 1f 26 3e bf 4d 2b bd
       0.02138045 -0.4356702 0.16222979 -0.04182219

feature.7.running_var f4 [4]
000000 1f 58 06 3e e1 61 2e 3d 96 72 d7 3e 53 ee 82 3e
       0.13119553 0.042573813 0.4207961 0.25572452

feature.9.weight f4 [1, 4]
000000 7e 03 f4 3d 0f 9b b4 3e eb 30 2d be 25 07 72 3d
       0.119147286 0.3527455 -0.16913192 0.059088845
