gesture_detection/checkpoints/train_22/model/35_net_netClassifier.pth (torch_old, 3172 bytes, 19 tensors)

feature.0.weight f4 [4, 9]
00000000: 83bd e5bc 2e4d 2a3d a9a7 4e3d 34de 453e
00000010: b995 87bd aa5e 90be 08bb 9a3e 6d40 9abe
00000020: e3c2 98be 33dc 26bd 4799 65be 0651 98be
00000030: e4ad 403e 5f2f 863e 5bee 863d 7bfc 323d
00000040: 75a9 663e 9137 6d3e 8f95 343e e2b0 45be
00000050: ecae 81be 8f23 633e 0186 0f3e 5373 16be
00000060: 1fec 89be b923 a7be 1b01 dd3c fb89 a5be
00000070: e7db f43d c3d0 c93d 1c5d 503e 51d3 eabc
00000080: d581 3a3e 7369 ea3d fe58 60be 265a 863d
-0.028044468 0.04157751 0.050452862 0.19323045 -0.06620354 -0.28197223 0.3022082 -0.30127278
-0.29836187 -0.040737342 -0.22421752 -0.29749316 0.18816334 0.26208016 0.065884314 0.043697815
0.2252558 0.23165728 0.17635177 -0.19305757 -0.25328767 0.22181533 0.14015962 -0.1469243
-0.2693796 -0.32644442 0.026978066 -0.32331833 0.119560055 0.09854271 0.20348018 -0.028665217
0.1821359 0.11445894 -0.21908948 0.06560163

feature.0.bias f4 [4]
00000000: f7f7 453e 273d 1d3e d13b 38be 17dd b2bd
0.19332872 0.15355359 -0.17991568 -0.08733576

feature.1.weight f4 [4]
00000000: 9ce3 623f 5385 ea3d c6c2 a03e 9ce4 373f
0.88628554 0.11451211 0.313986 0.71833205

feature.1.bias f4 [4]
00000000: 5cc5 803c a627 813c ac7c 81bc 9e45 683c
0.015719108 0.015765976 -0.015806518 0.014176754

feature.1.running_mean f4 [4]
00000000: c1ab b03f 6982 2d3f 2ef8 a03e c15f 4e40
1.3802415 0.67777115 0.31439346 3.2245944

feature.1.running_var f4 [4]
00000000: 390f 6441 048f a43e e348 1c40 f2d4 2441
14.253716 0.32140362 2.4419487 10.301989

feature.3.weight f4 [4, 4]
00000000: 19a1 dfbe 0b78 c93e a725 f0be c6f5 9dbe
00000010: 04f0 dcbe 0053 a53e dd3f edbe ce5e 043e
00000020: ab24 5b3e 1078 b2be 5243 c5be dddf d83c
00000030: f475 b93e 0cf0 ecbd 1206 453e bfd2 8bbb
-0.43677595 0.39349398 -0.46903726 -0.30851573 -0.43151867 0.32289886 -0.46337786 0.1292679
0.21400706 -0.34857225 -0.38527924 0.026473934 0.36222804 -0.11569223 0.19240597 -0.0042670663

feature.3.bias f4 [4]
00000000: fd6c a6b9 0706 70be 0c9c f4be 7b19 4abd
-0.0003174319 -0.23439799 -0.47775304 -0.049340706

feature.4.weight f4 [4]
00000000: a721 413f 5a24 b73e 082d 683f eda2 633f
0.75441974 0.35769922 0.9069371 0.8892048

feature.4.bias f4 [4]
00000000: 271c 77bc 2845 77bc 031c 763c 73e4 7ebc
-0.015082396 -0.015092172 0.015021327 -0.015557396

feature.4.running_mean f4 [4]
00000000: f943 8dbe 2f79 c2be 8582 e4be 0e20 c13d
-0.27590922 -0.3798308 -0.44630828 0.09429942

feature.4.running_var f4 [4]
00000000: 896f f63e eea6 393e 38b3 1e3d 8c99 083e
0.4813197 0.18130085 0.038745135 0.13339823

feature.6.weight f4 [4, 4]
00000000: bbdb cf3e 61a4 92be 9d84 eb3e df0f e43d
00000010: 854d e0be c2a3 a7be 61aa 01bf 1f52 f53c
00000020: fe23 2abe 4c8b f43a db1d c33e 5b24 af3e
00000030: 92d0 b23e 71b2 c2be ef84 ebbe 867f 083d
0.4059733 -0.28641036 0.45999613 0.1113584 -0.43809143 -0.32742125 -0.506506 0.029946385
-0.16615292 0.0018657236 0.38108715 0.34207425 0.34924752 -0.38026765 -0.45999858 0.03332474

feature.6.bias f4 [4]
00000000: ae4f 8bbe faf9 e2bd 787a 1fbd 2f55 8c3d
-0.27209228 -0.110828355 -0.038935155 0.06852185

feature.7.weight f4 [4]
00000000: 1072 f23e 3527 413f 19cf 9c3e a60d ac3e
0.47352648 0.7545045 0.30626753 0.33604163

feature.7.bias f4 [4]
00000000: 40da 02bd b64e 09bd 0726 113d 0f99 02bd
-0.03194642 -0.03352233 0.035436656 -0.03188425

feature.7.running_mean f4 [4]
00000000: d074 a73c 1ef4 e3be 3d5b 2a3e 5202 2abd
0.020441443 -0.44522184 0.16636367 -0.04150612

feature.7.running_var f4 [4]
00000000: ff2f df3d 850a ce3c beca d73e 5efa 6e3e
0.108978264 0.0251515 0.42146868 0.23337695

feature.9.weight f4 [1, 4]
00000000: 7494 eb3d 6189 b23e a068 32be 5155 5e3d
0.115029246 0.34870437 -0.17422724 0.054280583
