gesture_detection/checkpoints/train_22/model/40_net_netClassifier.pth (torch_old, 3172 bytes, 19 tensors)

feature.0.weight f4 [4, 9]
00000000: 29b7 e5bc 724c 2a3d a39f 4e3d ac34 463e
00000010: 3c3a 88bd 7066 90be 9eba 9a3e 6240 9abe
00000020: 27c3 98be 4b80 27bd 8888 65be f250 98be
00000030: 7597 3f3e eeb9 863e d52c 883d 4309 333d
00000040: aca6 663e bb33 6d3e a090 343e 0aaf 45be
00000050: dfae 81be 1b43 623e 375f 103e 0e51 16be
00000060: f0eb 89be df23 a7be 0cfe dc3c f189 a5be
00000070: d5db f43d ead0 c93d b270 503e 7658 ebbc
00000080: 9281 3a3e 7f69 ea3d fc58 60be 365a 863d
-0.02804144 0.04157681 0.05044521 0.1935603 -0.06651732 -0.28203154 0.30220503 -0.30127245
-0.2983639 -0.040893834 -0.22415364 -0.29749256 0.1871012 0.26313728 0.06649176 0.043710005
0.22524518 0.23164265 0.17633295 -0.19305053 -0.2532873 0.22095911 0.14098822 -0.14679357
-0.2693782 -0.32644555 0.026976608 -0.32331803 0.11955992 0.098543 0.2035549 -0.028728705
0.1821349 0.11445903 -0.21908945 0.06560175

feature.0.bias f4 [4]
00000000: b8f5 453e d23b 1d3e de3b 38be ebdc b2bd
0.19332016 0.15354851 -0.17991588 -0.08733543

feature.1.weight f4 [4]
00000000: 862d 633f 4fd5 ec3d d42d a03e 022a 383f
0.8874134 0.11564123 0.31284964 0.719391

feature.1.bias f4 [4]
00000000: b902 8a3c 8267 8a3c d8cb 8abc 029f 793c
0.016847001 0.01689506 -0.016942903 0.015235664

feature.1.running_mean f4 [4]
00000000: 657a b23f 3270 2e3f 5611 a43e e386 5040
1.3943602 0.68139946 0.32044476 3.2582328

feature.1.running_var f4 [4]
00000000: 3d36 6641 65ff a33e 252e 1e40 1e5a 2641
14.388242 0.32030788 2.4715664 10.397001

feature.3.weight f4 [4, 4]
00000000: 1821 dfbe dafb c83e b5a3 efbe 0676 9dbe
00000010: c572 dcbe 9fd9 a43e 96c0 ecbe cf58 053e
00000020: e34c 5c3e 4209 b3be 65ad c4be e51d e23c
00000030: f1ec b83e 5ddc eabd 74f0 433e 2b02 aebb
-0.43579936 0.39254647 -0.46804586 -0.30754107 -0.43056312 0.32197282 -0.4624068 0.13022159
0.21513705 -0.34968 -0.3841354 0.027602145 0.36118272 -0.11467812 0.19134694 -0.005310317

feature.3.bias f4 [4]
00000000: 3738 6cba 44e1 6dbe 6852 f4be c9a0 49bd
-0.0009011062 -0.23230463 -0.4771912 -0.049225602

feature.4.weight f4 [4]
00000000: 00e1 403f c3a2 b63e d56c 683f 135c 633f
0.7534332 0.35671052 0.90791065 0.8881237

feature.4.bias f4 [4]
00000000: c5a2 83bc 05bc 83bc c907 833c 9d4d 88bc
-0.016068825 -0.016080866 0.015994923 -0.016638571

feature.4.running_mean f4 [4]
00000000: 9bc1 8ebe b22b c4be f768 e6be ec38 c33d
-0.27882084 -0.38314587 -0.45001957 0.09532341

feature.4.running_var f4 [4]
00000000: 4eee f33e f439 313e 1783 ea3c 3102 ff3d
0.4764275 0.17307264 0.028626962 0.1245159

feature.6.weight f4 [4, 4]
00000000: a908 d33e 9a83 8fbe 414f e83e 6057 d73d
00000010: 3dcc dfbe 7c21 a7be 37ea 01bf f540 ed3c
00000020: 608d 2ebe cc95 04bb fb62 c53e f960 b13e
00000030: acab b03e f6a9 c4be a353 e9be 70d9 193d
0.41217545 -0.28030092 0.45372966 0.10514712 -0.4371051 -0.32642734 -0.5074801 0.028961638
-0.17046118 -0.0020230887 0.3855208 0.34644297 0.34505975 -0.3841092 -0.45571622 0.03756088

feature.6.bias f4 [4]
00000000: 6553 8bbe 1d2b e2bd 0b82 1fbd 5c54 8c3d
-0.27212062 -0.110433795 -0.038942378 0.06852028

feature.7.weight f4 [4]
00000000: 2255 f03e 93b3 403f 5986 9f3e 8728 aa3e
0.4693995 0.7527401 0.31157187 0.33234045

feature.7.bias f4 [4]
00000000: 6b06 14bd 19ee 1abd cc04 273d ea8b 11bd
-0.036138933 -0.037824724 0.04077606 -0.035533823

feature.7.running_mean f4 [4]
00000000: f531 9c3c 5235 e7be 284f 2d3e 601b 26bd
0.01906679 -0.45157868 0.16924727 -0.04055345

feature.7.running_var f4 [4]
00000000: d689 bd3d ff57 733c 2bd9 da3e 7531 5d3e
0.09254806 0.014852523 0.4274381 0.21600898

feature.9.weight f4 [1, 4]
00000000: 84c1 e23d bac4 b13e f4f9 37be 15ae 4c3d
0.110720664 0.34720403 -0.17966443 0.049970705
