gesture_detection/checkpoints/train_22/model/50_net_netClassifier.pth (torch_old, 3168 bytes, 19 tensors)

feature.0.weight f4 [4, 9]
-0.028042158 0.04157719 0.050443135 0.19340892 -0.06638629 -0.28203592 0.30220428 -0.30127245
-0.29836455 -0.040934023 -0.22413695 -0.29749128 0.18687733 0.26336035 0.06663461 0.043713663
0.22524232 0.2316391 0.17634039 -0.19305351 -0.25328404 0.22130221 0.1406578 -0.14683135
-0.26937747 -0.32644516 0.026978193 -0.32331827 0.119559996 0.09854361 0.20351453 -0.028691975
0.18213977 0.11445927 -0.21908946 0.065601915
00000000: abb8 e5bc d84c 2a3d 769d 4e3d fd0c 463e
00000010: 89f5 87bd 0367 90be 85ba 9a3e 6240 9abe
00000020: 3dc3 98be 6faa 27bd 2884 65be c750 98be
00000030: c55c 3f3e 2bd7 863e ba77 883d 190d 333d
00000040: eca5 663e cd32 6d3e 9392 343e d2af 45be
00000050: 72ae 81be 0c9d 623e 9908 103e f55a 16be
00000060: d8eb 89be d223 a7be 5f01 dd3c f989 a5be
00000070: dfdb f43d 3bd1 c93d 1d66 503e 6f0b ebbc
00000080: d982 3a3e 9f69 ea3d fd58 60be 4c5a 863d

feature.0.bias f4 [4]
0.1933178 0.15354845 -0.179912 -0.08733477
00000000: 1af5 453e ce3b 1d3e da3a 38be 92dc b2bd

feature.1.weight f4 [4]
0.88718194 0.115414254 0.3130582 0.7189808
00000000: 5b1e 633f 4f5e ec3d 2a49 a03e 200f 383f

feature.1.bias f4 [4]
0.016615447 0.016668225 -0.016734185 0.014825521
00000000: 1e1d 883c cd8b 883c 2116 89bc bee6 723c

feature.1.running_mean f4 [4]
1.4070942 0.6809741 0.32654834 3.2897563
00000000: aa1b b43f 5254 2e3f 5831 a73e 5e8b 5240

feature.1.running_var f4 [4]
14.5105505 0.32783863 2.5014374 10.485405
00000000: 372b 6841 77da a73e 8d17 2040 38c4 2741

feature.3.weight f4 [4, 4]
-0.43642214 0.3932195 -0.46862793 -0.30816606 -0.4312215 0.32269263 -0.46302506 0.12956099
0.21491103 -0.3493956 -0.38432378 0.027373765 0.3616811 -0.11523536 0.19180487 -0.0048096394
00000000: b972 dfbe 1154 c93e 00f0 efbe f1c7 9dbe
00000010: 10c9 dcbe f837 a53e 9f11 edbe a3ab 043e
00000020: a311 5c3e fbe3 b2be 16c6 c4be f23e e03c
00000030: 442e b93e 8400 ecbd 7f68 443e 2e9a 9dbb

feature.3.bias f4 [4]
-0.007918347 -0.23109306 -0.4802942 -0.049497984
00000000: f4bb 01bc a9a3 6cbe 1fe9 f5be 66be 4abd

feature.4.weight f4 [4]
0.7540367 0.35730976 0.9072841 0.88855666
00000000: 8d08 413f 4ef1 b63e c543 683f 7378 633f

feature.4.bias f4 [4]
-0.015465351 -0.015481629 0.015368548 -0.016205596
00000000: 6262 7dbc a9a6 7dbc 5dcc 7b3c 99c1 84bc

feature.4.running_mean f4 [4]
-0.28340542 -0.38470417 -0.45331404 0.09663433
00000000: 841a 91be f2f7 c4be c718 e8be 38e8 c53d

feature.4.running_var f4 [4]
0.47219247 0.1655933 0.019175865 0.11627612
00000000: 36c3 f13e 4a91 293e b416 9d3c 2d22 ee3d

feature.6.weight f4 [4, 4]
0.4264711 -0.26616624 0.43934005 0.09083794 -0.4377088 -0.3270172 -0.5068544 0.029566923
-0.17931485 -0.010079857 0.39459682 0.3554106 0.3369436 -0.3915989 -0.44744194 0.045762196
00000000: 6c5a da3e f146 88be 2ef1 e03e 3e09 ba3d
00000010: 5e1b e0be cc6e a7be 36c1 01bf 5536 f23c
00000020: 509e 37be fc25 25bc 9808 ca3e 61f8 b53e
00000030: df83 ac3e a77f c8be 1c17 e5be 2471 3b3d

feature.6.bias f4 [4]
-0.27231178 -0.111760534 -0.038915437 0.068508126
00000000: 736c 8bbe b5e2 e4bd cb65 1fbd fd4d 8c3d

feature.7.weight f4 [4]
0.4612687 0.74838686 0.32260764 0.32564172
00000000: 692b ec3e 4896 3f3f d42c a53e 83ba a63e

feature.7.bias f4 [4]
-0.044315558 -0.046486422 0.05178628 -0.042203907
00000000: 3b84 35bd 8c68 3ebd da1d 543d 01de 2cbd

feature.7.running_mean f4 [4]
0.015509093 -0.45832038 0.17338076 -0.03823725
00000000: da19 7e3c f8a8 eabe ba8a 313e aa9e 1cbd

feature.7.running_var f4 [4]
0.06841971 0.0051821074 0.4482849 0.19044836
00000000: a21f 8c3d abce a93b 9985 e53e e504 433e

feature.9.weight f4 [1, 4]
0.10210379 0.34349233 -0.19098596 0.04170444
00000000: cb1b d13d 3ade af3e d391 43be 46d2 2a3d
