gesture_detection/checkpoints/train_22/model/60_net_netClassifier.pth (torch_old, 3164 bytes, 19 tensors)

feature.0.weight f4 [4, 9]
000000 98 b2 e5 bc c0 4b 2a 3d eb 9c 4e 3d 2c 73 46 3e
       -0.028039262 0.041576147 0.050442617 0.19379872
000010 a7 af 88 bd 30 6a 90 be 7a ba 9a 3e 5d 40 9a be
       -0.06674128 -0.28206015 0.30220395 -0.3012723
000020 3a c3 98 be a7 7d 28 bd 40 6e 65 be 6b 4f 98 be
       -0.29836446 -0.041135456 -0.22405338 -0.2974809
000030 b3 36 3e 3e bc 69 87 3e cd f2 89 3d eb 21 33 3d
       0.18575554 0.26447856 0.06735764 0.04373352
000040 26 a2 66 3e 71 2e 6d 3e 2f 8c 34 3e 68 ad 45 be
       0.22522792 0.23162247 0.17631601 -0.1930443
000050 70 ae 81 be 7b ce 61 3e 6c d2 10 3e 48 31 16 be
       -0.25328398 0.22051422 0.1414277 -0.14667237
000060 9f eb 89 be 04 24 a7 be 1a fd dc 3c eb 89 a5 be
       -0.26937577 -0.32644665 0.026976157 -0.32331786
000070 ce db f4 3d 0f d1 c9 3d dc 79 50 3e 80 96 eb bc
       0.11955987 0.09854328 0.20358986 -0.028758287
000080 a2 81 3a 3e 8b 69 ea 3d fb 58 60 be 44 5a 86 3d
       0.18213513 0.11445912 -0.21908943 0.065601856

feature.0.bias f4 [4]
000000 f8 f4 45 3e e0 3c 1d 3e 0b 3b 38 be c2 dc b2 bd
       0.1933173 0.15355253 -0.17991273 -0.087335125

feature.1.weight f4 [4]
000000 5a 64 63 3f 72 8f ee 3d 32 bb 9f 3e 56 4d 38 3f
       0.88825 0.11648454 0.31197506 0.71993005

feature.1.bias f4 [4]
000000 79 dd 90 3c f4 4f 91 3c f0 f5 91 bc 6d 3a 81 3c
       0.017683731 0.01773832 -0.017817467 0.01577493

feature.1.running_mean f4 [4]
000000 2f 9f b4 3f 2a 55 2d 3f e4 95 a8 3e 87 3a 53 40
       1.4111079 0.67708075 0.32926857 3.3004472

feature.1.running_var f4 [4]
000000 2e c3 68 41 55 a5 ad 3e a4 f8 20 40 83 35 28 41
       14.547651 0.339152 2.5151758 10.513064

feature.3.weight f4 [4, 4]
000000 e8 07 df be d6 ee c8 3e bb 81 ef be 78 5d 9d be
       -0.4356072 0.39244717 -0.46778664 -0.30735373
000010 b8 62 dc be 41 d7 a4 3e c3 a7 ec be a9 77 05 3e
       -0.43044066 0.32195476 -0.46221742 0.13033928
000020 98 2a 5d 3e 58 6b b3 be 60 36 c4 be 1d 01 e9 3c
       0.2159828 -0.35042834 -0.38322735 0.028442914
000030 b8 b6 b8 3e 5a 3a ea bd a5 72 43 3e 1e 66 bb bb
       0.36076903 -0.11436911 0.19086702 -0.0057189604

feature.3.bias f4 [4]
000000 a0 cb 17 bc 00 34 6d be 1a 18 f4 be 67 14 4d bd
       -0.009264857 -0.23164368 -0.47674638 -0.050068285

feature.4.weight f4 [4]
000000 80 d2 40 3f ba 84 b6 3e 88 78 68 3f dc 38 63 3f
       0.753212 0.35648137 0.90808916 0.88758636

feature.4.bias f4 [4]
000000 ec 72 85 bc 7c 9c 85 bc a0 7e 84 3c 87 b4 8c bc
       -0.01629015 -0.01630997 0.01617366 -0.017175926

feature.4.running_mean f4 [4]
000000 ad a6 93 be f4 8a c5 be f8 96 e8 be c7 a8 c5 3d
       -0.288381 -0.38582575 -0.4542768 0.09651332

feature.4.running_var f4 [4]
000000 4e 2f f1 3e 12 25 27 3e 81 87 82 3c 22 74 e8 3d
       0.47106403 0.16322735 0.015933754 0.113502756

feature.6.weight f4 [4, 4]
000000 b1 86 e3 3e d6 58 7e be c4 bc d7 3e 53 53 95 3d
       0.444387 -0.24838576 0.42136204 0.072912835
000010 49 af df be 2b 01 a7 be 04 f6 01 bf 80 79 eb 3c
       -0.4368842 -0.3261808 -0.50766015 0.02874446
000020 fb cb 40 be a4 ec 95 bc 84 b8 ce 3e 4f 9c ba 3e
       -0.18827812 -0.018301316 0.4037515 0.3644738
000030 63 8f a8 3e ee 2a cc be 13 11 e1 be b9 62 5b 3d
       0.32921895 -0.39876503 -0.4395834 0.053560946

feature.6.bias f4 [4]
000000 80 9f 8b be f0 a3 e6 bd 40 99 1f bd 08 4d 8c 3d
       -0.27270126 -0.11261737 -0.03896451 0.0685063

feature.7.weight f4 [4]
000000 d1 31 e8 3e bd 70 3e 3f ab ff aa 3e c6 c0 a3 3e
       0.45350507 0.74390775 0.33398184 0.31983012

feature.7.bias f4 [4]
000000 3a 5f 55 bd 05 f9 61 bd 64 3c 81 3d a0 a7 44 bd
       -0.05209277 -0.055169124 0.06310347 -0.048011422

feature.7.running_mean f4 [4]
000000 64 2b 34 3c 28 fe eb be 23 d0 34 3e 44 7a 12 bd
       0.010996673 -0.46092343 0.17657523 -0.035761133

feature.7.running_var f4 [4]
000000 b0 c0 48 3d 05 74 ed 3a f0 33 f3 3e d9 2c 2f 3e
       0.049011886 0.0018116242 0.47500563 0.17106952

feature.9.weight f4 [1, 4]
000000 8e dd bf 3d 61 04 ae 3e 94 89 4f be 12 4f 0a 3d
       0.0936843 0.33987716 -0.20267326 0.033766814
