gesture_detection/checkpoints/train_22/model/65_net_netClassifier.pth (torch_old, 3164 bytes, 19 tensors)

feature.0.weight f4 [4, 9]
00000000: 70b2 e5bc ae4b 2a3d a69d 4e3d d577 463e
00000010: 8cb7 88bd d569 90be 83ba 9a3e 5d40 9abe
00000020: 34c3 98be 58a4 28bd 286a 65be b04f 98be
00000030: 6603 3e3e 4583 873e 3e32 8a3d 3024 333d
00000040: 7aa1 663e 522d 6d3e 4a8c 343e 7dad 45be
00000050: 13ae 81be 28da 613e 82c7 103e 502f 16be
00000060: 7ceb 89be 0624 a7be ecfe dc3c ed89 a5be
00000070: cedb f43d 44d1 c93d 7d79 503e 6391 ebbc
00000080: 4082 3a3e a169 ea3d fc58 60be 535a 863d
-0.028039187 0.04157608 0.050443314 0.1938165 -0.06675634 -0.28205743 0.30220422 -0.3012723
-0.29836428 -0.041172355 -0.22403777 -0.29748297 0.18555984 0.26467338 0.06747864 0.043735683
0.22522536 0.2316182 0.17631641 -0.19304462 -0.2532812 0.22055876 0.14138606 -0.14666486
-0.26937473 -0.3264467 0.026977025 -0.32331792 0.11955987 0.098543674 0.20358844 -0.02875585
0.18213749 0.11445928 -0.21908945 0.06560197

feature.0.bias f4 [4]
00000000: 2df5 453e e33b 1d3e 373a 38be 84dc b2bd
0.19331808 0.15354876 -0.17990957 -0.08733466

feature.1.weight f4 [4]
00000000: 2266 633f 969e ee3d 36b6 9f3e 6f49 383f
0.8882772 0.116513416 0.31193703 0.7198705

feature.1.bias f4 [4]
00000000: ad16 913c 448c 913c dd45 92bc dcbd 803c
0.017711008 0.01776708 -0.017855579 0.015715532

feature.1.running_mean f4 [4]
00000000: a200 b53f 52d6 2b3f bbe0 a63e ee67 5340
1.4140818 0.671239 0.3259333 3.3032184

feature.1.running_var f4 [4]
00000000: 2450 6941 f306 b53e bdc9 1f40 b560 2841
14.582066 0.35356864 2.4966881 10.52361

feature.3.weight f4 [4, 4]
00000000: d21e dfbe a509 c93e da95 efbe 8d74 9dbe
00000010: 277b dcbe d0f3 a43e 65bd ecbe 7646 053e
00000020: 5b32 5d3e 736b b3be 1630 c4be 813c e93c
00000030: 3cc4 b83e 1981 eabd 3988 433e 42fa b7bb
-0.43578202 0.3926517 -0.46794015 -0.30752984 -0.43062708 0.32217264 -0.46238247 0.1301516
0.2160124 -0.35042915 -0.38317937 0.028471233 0.36087215 -0.11450405 0.19094934 -0.00561455

feature.3.bias f4 [4]
00000000: a808 36bc f9ee 6ebe f7c1 f2be e525 50bd
-0.011110462 -0.23333348 -0.47413608 -0.05081739

feature.4.weight f4 [4]
00000000: e6dc 403f 3899 b63e 506d 683f 2e3d 633f
0.75337064 0.35663772 0.907918 0.8876523

feature.4.bias f4 [4]
00000000: 3226 84bc a254 84bc b117 833c 432a 8cbc
-0.016131494 -0.016153637 0.016002508 -0.017109996

feature.4.running_mean f4 [4]
00000000: a386 94be 776e c5be df52 e8be dcd9 c43d
-0.2900897 -0.3856084 -0.45375726 0.09611866

feature.4.running_var f4 [4]
00000000: 8ef6 f03e 7855 263e 9f9d 7d3c 7cb5 e63d
0.47063106 0.16243541 0.015479474 0.11265084

feature.6.weight f4 [4, 4]
00000000: 3014 e93e 0250 73be fb29 d23e 5b36 7e3d
00000010: 19c4 dfbe fc14 a7be d3ea 01bf 5cc8 ec3c
00000020: 503a 45be be8a b6bc 6afc d03e c9d9 bc3e
00000030: ea9b a63e f9fa cdbe 7714 dfbe 4022 6b3d
0.45523214 -0.2376099 0.41047654 0.062063556 -0.43704298 -0.32633197 -0.5074894 0.028904133
-0.19260526 -0.022282954 0.40817577 0.36884907 0.32540828 -0.4023054 -0.435703 0.05740571

feature.6.bias f4 [4]
00000000: 54a4 8bbe 5584 debd d073 1fbd c43d 8c3d
-0.2727381 -0.10865084 -0.038928807 0.06847718

feature.7.weight f4 [4]
00000000: 005c e63e 21ad 3d3f 2bda ad3e c261 a23e
0.44992065 0.740923 0.3395551 0.31715208

feature.7.bias f4 [4]
00000000: f46a 64bd d017 75bd 24db 8c3d 3861 4fbd
-0.05576606 -0.059837162 0.06877735 -0.050629824

feature.7.running_mean f4 [4]
00000000: f9fb 083c 40e8 ebbe f260 363e f3fb 0dbd
0.008360856 -0.4607563 0.17810419 -0.034664106

feature.7.running_var f4 [4]
00000000: 89a0 233d 5386 8c3a 5c93 fa3e 1dbb 263e
0.03994802 0.0010721184 0.4894055 0.16282316

feature.9.weight f4 [1, 4]
00000000: 80c9 b73d ddbf ac3e 8c70 55be 3d39 f33c
0.0897398 0.3374013 -0.20843714 0.02969038
