gesture_detection/checkpoints/train_22/model/85_net_netClassifier.pth (torch_old, 3168 bytes, 19 tensors)

feature.0.weight f4 [4, 9]
0	0xbce5b57d	-0.028040642
1	0x3d2a4c53	0.041576695
2	0x3d4e9c4d	0.05044203
3	0x3e463ea4	0.19359833
4	0xbd8850e1	-0.066560514
5	0xbe906930	-0.28205252
6	0x3e9aba77	0.30220386
7	0xbe9a405f	-0.30127236
8	0xbe98c345	-0.2983648
9	0xbd28df9e	-0.041228883
10	0xbe6563f8	-0.22401416
11	0xbe984ef3	-0.29747733
12	0x3e3db946	0.18527707
13	0x3e87a845	0.26495567
14	0x3d8a9936	0.06767504
15	0x3d332b38	0.04374239
16	0x3e66a063	0.2252212
17	0x3e6d2c45	0.23161419
18	0x3e3490b3	0.17633323
19	0xbe45af23	-0.1930509
20	0xbe81ae3d	-0.25328246
21	0x3e625ca1	0.22105648
22	0x3e1047ad	0.14089842
23	0xbe164ce4	-0.14677769
24	0xbe89ebb3	-0.26937637
25	0xbea723e1	-0.3264456
26	0x3cdd0118	0.02697806
27	0xbea589f9	-0.32331827
28	0x3df4dbd8	0.11955994
29	0x3dc9d1d3	0.09854474
30	0x3e506d7e	0.20354268
31	0xbceb375d	-0.028712923
32	0x3e3a8449	0.18214525
33	0x3dea69da	0.11445971
34	0xbe605900	-0.21908951
35	0x3d865a78	0.06560224

feature.0.bias f4 [4]
0	0x3e45f4c8	0.19331658
1	0x3e1d3cfb	0.15355293
2	0xbe383a75	-0.1799105
3	0xbdb2dbe4	-0.08733347

feature.1.weight f4 [4]
0	0x3f6351be	0.88796604
1	0x3dedff56	0.11620967
2	0x3e9fd9d4	0.31220877
3	0x3f38236e	0.7192906

feature.1.bias f4 [4]
0	0x3c8e8b23	0.01740033
1	0x3c8f0e77	0.017462952
2	0xbc900cad	-0.01758417
3	0x3c77fcfc	0.015136

feature.1.running_mean f4 [4]
0	0x3fb5729b	1.41756
1	0x3f2840a3	0.6572363
2	0x3ea48562	0.32133013
3	0x4053a4b5	3.306928

feature.1.running_var f4 [4]
0	0x4169f48f	14.622207
1	0x3ec6d53e	0.38834566
2	0x401e2064	2.470727
3	0x41289e72	10.538683

feature.3.weight f4 [4, 4]
0	0xbedfa54d	-0.43680802
1	0x3ec99d7d	0.39377967
2	0xbef0130c	-0.46889532
3	0xbe9dfb85	-0.30855957
4	0xbedce4ff	-0.4314346
5	0x3ea56ae7	0.32308123
6	0xbeed1e63	-0.46312246
7	0x3e0471c9	0.1293403
8	0x3e5ce38a	0.21571174
9	0xbeb337bd	-0.35003462
10	0xbec44f92	-0.38341957
11	0x3ce6be03	0.028166777
12	0x3eb9165c	0.3614987
13	0xbdebfd72	-0.1152295
14	0x3e441adf	0.19150876
15	0xbba351c7	-0.004984114

feature.3.bias f4 [4]
0	0xbc59ec86	-0.0133010205
1	0xbe707339	-0.23481454
2	0xbeeec70c	-0.46636236
3	0xbd4a5c21	-0.049404267

feature.4.weight f4 [4]
0	0x3f411da8	0.75435877
1	0x3eb6f750	0.3573556
2	0x3f682ed0	0.9069643
3	0x3f635e6d	0.8881596

feature.4.bias f4 [4]
0	0xbc781bf9	-0.015143388
1	0xbc7ce65f	-0.015435784
2	0x3c769194	0.015049357
3	0xbc880264	-0.016602702

feature.4.running_mean f4 [4]
0	0xbe9715d1	-0.29508832
1	0xbec62d45	-0.38706413
2	0xbee4a944	-0.4466039
3	0x3dc4f0e8	0.09616262

feature.4.running_var f4 [4]
0	0x3ef10a4e	0.47078174
1	0x3e25ac3b	0.16178982
2	0x3c767f92	0.015045064
3	0x3de4bd1a	0.11168881

feature.6.weight f4 [4, 4]
0	0x3f05fdeb	0.52340573
1	0xbe2d9d74	-0.16954595
2	0x3eaf3c02	0.3422547
3	0xbbc86e9d	-0.0061167018
4	0xbee02e21	-0.43785194
5	0xbea77bf5	-0.3271176
6	0xbf01b35c	-0.50664306
7	0x3cf36e1a	0.029715586
8	0xbe57007c	-0.20996279
9	0xbd1d120c	-0.03834729
10	0x3eda0af3	0.4258648
11	0x3ec5d1fe	0.38636774
12	0x3ea024d2	0.31278092
13	0xbed4014e	-0.41407245
14	0xbed8817c	-0.4228629
15	0x3d8fa4b1	0.07013834

feature.6.bias f4 [4]
0	0xbe8cd5a4	-0.27506745
1	0xbdec88ac	-0.115495056
2	0xbd203fd8	-0.039123386
3	0x3d8c18b5	0.0684065

feature.7.weight f4 [4]
0	0x3edfcb85	0.4370996
1	0x3f3b2f31	0.73118883
2	0x3eb98f46	0.3624212
3	0x3e9e57c2	0.3092633

feature.7.bias f4 [4]
0	0xbd8e2088	-0.069397986
1	0xbd9ef77f	-0.0776205
2	0x3dbc5f31	0.09197844
3	0xbd6effcf	-0.058349427

feature.7.running_mean f4 [4]
0	0xbc0f07da	-0.008729899
1	0xbeecf0ad	-0.4627737
2	0x3e3be0a5	0.18347414
3	0xbcf8aeb7	-0.030356748

feature.7.running_var f4 [4]
0	0x3c0968c5	0.008386795
1	0x390ddb62	0.00013528534
2	0x3f0cd0b0	0.5500593
3	0x3e0a8a46	0.1352931

feature.9.weight f4 [1, 4]
0	0x3d9a343f	0.075294964
1	0x3ea930fe	0.3304519
2	0xbe6db2a0	-0.23212671
3	0x3c65b766	0.014020776
