gesture_detection/checkpoints/train_22/model/95_net_netClassifier.pth (torch_old, 3172 bytes, 19 tensors)

feature.0.weight f4 [4, 9]
000000 5d b3 e5 bc 90 4b 2a 3d d4 a2 4e 3d d0 79 46 3e
       -0.028039629 0.04157597 0.050448254 0.19382405
000010 db b6 88 bd 60 66 90 be c4 ba 9a 3e 63 40 9a be
       -0.06675502 -0.28203106 0.30220616 -0.30127248
000020 03 c3 98 be 82 4f 29 bd 1b 58 65 be 5c 4f 98 be
       -0.29836282 -0.04133559 -0.22396891 -0.29748046
000030 62 2a 3d 3e 72 ef 87 3e d9 4f 8b 3d 01 33 33 3d
       0.18473199 0.2654987 0.06802339 0.043749813
000040 68 9e 66 3e 3c 29 6d 3e 1f 8d 34 3e cb ad 45 be
       0.22521365 0.23160261 0.17631958 -0.19304578
000050 24 ae 81 be 9d fc 61 3e ec a5 10 3e a8 35 16 be
       -0.2532817 0.2206902 0.14125794 -0.14668906
000060 8a eb 89 be fe 23 a7 be 21 ff dc 3c ee 89 a5 be
       -0.26937515 -0.32644647 0.026977124 -0.32331795
000070 c6 db f4 3d d9 d1 c9 3d 4a 81 50 3e cf c0 eb bc
       0.11955981 0.098544784 0.2036182 -0.028778462
000080 9b 83 3a 3e d9 69 ea 3d ff 58 60 be 7e 5a 86 3d
       0.18214266 0.1144597 -0.2190895 0.06560229

feature.0.bias f4 [4]
000000 a3 f6 45 3e f6 3a 1d 3e 5c 3a 38 be db db b2 bd
       0.19332366 0.15354523 -0.17991012 -0.0873334

feature.1.weight f4 [4]
000000 94 75 63 3f 85 1e ef 3d 0d 91 9f 3e 84 42 38 3f
       0.88851285 0.11675743 0.31165352 0.71976495

feature.1.bias f4 [4]
000000 3e 06 93 3c df 8a 93 3c 84 99 94 bc fd c2 7f 3c
       0.017947312 0.018010555 -0.018139608 0.015610454

feature.1.running_mean f4 [4]
000000 e8 af b5 3f 4b b1 26 3f 2d b9 a3 3e 47 b1 53 40
       1.4194307 0.6511428 0.31977215 3.3076952

feature.1.running_var f4 [4]
000000 58 50 6a 41 3d b2 ce 3e 05 9a 1d 40 61 b6 28 41
       14.644615 0.4037036 2.4625256 10.544526

feature.3.weight f4 [4, 4]
000000 2d 71 df be ae 6d c9 3e 95 dc ef be 9f c7 9d be
       -0.43641034 0.3934149 -0.46847978 -0.3081636
000010 64 b7 dc be 2e 41 a5 3e 5d ee ec be 86 cc 04 3e
       -0.43108666 0.3227629 -0.46275607 0.12968644
000020 5d 73 5d 3e 8b 7c b3 be b1 05 c4 be e7 38 eb 3c
       0.21626039 -0.35055956 -0.38285592 0.028713657
000030 a7 db b8 3e a1 21 eb bd e3 a0 43 3e 4c ef b1 bb
       0.3610508 -0.114810236 0.19104342 -0.0054301377

feature.3.bias f4 [4]
000000 fe 28 24 bc 12 dd 6f be 32 2a ed be a1 1f 47 bd
       -0.010019539 -0.23424175 -0.46321255 -0.048614148

feature.4.weight f4 [4]
000000 37 03 41 3f a2 c5 b6 3e d3 47 68 3f 5c 3e 63 3f
       0.7539553 0.35697657 0.90734595 0.8876703

feature.4.bias f4 [4]
000000 5b b8 7e bc 03 8e 81 bc 79 d2 7c 3c 7a 04 8c bc
       -0.015546883 -0.015814787 0.01543104 -0.017091978

feature.4.running_mean f4 [4]
000000 aa 9b 96 be de e4 c6 be 1a a7 e2 be 28 59 c6 3d
       -0.29415637 -0.38846487 -0.44268113 0.09684974

feature.4.running_var f4 [4]
000000 20 37 f1 3e c9 94 25 3e 5c 99 78 3c 9a 5f e4 3d
       0.4711237 0.16170038 0.0151732825 0.11151047

feature.6.weight f4 [4, 4]
000000 9c c2 05 3f 11 8b 2e be fe b1 af 3e 1c d1 aa bb
       0.52250075 -0.17045237 0.34315485 -0.005212916
000010 b9 fb df be 89 48 a7 be b6 cb 01 bf e3 4a f0 3c
       -0.43746737 -0.32672527 -0.50701463 0.029332584
000020 51 b6 5f be 68 77 3d bd c6 79 de 3e 12 37 ca 3e
       -0.21846892 -0.046256453 0.4345228 0.3949514
000030 6e 23 9e 3e 34 e0 d5 be 0f 78 d6 be a3 b9 97 3d
       0.30886406 -0.41772616 -0.41888472 0.07408454

feature.6.bias f4 [4]
000000 d5 54 8c be 5a c4 e8 bd 1c 92 1f bd 2e 13 8c 3d
       -0.27408472 -0.11365576 -0.0389577 0.06839596

feature.7.weight f4 [4]
000000 ff 86 dc 3e 9b 4f 3a 3f 50 71 bf 3e a6 40 9d 3e
       0.43071744 0.7277772 0.37391138 0.30713385

feature.7.bias f4 [4]
000000 16 3c 9b bd 10 91 ad bd 3f 78 d4 3d ca 6e 77 bd
       -0.0757982 -0.08474934 0.103744976 -0.06040839

feature.7.running_mean f4 [4]
000000 93 aa 7a bc d1 29 ed be 10 92 3e 3e 54 ae ea bc
       -0.015299457 -0.46320966 0.18610406 -0.02864758

feature.7.running_var f4 [4]
000000 93 92 4d 3b 0c 21 4a 38 02 e3 14 3f c8 89 00 3e
       0.0031367883 4.819133e-05 0.58158886 0.1255256

feature.9.weight f4 [1, 4]
000000 f8 6b 8a 3d 64 38 a8 3e 95 f2 79 be 06 31 cc 3b
       0.06758875 0.32855523 -0.24408944 0.00623143
