gesture_detection/checkpoints/train_27/model/10_net_netClassifier.pth (torch_old, 3176 bytes, 19 tensors)

feature.0.weight f4 [4, 9]
000000 ce 1b 38 3e 76 3d 88 be 23 77 a3 be 70 48 b0 bc
       0.17979357 -0.2660939 -0.31926832 -0.021518916
000010 e9 62 9e be 95 36 90 3e 98 51 b8 bb a2 98 0e 3d
       -0.30934837 0.28166643 -0.005624961 0.03481353
000020 73 58 3a 3e 16 39 20 be a8 11 5f 3e bc a4 79 bd
       0.18197803 -0.15646777 0.21784079 -0.06094812
000030 89 fa 90 be 5e 2f b2 bc 92 f6 8e 3d 6f 90 81 be
       -0.28316143 -0.021751102 0.06980623 -0.25305507
000040 e1 0d 79 be a0 9f c3 3c dc 30 aa 3e f0 b1 6e be
       -0.243217 0.023879826 0.33240402 -0.23310065
000050 a1 c8 3e 3e 84 65 35 3e 87 b8 75 be ae 74 cf bd
       0.18631221 0.17714506 -0.23996173 -0.10129677
000060 d6 04 13 3e 72 96 90 be d2 eb ce 3d 98 1b a3 be
       0.14357314 -0.2823978 0.10103573 -0.3185699
000070 ff fa 96 be 66 36 a0 be a4 b3 6f bd 21 17 06 3e
       -0.2948837 -0.31291503 -0.058520928 0.1309476
000080 91 f3 f7 bd 83 a9 38 be d8 16 5d be 4b c5 13 be
       -0.121070035 -0.18033414 -0.21590745 -0.1443073

feature.0.bias f4 [4]
000000 24 d7 04 be 10 4c 8b 3e 01 db 9d 3e 79 b3 53 be
       -0.12972695 0.2720647 0.3083115 -0.20673932

feature.1.weight f4 [4]
000000 20 5e 67 3f 4d 56 42 3f 96 ba 33 3f 4e 27 44 3f
       0.90378 0.75912935 0.7020658 0.76622474

feature.1.bias f4 [4]
000000 65 a2 d4 39 1b 64 e2 b9 ff 8c cc 39 60 fb 17 ba
       0.00040556784 -0.00043180663 0.00039014962 -0.00057976507

feature.1.running_mean f4 [4]
000000 57 c6 db 3f f3 25 ca bf 0d 22 0f 40 33 2a d5 bf
       1.7169904 -1.5792831 2.2364533 -1.6653503

feature.1.running_var f4 [4]
000000 31 1c 02 41 59 e5 27 41 81 71 ac 41 1a 89 89 40
       8.131883 10.493493 21.555422 4.297986

feature.3.weight f4 [4, 4]
000000 78 80 3e be 6e a1 9f be 1b 58 f3 bd fc 68 dd bc
       -0.18603694 -0.3117785 -0.11882039 -0.0270276
000010 c1 98 35 be 9f db ba 3e b2 88 70 3e ef 3b ce be
       -0.17734052 0.36495683 0.23489645 -0.402801
000020 f0 37 b1 3e ff cb 36 bd f7 66 f3 3e d2 31 98 3e
       0.3461299 -0.04462814 0.47539493 0.2972551
000030 d5 77 24 3e 63 87 9f 3e 79 b2 d8 be 0e 00 ee 3d
       0.16061337 0.3115798 -0.42323664 0.11621104

feature.3.bias f4 [4]
000000 0e ea 45 3e b9 1e 9d be f5 fb 88 be 0d 51 de be
       0.19327566 -0.30687502 -0.26754728 -0.43421212

feature.4.weight f4 [4]
000000 e2 9f 4b 3f d1 dc 17 3e 89 a5 2f 3d 87 eb 2f 3f
       0.79540837 0.14830329 0.042882476 0.6871876

feature.4.bias f4 [4]
000000 1c dc a4 bb a0 e4 5d bb 9f 34 16 3c e8 3c f0 3b
       -0.005031122 -0.0033858195 0.009167819 0.0073314793

feature.4.running_mean f4 [4]
000000 25 2c dc bb 3d be 53 be 81 62 38 3d 63 a2 73 be
       -0.0067191296 -0.20678039 0.045015816 -0.23792414

feature.4.running_var f4 [4]
000000 59 87 b2 3e 77 fc b2 3e 24 d8 e3 3e 31 4a e8 3e
       0.34868887 0.3495824 0.4450084 0.45369104

feature.6.weight f4 [4, 4]
000000 50 11 82 3e ef 5f 5b be f6 e7 03 3e b4 73 8d 3d
       0.25403833 -0.21423315 0.12881455 0.06906834
000010 b6 bc 05 3d 3d 21 80 3d 04 7a e3 3e 1b d5 ac bd
       0.032650672 0.0625634 0.44429028 -0.08439084
000020 14 52 9c be 8d 17 b8 be 5c 9c bb 3d b9 5f d9 3e
       -0.3053137 -0.35955468 0.091606826 0.42455843
000030 da b8 2e 3e f9 2b 96 3e 30 ef 4d be 3b 29 b0 3e
       0.17062703 0.29330423 -0.20110774 0.34406456

feature.6.bias f4 [4]
000000 e2 2c 92 be 52 94 f0 be 32 d8 93 3c 1c b0 9d bd
       -0.28549868 -0.4698816 0.018047426 -0.07699606

feature.7.weight f4 [4]
000000 3c 97 60 3f 66 f0 ea 3e 0d c9 58 3e 6b 97 19 3f
       0.87730765 0.45886534 0.21170445 0.5999667

feature.7.bias f4 [4]
000000 5c 16 00 bc 12 df 23 3c 35 15 2a 3c cb f5 23 3c
       -0.007817831 0.010001915 0.010381033 0.010007332

feature.7.running_mean f4 [4]
000000 d3 3a 1d be ae a9 9e be a3 80 2f 3d d8 11 1d 3d
       -0.15354471 -0.3098883 0.042847287 0.038347095

feature.7.running_var f4 [4]
000000 7f a0 b4 3e 9f 96 b4 3e 7e e3 e0 3e 89 d0 b8 3e
       0.352787 0.35271165 0.43923563 0.360966

feature.9.weight f4 [1, 4]
000000 88 35 9a 3a 7b 78 00 bf f6 cd 32 bd 9d 78 f9 be
       0.0011765221 -0.5018384 -0.04365345 -0.48724833
