gesture_detection/checkpoints/train_27/model/15_net_netClassifier.pth (torch_old, 3172 bytes, 19 tensors)

feature.0.weight f4 [4, 9]
0.17979173 -0.26609322 -0.31926793 -0.021824818 -0.30907562 0.28168213 -0.0056247 0.034813415
0.181978 -0.1564695 0.21784143 -0.060948003 -0.283462 -0.021484569 0.069819964 -0.25305492
-0.24321713 0.023879718 0.33240378 -0.23310058 0.18631248 0.17710206 -0.23992392 -0.10129369
0.14357325 -0.28239784 0.10103579 -0.31857044 -0.29488346 -0.31291458 -0.058622018 0.13103661
-0.12106367 -0.18033391 -0.21590751 -0.14430721
00000000: 531b 383e 5f3d 88be 1677 a3be f6c9 b2bc
00000010: 293f 9ebe a438 903e 674f b8bb 8398 0e3d
00000020: 7158 3a3e 8a39 20be d311 5f3e 9da4 79bd
00000030: ee21 91be 6800 b0bc c5fd 8e3d 6a90 81be
00000040: e90d 79be 669f c33c d430 aa3e ebb1 6ebe
00000050: b3c8 3e3e 3e5a 353e 9eae 75be 1173 cfbd
00000060: de04 133e 7396 90be daeb ce3d aa1b a3be
00000070: f7fa 96be 5736 a0be a41d 70bd 762e 063e
00000080: 3bf0 f7bd 74a9 38be dc16 5dbe 45c5 13be

feature.0.bias f4 [4]
-0.12972659 0.27206478 0.30831182 -0.20673881
00000000: 0cd7 04be 134c 8b3e 0cdb 9d3e 57b3 53be

feature.1.weight f4 [4]
0.9026824 0.760239 0.70093775 0.7671422
00000000: 3216 673f 069f 423f a870 333f 6e63 443f

feature.1.bias f4 [4]
-0.0006919894 0.00067782216 -0.0007379041 0.00033759503
00000000: 9f66 35ba e0af 313a e86f 41ba 3dff b039

feature.1.running_mean f4 [4]
2.092995 -1.9260533 2.7266688 -2.0306234
00000000: a1f3 0540 ea88 f6bf be81 2e40 bcf5 01c0

feature.1.running_var f4 [4]
9.6906395 12.581811 26.060383 5.022445
00000000: dc0c 1b41 194f 4941 aa7b d041 dfb7 a040

feature.3.weight f4 [4, 4]
-0.18493362 -0.31287786 -0.11771658 -0.028126787 -0.18487808 0.37248635 0.22736795 -0.39527184
0.34648764 -0.044932652 0.47567865 0.296948 0.15906133 0.31298393 -0.42457694 0.117622636
00000000: 3d5f 3dbe 8731 a0be 6415 f1bd 266a e6bc
00000010: ae50 3dbe 88b6 be3e 25d3 683e 1261 cabe
00000020: d466 b13e 4d0b 38bd 278c f33e 9109 983e
00000030: f9e0 223e 6e3f a03e 2662 d9be 23e4 f03d

feature.3.bias f4 [4]
0.193292 -0.30682248 -0.26754725 -0.43421197
00000000: 57ee 453e d617 9dbe f4fb 88be 0851 debe

feature.4.weight f4 [4]
0.7942047 0.14413479 0.046322078 0.6907264
00000000: 0051 4b3f 1298 133e 38bc 3d3d 72d3 303f

feature.4.bias f4 [4]
-0.005401119 -0.007586129 0.012607188 0.010869968
00000000: dffb b0bb 1095 f8bb 618e 4e3c f317 323c

feature.4.running_mean f4 [4]
-0.008175645 -0.25218263 0.0547798 -0.29002616
00000000: 24f3 05bc 151e 81be c960 603d 4f7e 94be

feature.4.running_var f4 [4]
0.20590511 0.2066571 0.32350698 0.33572662
00000000: cad8 523e eb9d 533e b5a2 a53e 5ce4 ab3e

feature.6.weight f4 [4, 4]
0.25671592 -0.21156652 0.1318321 0.06630842 0.036382634 0.065051906 0.44750205 -0.087013386
-0.30754736 -0.36065337 0.090904005 0.42622235 0.16738959 0.28980893 -0.20546398 0.34773922
00000000: 4570 833e e5a4 58be fefe 063e b5cc 873d
00000010: f505 153d ef39 853d fd1e e53e 1334 b2bd
00000020: d976 9dbe 8fa7 b8be e12b ba3d d139 da3e
00000030: 2d68 2b3e d661 943e 2665 52be e00a b23e

feature.6.bias f4 [4]
-0.28548974 -0.47027758 0.0180434 -0.07710795
00000000: b62b 92be 39c8 f0be c1cf 933c c6ea 9dbd

feature.7.weight f4 [4]
0.87721866 0.4638811 0.21727327 0.6049668
00000000: 6791 603f d381 ed3e e27c 5e3e 1bdf 1a3f

feature.7.bias f4 [4]
-0.007893277 0.015011419 0.015953876 0.015011907
00000000: ce52 01bc 74f2 753c b4b1 823c 80f4 753c

feature.7.running_mean f4 [4]
-0.1829761 -0.37668613 0.050227486 0.04876789
00000000: 165e 3bbe 01dd c0be 56bb 4d3d d7c0 473d

feature.7.running_var f4 [4]
0.20949312 0.21172608 0.3308964 0.21805672
00000000: 5d85 563e b9ce 583e 416b a93e 434a 5f3e

feature.9.weight f4 [1, 4]
-0.0038190007 -0.50693554 -0.04890593 -0.49230066
00000000: 3348 7abb 87c6 01bf 9651 48bd d50e fcbe
