gesture_detection/checkpoints/train_27/model/20_net_netClassifier.pth (torch_old, 3168 bytes, 19 tensors)

feature.0.weight f4 [4, 9]
000000 40 1b 38 3e 5b 3d 88 be 13 77 a3 be 29 31 b3 bc
       0.17979145 -0.2660931 -0.31926784 -0.021874027
000010 71 39 9e be f4 38 90 3e 16 4f b8 bb 7e 98 0e 3d
       -0.309032 0.28168452 -0.005624662 0.034813397
000020 71 58 3a 3e bd 39 20 be e6 11 5f 3e 75 a4 79 bd
       0.181978 -0.15647025 0.21784171 -0.060947854
000030 63 33 91 be 10 09 af bc 2c 01 8f 3d 67 90 81 be
       -0.28359517 -0.021366626 0.069826454 -0.25305483
000040 ec 0d 79 be 5c 9f c3 3c d0 30 aa 3e e9 b1 6e be
       -0.24321717 0.0238797 0.33240366 -0.23310055
000050 bb c8 3e 3e 53 54 35 3e 6e a9 75 be 47 72 cf bd
       0.1863126 0.17707948 -0.23990414 -0.101292185
000060 e2 04 13 3e 73 96 90 be dd eb ce 3d 88 1b a3 be
       0.14357331 -0.28239784 0.10103581 -0.31856942
000070 05 fb 96 be 42 36 a0 be d8 2d 6f bd 0e fb 05 3e
       -0.29488388 -0.31291395 -0.05839333 0.13084051
000080 ca f2 f7 bd 69 a9 38 be d9 16 5d be 34 c5 13 be
       -0.12106855 -0.18033375 -0.21590747 -0.14430696

feature.0.bias f4 [4]
000000 09 d7 04 be 18 4c 8b 3e 10 db 9d 3e 27 b3 53 be
       -0.12972654 0.27206492 0.30831194 -0.2067381

feature.1.weight f4 [4]
000000 ff 09 67 3f 78 c5 42 3f ac 41 33 3f 8d d3 43 3f
       0.9024963 0.76082563 0.7002208 0.76494676

feature.1.bias f4 [4]
000000 a5 32 66 ba 52 bc a5 3a c1 ae be ba 27 7d f3 ba
       -0.00087813503 0.0012644625 -0.001454793 -0.0018576727

feature.1.running_mean f4 [4]
000000 eb 00 14 40 76 8a 08 c0 1a 02 41 40 80 c4 0f c0
       2.312556 -2.133451 3.0157533 -2.2463684

feature.1.running_var f4 [4]
000000 a9 55 29 41 6b 94 5d 41 fe b4 e5 41 8b 6c ae 40
       10.583413 13.848735 28.713375 5.45075

feature.3.weight f4 [4, 4]
000000 af fe 3c be 80 61 a0 be 1d 54 f0 bd e1 69 e9 bc
       -0.18456529 -0.31324387 -0.11734793 -0.02849287
000010 27 62 45 be 2e bf c2 3e f0 c1 60 3e b5 58 c6 be
       -0.19275723 0.38036484 0.21948981 -0.38739553
000020 c0 96 b1 3e ba 53 39 bd 30 b2 f3 3e 41 e0 97 3e
       0.34685326 -0.045245863 0.47596884 0.2966328
000030 2a 41 21 3e 08 fd a0 3e 8f 16 da be 5e dd f3 3d
       0.15747514 0.31443048 -0.42595336 0.11907457

feature.3.bias f4 [4]
000000 70 ee 45 3e e9 f7 9c be f3 fb 88 be 17 51 de be
       0.19329238 -0.3065789 -0.26754722 -0.43421242

feature.4.weight f4 [4]
000000 80 c4 4a 3f 94 2c 11 3e d7 57 4a 3d 48 b9 31 3f
       0.79206085 0.14177161 0.049400177 0.6942334

feature.4.bias f4 [4]
000000 96 44 da bb dc 2f 26 bc 0f 7e 80 3c 37 8c 6b 3c
       -0.006661008 -0.0101432465 0.01568511 0.014376692

feature.4.running_mean f4 [4]
000000 4a f1 13 bc 39 c7 8e be 92 b6 75 3d 5a 09 a4 be
       -0.009029696 -0.2788637 0.059988566 -0.32038385

feature.4.running_var f4 [4]
000000 a1 15 f9 3d a1 f7 f9 3d 63 bc 80 3e 65 ea 88 3e
       0.121623285 0.122054346 0.25143728 0.2674133

feature.6.weight f4 [4, 4]
000000 c8 ed 83 3e fc c9 57 be 18 fe 07 3e 59 f4 85 3d
       0.2576735 -0.21073145 0.13280523 0.06540746
000010 9b 22 28 3d 81 dc 85 3d 81 d2 e6 3e 04 5b b7 bd
       0.041048627 0.065361984 0.45082477 -0.08952907
000020 53 4d 9f be 55 af b8 be 2f 55 b8 3d f0 32 db 3e
       -0.3111368 -0.36071268 0.090006225 0.428123
000030 7a aa 27 3e 8c 62 93 3e 11 b1 56 be d0 cb b3 3e
       0.16373625 0.28786123 -0.20965983 0.35116434

feature.6.bias f4 [4]
000000 fd 2a 92 be 79 ba f0 be 1e cb 93 3c 86 d5 9c bd
       -0.28548422 -0.47017267 0.01804119 -0.07657914

feature.7.weight f4 [4]
000000 4d a2 61 3f db 12 f0 3e 64 6f 64 3e 5f 27 1c 3f
       0.88138276 0.46889386 0.22308117 0.60997576

feature.7.bias f4 [4]
000000 b2 25 79 bb e5 02 a4 3c e1 46 b2 3c 7d 04 a4 3c
       -0.0038016853 0.020020911 0.021762313 0.020021671

feature.7.running_mean f4 [4]
000000 88 be 41 be c2 54 d4 be 49 2c 3d 3d 37 ec 73 3d
       -0.18920338 -0.41470915 0.04618481 0.059551444

feature.7.running_var f4 [4]
000000 e3 cb 05 3e a1 de 03 3e ae 9f 8a 3e 5b af 0a 3e
       0.13066058 0.12877895 0.2707495 0.13543455

feature.9.weight f4 [1, 4]
000000 f6 e8 10 bc d8 16 03 bf a3 5e 5e bd 63 a9 fe be
       -0.008844605 -0.5120673 -0.05428947 -0.49738607
