gesture_detection/checkpoints/train_27/model/25_net_netClassifier.pth (torch_old, 3164 bytes, 19 tensors)

feature.0.weight f4 [4, 9]
0	0x3e381b40	0.17979145
1	0xbe883d5b	-0.2660931
2	0xbea37713	-0.31926784
3	0xbcb3290e	-0.021870162
4	0xbe9e39e4	-0.30903542
5	0x3e9038ee	0.28168434
6	0xbbb84f1e	-0.005624666
7	0x3d0e987e	0.034813397
8	0x3e3a5871	0.181978
9	0xbe2039bf	-0.15647028
10	0x3e5f11e6	0.21784171
11	0xbd79a472	-0.060947843
12	0xbe913429	-0.28360108
13	0xbcaefe01	-0.021361353
14	0x3d8f0158	0.06982678
15	0xbe819067	-0.25305483
16	0xbe790dec	-0.24321717
17	0x3cc39f5c	0.0238797
18	0x3eaa30d0	0.33240366
19	0xbe6eb1e9	-0.23310055
20	0x3e3ec8bb	0.1863126
21	0x3e355401	0.17707826
22	0xbe75a927	-0.23990308
23	0xbdcf723e	-0.10129212
24	0x3e1304e2	0.14357331
25	0xbe909673	-0.28239784
26	0x3dceebdd	0.10103581
27	0xbea31b84	-0.3185693
28	0xbe96fb06	-0.2948839
29	0xbea03641	-0.31291392
30	0xbd6f10ab	-0.058365505
31	0x3e05f4c6	0.13081655
32	0xbdf7f332	-0.12106933
33	0xbe38a969	-0.18033375
34	0xbe5d16d9	-0.21590747
35	0xbe13c533	-0.14430694

feature.0.bias f4 [4]
0	0xbe04d709	-0.12972654
1	0x3e8b4c18	0.27206492
2	0x3e9ddb10	0.30831194
3	0xbe53b324	-0.20673805

feature.1.weight f4 [4]
0	0x3f670b21	0.90251356
1	0x3f42c739	0.7608524
2	0x3f333f08	0.70018053
3	0x3f43c1e6	0.7646774

feature.1.bias f4 [4]
0	0xba61aa9f	-0.00086084934
1	0x3aa93dee	0.0012912133
2	0xbac3f599	-0.0014950513
3	0xbb0b64d8	-0.0021269824

feature.1.running_mean f4 [4]
0	0x401c4ce0	2.442192
1	0xc010668c	-2.256259
2	0x404beddd	3.186393
3	0xc017dca4	-2.3728418

feature.1.running_var f4 [4]
0	0x4131c463	11.110446
1	0x41699eb3	14.601245
2	0x41f23af8	30.278793
3	0x40b648a5	5.6963677

feature.3.weight f4 [4, 4]
0	0xbe3cfdf4	-0.1845625
1	0xbea061d7	-0.31324646
2	0xbdf052a5	-0.11734513
3	0xbce96f71	-0.028495522
4	0xbe460cad	-0.19340773
5	0x3ec31475	0.38101545
6	0x3e60177b	0.21883957
7	0xbec60393	-0.38674602
8	0x3eb1c397	0.34719536
9	0xbd3a87cb	-0.04553966
10	0x3ef3d5c7	0.47624037
11	0x3e97b9aa	0.29633838
12	0x3e205ac0	0.15659618
13	0x3ea16657	0.31523392
14	0xbeda7a8b	-0.42671618
15	0x3df58234	0.11987725

feature.3.bias f4 [4]
0	0x3e45ee6a	0.19329229
1	0xbe9cf45e	-0.30655187
2	0xbe88fbf0	-0.26754713
3	0xbede5120	-0.43421268

feature.4.weight f4 [4]
0	0x3f4ab7a4	0.79186463
1	0x3e115de3	0.14195971
2	0x3d5532ce	0.052050404
3	0x3f32397f	0.6961898

feature.4.bias f4 [4]
0	0xbbde7b96	-0.006789635
1	0xbc230669	-0.009950259
2	0x3c9633a4	0.018335171
3	0x3c85cc8e	0.01633289

feature.4.running_mean f4 [4]
0	0xbc1c2c87	-0.0095321005
1	0xbe96b9e4	-0.29438698
2	0x3d80b3df	0.06284308
3	0xbead3788	-0.3383143

feature.4.running_var f4 [4]
0	0x3d932aa6	0.07185869
1	0x3d93c037	0.072143964
2	0x3e564876	0.20926079
3	0x3e6968aa	0.22793832

feature.6.weight f4 [4, 4]
0	0x3e840478	0.2578466
1	0xbe57d0e9	-0.21075787
2	0x3e081cbb	0.1329221
3	0x3d85c0e8	0.065309346
4	0x3d3c79a5	0.046014447
5	0x3d815406	0.06314854
6	0x3ee8c567	0.45463106
7	0xbdbd0175	-0.092287935
8	0xbea1e054	-0.3161646
9	0xbeb7dc5d	-0.3591031
10	0x3db56143	0.08856442
11	0x3edca275	0.43092695
12	0x3e262864	0.16226345
13	0x3e93da2f	0.28877398
14	0xbe587e04	-0.21141821
15	0x3eb47acd	0.3524994

feature.6.bias f4 [4]
0	0xbe92291a	-0.28546983
1	0xbef0f682	-0.4706307
2	0x3c93de29	0.01805027
3	0xbd9cffb3	-0.07665958

feature.7.weight f4 [4]
0	0x3f6385bb	0.8887593
1	0x3ef2a380	0.47390366
2	0x3e6a9885	0.22909744
3	0x3f1d7028	0.6149926

feature.7.bias f4 [4]
0	0x3b64c001	0.0034904482
1	0x3ccd0be3	0.025030082
2	0x3ce38bd2	0.027776632
3	0x3ccd1684	0.02503515

feature.7.running_mean f4 [4]
0	0xbe45eba2	-0.19328168
1	0xbedf3f24	-0.4360286
2	0x3d2e8f9e	0.042617433
3	0x3d899ded	0.06719575

feature.7.running_var f4 [4]
0	0x3db05dc4	0.086116344
1	0x3da3b6d7	0.07993858
2	0x3e684bc6	0.22685155
3	0x3db77d56	0.08959453

feature.9.weight f4 [1, 4]
0	0xbc63a9d5	-0.013895472
1	0xbf04694f	-0.5172319
2	0xbd74eec1	-0.059798006
3	0xbf00a3fe	-0.5025023
