gesture_detection/checkpoints/train_27/model/5_net_netClassifier.pth (torch_old, 3176 bytes, 19 tensors)

feature.0.weight f4 [4, 9]
000000 1d 1c 38 3e 83 3d 88 be 48 77 a3 be e4 9c ae bc
       0.17979474 -0.2660943 -0.31926942 -0.021315046
000010 b4 7a 9e be b3 34 90 3e cb 55 b8 bb bd 98 0e 3d
       -0.3095299 0.28165206 -0.0056254617 0.03481363
000020 63 58 3a 3e ca 38 20 be 8d 11 5f 3e 11 a5 79 bd
       0.1819778 -0.15646663 0.21784039 -0.060948435
000030 58 de 90 be 59 bb b3 bc 3c f1 8e 3d 76 90 81 be
       -0.28294635 -0.02193992 0.069796056 -0.25305527
000040 dc 0d 79 be 9e 9f c3 3c e0 30 aa 3e f5 b1 6e be
       -0.24321693 0.023879822 0.33240414 -0.23310073
000050 b4 c8 3e 3e 7f 6d 35 3e 1a bf 75 be 52 74 cf bd
       0.1863125 0.1771755 -0.2399868 -0.10129608
000060 dd 04 13 3e 72 96 90 be e0 eb ce 3d 8b 1b a3 be
       0.14357324 -0.2823978 0.10103583 -0.3185695
000070 04 fb 96 be 62 36 a0 be e7 5a 6f bd 21 04 06 3e
       -0.29488385 -0.3129149 -0.0584363 0.13087513
000080 c7 f4 f7 bd 82 a9 38 be d7 16 5d be 45 c5 13 be
       -0.121072344 -0.18033412 -0.21590744 -0.14430721

feature.0.bias f4 [4]
000000 77 d7 04 be 05 4c 8b 3e 0c db 9d 3e 70 b3 53 be
       -0.12972818 0.27206436 0.30831182 -0.20673919

feature.1.weight f4 [4]
000000 f1 b9 67 3f 4d fb 41 3f 32 17 34 3f 29 d3 43 3f
       0.905181 0.7577408 0.70347893 0.7649408

feature.1.bias f4 [4]
000000 cf c9 ec 3a 09 99 ee ba 4a 57 ec 3a 03 41 f4 ba
       0.0018065515 -0.0018203567 0.0018031385 -0.0018635098

feature.1.running_mean f4 [4]
000000 87 42 8a 3f c7 06 7e bf fc fe b3 3f 7a fd 85 bf
       1.0801553 -0.9922909 1.406219 -1.046798

feature.1.running_var f4 [4]
000000 46 b7 af 40 aa bb de 40 6c ce 5e 41 41 92 44 40
       5.4911222 6.960408 13.925396 3.0714266

feature.3.weight f4 [4, 4]
000000 72 ee 3f be 7d eb 9e be 99 34 f6 bd e4 09 d2 bc
       -0.18743303 -0.31039038 -0.12021751 -0.025639482
000010 1a aa 32 be 89 64 b9 3e 74 75 73 3e 02 b3 cf be
       -0.17447701 0.36209515 0.23775274 -0.4056626
000020 1a 0a b1 3e 14 95 35 bd b1 42 f3 3e 07 59 98 3e
       0.3457802 -0.044331625 0.4751182 0.29755422
000030 a5 05 26 3e df d4 9e 3e 54 08 d8 be cb 31 eb 3d
       0.1621309 0.31021783 -0.42193854 0.11484107

feature.3.bias f4 [4]
000000 0b e5 45 3e ea 1c 9d be f6 fb 88 be ff 50 de be
       0.19325654 -0.30686122 -0.2675473 -0.4342117

feature.4.weight f4 [4]
000000 7b 2c 4c 3f f0 8e 1a 3e 3c e4 1e 3d 4f f5 2e 3f
       0.7975537 0.15093589 0.03879188 0.6834306

feature.4.bias f4 [4]
000000 6c 7e 66 bb 14 3c 45 ba 1e 61 a6 3b 2d 49 6a 3b
       -0.0035170568 -0.0007523906 0.0050774952 0.0035749183

feature.4.running_mean f4 [4]
000000 40 94 8a bb fb 1c 05 be f4 f9 e8 3c fa 53 19 be
       -0.0042290986 -0.12999336 0.0284395 -0.14973441

feature.4.running_var f4 [4]
000000 98 2a 17 3f e5 4f 17 3f 90 b3 26 3f 41 e9 27 3f
       0.5904937 0.59106284 0.6511774 0.6559029

feature.6.weight f4 [4, 4]
000000 2b bb 81 3e f3 04 5d be 85 13 02 3e ce be 90 3d
       0.2533811 -0.21583919 0.12702759 0.07067643
000010 db c4 ff 3c a3 a5 71 3d 47 7c e1 3e 04 82 a5 bd
       0.031221798 0.058995854 0.4404013 -0.08081439
000020 52 3f 9c be 18 33 b7 be d3 6d bd 3d 6f 16 d8 3e
       -0.3051706 -0.3578117 0.09249463 0.42204615
000030 75 82 31 3e 40 cc 97 3e 32 07 4a be 8a 81 ae 3e
       0.17334922 0.29648018 -0.19729307 0.34083205

feature.6.bias f4 [4]
000000 c1 44 92 be b7 c3 f0 be 0c ed 93 3c 33 89 9d bd
       -0.2856808 -0.4702432 0.018057369 -0.07692184

feature.7.weight f4 [4]
000000 44 63 61 3f 2b 60 e8 3e d5 58 53 3e 98 4f 18 3f
       0.8804209 0.4538587 0.20639355 0.5949645

feature.7.bias f4 [4]
000000 b3 4f 99 bb 3a c4 a3 3b fa 17 a6 3b b1 f6 a3 3b
       -0.0046786903 0.0049977573 0.005068776 0.005003773

feature.7.running_mean f4 [4]
000000 f6 e1 cb bd 3f 45 48 be a0 d6 f1 3c 79 1f b6 3c
       -0.09955208 -0.19557665 0.029521286 0.022231804

feature.7.running_var f4 [4]
000000 e3 37 18 3f 22 a2 17 3f 7b fa 20 3f 25 44 1a 3f
       0.59460276 0.5923177 0.628822 0.6026023

feature.9.weight f4 [1, 4]
000000 1f f5 c8 3b 27 5b fe be 84 c9 1d bd 6c e5 f6 be
       0.0061327363 -0.4967892 -0.03852226 -0.4822191
