gesture_detection/pretrained/latest_net_netClassifier.pth (torch_old, 284109 bytes, 31 tensors)

feature.0.weight f4 [128, 9]
000000 d0 75 bf 3a 3f 37 0f 3f f0 4b 4a be 22 e5 b4 3d
       0.0014607254 0.55943674 -0.1975553 0.08832766
000010 5a bb ab 3e ab 2e ea bd 08 65 eb 3e f9 97 09 bf
       0.33541375 -0.114346825 0.45975518 -0.53747517
000020 0e d7 1c 3f 26 f7 0f 3e 18 ad 33 bd 04 97 e6 3d
       0.6126565 0.14059123 -0.043866247 0.11259273
000030 ec 27 57 3e 70 f4 a9 be 75 e2 55 3c 6b 37 9c 3e
       0.21011323 -0.33194304 0.01305448 0.3051103
000040 ac ac ca 3e 62 0b 64 be 97 fb 2d 3e e3 cb 07 3c
       0.39584863 -0.22269967 0.16990505 0.0082883565
000050 df 21 85 be a1 6b e2 3c 74 2b e0 be c0 01 0b be
       -0.26002404 0.027639212 -0.43783152 -0.13574886
000060 84 69 fb be 85 88 05 3e 6f 02 8f 3e cf 82 4b bf
       -0.4910394 0.1304036 0.27931544 -0.79496473
000070 0a f7 35 3d ed 79 17 bf f7 7e c2 bb 1e db 12 3b
       0.044425048 -0.5917042 -0.0059355455 0.0022408436
000080 89 75 23 ba fe 8e 11 bf 06 e7 e7 3d de 91 55 bf
       -0.00062354706 -0.56858814 0.11323361 -0.834257
000090 68 1a 35 bf de 45 d4 be eb b6 98 bc 13 4c 3c be
       -0.7074342 -0.41459554 -0.01864191 -0.18388395
0000a0 23 ba 10 3e 7d 48 56 3d 89 05 12 bf fe 69 03 bf
       0.14133506 0.052315224 -0.57039696 -0.51333606
0000b0 97 a2 97 bd 8f 18 d1 bd 49 44 a3 be 74 33 6a 3c
       -0.074040584 -0.10209762 -0.31888035 0.014294494
0000c0 1a f8 5c 3e d0 eb 61 3d c7 21 9e bd f4 20 1e 3f
       0.21579018 0.05515653 -0.07721286 0.6176903
0000d0 2d 33 55 3e 26 67 96 bc ca 23 d9 be d1 fe 38 3e
       0.20820303 -0.018359732 -0.42410117 0.18065955
0000e0 73 d7 c1 bd fb ac 81 3e 90 97 27 3e 29 01 78 3d
       -0.09464922 0.25327286 0.1636641 0.06054798
0000f0 47 d6 86 be ac f8 3d bf 89 a2 02 bf d3 13 26 bf
       -0.26335356 -0.7420757 -0.5102926 -0.64874
000100 ab 59 2a bd 2d d1 27 bf f5 31 41 be fc 6a e8 bd
       -0.04158942 -0.6555355 -0.18866713 -0.11348531
000110 3f 12 4f 3d 69 8d 33 bf ce 5f 00 be 67 8b 4f be
       0.05055451 -0.7013765 -0.12536547 -0.20268022
000120 54 31 7d 3e af 61 50 bf 5c 06 c1 be f9 06 57 3e
       0.24725848 -0.81399053 -0.37700164 0.20998754
000130 de b6 2a 3d c8 7b 58 3e ba bc 83 bd 66 31 b7 be
       0.041678302 0.21140969 -0.06432481 -0.35779876
000140 e9 68 4b be 99 76 00 bf d0 06 1e bf 48 ed dc be
       -0.19864239 -0.50180966 -0.61729145 -0.4314978
000150 78 c3 bd bd 0f e1 0b be 45 b7 96 3e 94 b5 92 bf
       -0.09265798 -0.13660072 0.294367 -1.1461663
000160 e2 11 24 be a4 01 16 bf b2 a6 fe be e8 c1 d4 be
       -0.16022447 -0.58596253 -0.49736553 -0.4155419
000170 c4 e1 31 bf cc 41 a6 3e 33 99 8b 3e 79 fc b1 bc
       -0.69485116 0.32472074 0.2726532 -0.021726834
000180 df 0d bb be 66 2f 42 bf 01 dd c3 be 6d cb fa be
       -0.3653402 -0.75853574 -0.3825455 -0.48983327
000190 d7 56 00 be 77 ec 4f be cb d1 18 3d 79 84 28 3e
       -0.12533127 -0.20305048 0.03730945 0.16456784
0001a0 f0 00 0e 3d 95 81 85 be d7 97 88 be 2d d2 5c be
       0.034668863 -0.26075426 -0.26678345 -0.2156455
0001b0 52 dc 86 bd 8b e1 fe be 38 13 73 bd 11 8d 74 be
       -0.065849915 -0.4978145 -0.0593445 -0.23881938
0001c0 ea 6a b0 bc 5b 7c 9c be ab 0b ed be 88 da 9b be
       -0.021535356 -0.30563626 -0.46297964 -0.30440164
0001d0 17 e6 9b be 06 2c 0c bf 5f 5d 66 3d 85 b7 27 bf
       -0.30448982 -0.54754674 0.05624139 -0.65514404
0001e0 2e 6c 5c be f1 ae d2 bd 10 dc 5e bd 04 c2 8f be
       -0.21525642 -0.10287274 -0.054409087 -0.2807771
0001f0 c2 70 02 bf 80 dd a7 be 61 4a 05 bf a8 2e d7 bc
       -0.50953305 -0.3278618 -0.5206662 -0.026267365
000200 2d b8 1b bf c6 36 c5 3d 63 91 72 bd a7 c6 51 bd
       -0.60827905 0.09629588 -0.059220683 -0.05121484
000210 cc b6 0b bf 7e a3 4e be 70 fc 98 be 22 75 a6 bd
       -0.545758 -0.20179555 -0.29880095 -0.0812781
000220 4c 50 82 be ac 6c 87 3a af eb 7a 3d e9 83 57 3e
       -0.25451887 0.0010332069 0.06125992 0.21046413
000230 1d 95 41 3e 48 40 80 be bb 54 b0 3e 4c 85 a3 be
       0.18904538 -0.25049043 0.34439644 -0.31937635
000240 e3 4a 33 3e 50 cd 2b be a2 33 05 3e 37 f2 75 be
       0.17509036 -0.16777539 0.13007978 -0.24018179
000250 c7 0f 86 be 02 22 82 3e de ca 21 3d 89 d6 8e be
       -0.26183912 0.2541657 0.03950011 -0.27898052
000260 28 3c 99 3c c5 03 f8 be 25 f8 15 bf 22 72 8c be
       0.018705443 -0.48440376 -0.58581764 -0.27430826
000270 1e d6 4a 3e d0 0c 92 be 8a 83 64 3d 00 9c 0b bf
       0.19808242 -0.285254 0.055789508 -0.5453491
000280 b5 95 b2 3e 70 98 18 bf 5d 20 4e 3c 10 5b 86 3c
       0.34879842 -0.596076 0.012580958 0.016400844
000290 4e b0 3f bf b5 42 b6 be f5 c3 e0 bd 39 e0 83 3e
       -0.74878395 -0.35597768 -0.10974876 0.25757006
0002a0 ea ca b4 3e ca 2a a9 3c 0f 50 ae 3d 2e a1 24 be
       0.3531106 0.020650286 0.08511364 -0.1607711
0002b0 e0 92 c1 be bc 2a 0f bf f1 3f d7 bd 47 ec 84 be
       -0.3780737 -0.5592458 -0.10510243 -0.25961515
0002c0 9e dc 63 be c5 b5 5b bf 92 38 50 3e ab 10 29 be
       -0.22252128 -0.85824233 0.2033408 -0.16510265
0002d0 41 09 0f be 07 87 79 bd 22 d9 ae be d1 ac a4 be
       -0.13968374 -0.060919788 -0.34150034 -0.32163098
0002e0 64 f3 45 be 4e cf 0d 3e 1e 61 17 bf 2f 6c 54 be
       -0.19331127 0.13848612 -0.59132564 -0.20744394
0002f0 00 c4 4d 3d b3 91 ad be 18 81 0a bd 9d ce ee be
       0.05023575 -0.33900222 -0.03381452 -0.46642008
000300 8b 48 73 3e ae 5a 0c be 80 d8 47 bc fa cf e6 be
       0.23758142 -0.13706467 -0.012197614 -0.4508055
000310 b2 bc 0c be aa 4f 7f be 29 65 de 3c ec 70 46 3e
       -0.13743857 -0.24932733 0.027147846 0.19379014
000320 20 6d c2 be 15 98 67 3e ef fb 3f be 9d 30 fa 3c
       -0.3797388 0.22616608 -0.18748449 0.030540759
000330 cd bb 2c be 9b 30 1e be 27 a2 c2 3d 9c 90 4a 3d
       -0.16868515 -0.15448229 0.09503584 0.049454316
000340 86 19 b5 3e 8b 8e 85 be 9b 91 3e be 59 b4 a5 3e
       0.35371035 -0.26085314 -0.18610232 0.32364157
000350 03 dd f7 bd 80 fd 46 3e e3 0c 82 bb 98 9d ee 3b
       -0.121027015 0.1943264 -0.0039688214 0.00728197
000360 8b 93 f0 3e 7b 77 71 3e b2 53 18 be 5f 6a 94 3e
       0.46987566 0.23580734 -0.14875677 0.28987405
000370 f7 d6 6d 3d e4 58 45 3e 34 5d 54 3f fe 07 2f 3e
       0.058066335 0.1927219 0.82954717 0.17092893
000380 27 82 fe 3e 30 d1 16 bd 4b ce 82 3e 1f 43 b8 be
       0.49708673 -0.03682059 0.25548014 -0.3598871
000390 a0 9b 9c 3d 71 5c 81 3e 7a b1 7c bd c8 1d 30 3c
       0.076468706 0.2526584 -0.061692692 0.010749288
0003a0 df be e3 bc 02 b3 a9 bd 62 39 a9 3c 18 a1 2d 3e
       -0.027800975 -0.08286096 0.020657245 0.16955984
0003b0 12 0a 94 3d f3 8a 05 be 0e d7 9e 3e c4 bd 86 3d
       0.07228483 -0.13041286 0.3102345 0.06579164
0003c0 00 64 7b bf 21 6a 05 bf c5 d1 59 be bf 4a a4 be
       -0.9819946 -0.52115065 -0.21271427 -0.32088277
0003d0 18 74 c5 be ae a1 56 be 3c a5 56 bd 3d 3e b2 3e
       -0.38565135 -0.20960113 -0.052403674 0.3481311
0003e0 67 04 82 3e 75 e3 39 bf bb 1a 35 bf 89 91 03 be
       0.25393984 -0.72612697 -0.7074391 -0.12848486
0003f0 cd 2f 63 be 36 0f 97 be 32 f8 67 be e4 18 9b be
       -0.22186203 -0.29503793 -0.22653273 -0.30292428

feature.0.bias f4 [128]
000000 de f2 19 be 99 aa 69 be e3 41 9c be bd c2 12 3e
       -0.15034053 -0.22818984 -0.30519018 0.143321
000010 c3 a1 9d be 41 5a 8b 3c a9 a3 8c be 55 5d 87 be
       -0.30787477 0.01701081 -0.27468613 -0.26438394
000020 77 24 82 bc a7 5b 0b be c8 14 4b 3e d7 f6 8a 3e
       -0.015886528 -0.13609181 0.19832146 0.2714145
000030 7c a7 33 be 87 67 97 bd 73 4b a9 be 85 ef f5 bd
       -0.17544359 -0.07392793 -0.33065376 -0.12008575
000040 70 13 23 3e 3b 75 09 3d c6 08 94 be 27 ed 38 3d
       0.15925384 0.033559065 -0.28912944 0.04514804
000050 e6 25 2d 3e 81 76 33 3e 2c 1c 2b 3e aa 1d 62 3e
       0.16908988 0.17525674 0.16709965 0.22081628
000060 a4 cc 05 3e ef 9c 65 be 6c 9d 59 3e 16 bd a3 be
       0.13066345 -0.22423147 0.21251458 -0.319802
000070 54 b8 2f 3e a5 b6 b4 3c a2 32 43 3e b3 82 5d 3d
       0.1716016 0.022059748 0.19062284 0.054079723
000080 93 61 69 be 04 9d b0 3d a8 c8 36 be c1 f8 06 3d
       -0.22791128 0.08623698 -0.17849982 0.032952074
000090 21 28 3f 3d 55 82 5a 3e 05 0f 47 3e e0 93 f5 3d
       0.04666913 0.2133878 0.19439323 0.119910955
0000a0 fd ed 16 3e 12 88 87 3e aa f3 3a 3e d8 ed ad bd
       0.14739223 0.26471 0.18257013 -0.08492631
0000b0 67 3e f6 3b 19 3e 09 be db 50 02 3c 95 b7 78 3e
       0.007514763 -0.13402595 0.007953848 0.24288781
0000c0 51 30 03 be f4 d6 81 3e c7 81 99 3e eb 68 22 3e
       -0.128114 0.2535931 0.29981825 0.15860336
0000d0 f6 34 be 3d 61 98 0d 3e 45 0a 96 3e 7d d3 fe 3d
       0.09287445 0.13827659 0.2930471 0.12442682
0000e0 b7 29 81 be 11 7b 16 be de f4 bb 3d fc c2 9a be
       -0.25227138 -0.14695384 0.09177564 -0.30226886
0000f0 dc b0 92 bd 19 9e a0 3e 6d f8 84 3e 23 94 dc 3d
       -0.071626395 0.3137062 0.25970784 0.10770442
000100 c3 dd 83 3e 0f 62 a7 be dd 2b d6 3d 2a 07 22 3e
       0.25755128 -0.32692 0.10457585 0.15823045
000110 1c 19 1a bd 9f 96 50 be 92 eb a7 3d fd 89 24 be
       -0.037621602 -0.20369957 0.08199228 -0.16068263
000120 64 b7 d6 3d 1d 85 e7 3c 27 90 09 be 63 b3 91 3c
       0.10484198 0.028261716 -0.13433896 0.017785734
000130 10 f7 44 3d b8 92 41 3e d7 93 51 be 6b 3e f7 3d
       0.04808718 0.18903625 -0.20466553 0.12072452
000140 92 44 cb bd 40 89 6d be eb e2 af bb e6 4a e9 3d
       -0.09925188 -0.23196888 -0.005367627 0.11391239
000150 dd 77 56 3e b2 59 18 be ea 2e f4 3d ab 43 60 be
       0.20944162 -0.14877966 0.11923011 -0.21900813
000160 8e 07 3e bd 2c b3 11 3e 68 a9 1d be b5 0f 33 3e
       -0.046393923 0.14228505 -0.15396655 0.1748646
000170 e8 14 51 3d 68 71 80 be 87 39 f1 bd ef 5a 9f 3c
       0.05104533 -0.25086522 -0.117785506 0.01945254
000180 f8 7c 8b bd 07 86 46 3c 3c f8 b6 bd 0c 54 91 3e
       -0.06810945 0.012116916 -0.08934066 0.28384435
000190 ec 0f 9c bc 16 92 2a 3d 4d c9 a8 be b7 4a fd 3d
       -0.01905056 0.041643225 -0.3296608 0.12367766
0001a0 d9 00 8b bd 42 bb 5b 3e 13 ef a5 3e 8f 7d a0 3e
       -0.06787271 0.21458152 0.32408962 0.31345794
0001b0 40 76 30 bd 58 0b fd 3d bc 33 47 3e c5 ec 93 3e
       -0.043081522 0.12355679 0.19453329 0.28891578
0001c0 81 79 50 be bd 77 81 3d 64 9b 89 bd f0 0a 1f 3e
       -0.2035885 0.063216664 -0.067190915 0.15531516
0001d0 3e f4 10 3e f8 bb 83 bd 55 b5 1a 3d 89 ca 68 be
       0.14155671 -0.064323366 0.037770588 -0.22733511
0001e0 c6 0d 3e be 19 78 70 3d a1 df 85 3e a0 52 c8 bd
       -0.18559942 0.058708284 0.26147178 -0.097813845
0001f0 f3 02 6b 3e 9d 6c 33 be 6b 4e 8a be 30 88 7e bd
       0.22950344 -0.17521901 -0.27012953 -0.062141597

feature.1.weight f4 [128]
000000 fe d2 0d 3e 38 bd 28 3f 7d 4b 20 3f 4e 14 3a 3f
       0.13850018 0.65913725 0.62615186 0.7268723
000010 ea 06 63 3e 7e ef 59 3f 2d 08 d0 3e 7d 2b e5 3d
       0.22170606 0.8513106 0.40631238 0.11189935
000020 fb 2a 3f 3f da d2 5d 3f f7 e3 8d 3d 2b fa 04 3f
       0.7467496 0.8664986 0.069282465 0.51944226
000030 18 f2 00 3f d6 db ca 3e 8c 57 82 3e 70 9f 26 3c
       0.50369406 0.39620847 0.25457418 0.010169849
000040 1a f4 2a 3e d5 b5 4f 3e cb 19 11 3f d8 db 97 3e
       0.1669468 0.20284207 0.5667998 0.29659915
000050 fb 13 23 3f 96 60 c0 3e 01 66 9d 3e 90 8e dd 3d
       0.6370236 0.3757369 0.30741885 0.10818207
000060 a1 d6 0a 3f bf 61 14 3a 61 7b 5d 3e 32 25 5f 3f
       0.5423375 0.0005660317 0.21629097 0.8716613
000070 d6 c6 04 3f 6b b5 10 3f 7d 56 43 3f f7 62 54 3f
       0.518659 0.5652682 0.76303846 0.8296351
000080 56 34 96 3e 69 38 e5 3d 9a 0f 4f 3f b1 20 33 3f
       0.29336804 0.111924 0.8088318 0.6997176
000090 bb 58 da 3e 59 82 2e 3f 5b 61 c6 3d ad 50 29 3b
       0.4264582 0.68167645 0.09686538 0.002583544
0000a0 37 e9 48 3f 3c 2f 17 3f 3e 8b a5 3e bf b8 17 3f
       0.7848086 0.5905645 0.32332796 0.59266275
0000b0 05 11 93 3e 5c 5b da 3c 9c 14 49 3f 4a de 93 3d
       0.28723922 0.026654892 0.7854707 0.07220133
0000c0 cd d0 5d 3e 14 e5 38 3f d0 63 d1 3d 97 e0 21 3d
       0.21661682 0.72224545 0.10224116 0.039520826
0000d0 c9 36 3f 3f 90 e2 37 3f 7f 31 66 3e dc ab 5a 3f
       0.7469297 0.7183008 0.22479819 0.85418487
0000e0 dd 28 2a 3f cf 6e 85 3e b5 a4 d2 3e 2f 4f f5 3e
       0.664686 0.26061103 0.41141286 0.47911975
0000f0 a1 32 4b 3f 68 22 b3 3e c4 41 cb 3e 2d cc 16 3e
       0.7937413 0.34987187 0.39698613 0.14726324
000100 97 7a 12 3f 0e 49 e8 3e ed 1b e8 3e 7e ed db 3e
       0.5721831 0.45368236 0.45333806 0.4295463
000110 fa bf 39 3f 31 9e 56 3e 2d 97 6c 3e ee 3b 6a 3f
       0.7255856 0.20958783 0.23104544 0.91497695
000120 b2 15 42 3f 9a 3e b0 3e 19 0d 01 3f 8c ef 5b 3f
       0.75814354 0.3442276 0.5041061 0.85912395
000130 b6 a6 58 3f 2f 4b 59 3f 64 dd fd 3e 43 af 21 3f
       0.8462938 0.84880346 0.4958297 0.63158053
000140 83 1c 49 3e 78 ee fd 3e 9e 67 62 3f 26 6f 0a 3e
       0.19639783 0.49596 0.8843936 0.13518962
000150 ec 8f 36 ba 82 58 76 3b 6a 11 6c 3f d0 5c 61 3f
       -0.0006964195 0.0037589376 0.9221407 0.88032246
000160 9c ea 89 3d ab ef 07 3f 96 28 12 3f 46 d8 8f 3e
       0.06734201 0.5310008 0.5709318 0.2809469
000170 ef 56 ae 3e 50 28 1a 3d 23 52 8c 3e 9a 4b 66 3f
       0.340507 0.0376361 0.27406415 0.8995911
000180 57 b1 e9 3e 35 02 39 3f 94 cc fa 3e 8e 8b b7 3d
       0.45643112 0.7226899 0.48984206 0.08962165
000190 0c 4c 20 3e 51 1f 33 3f fe de cd 3e 76 84 20 3f
       0.1565401 0.6996966 0.40209192 0.6270212
0001a0 07 a6 c7 3d 16 2e e0 3d 86 2c d8 3e ac 0d 9d 3e
       0.09748464 0.1094629 0.4222147 0.30674493
0001b0 e5 0f fb 3e fa 09 5e 3e cc b3 1b 3f 48 69 27 3e
       0.49035564 0.21683493 0.60821223 0.16348755
0001c0 84 ac 4e 3e cf 11 d9 3e 87 68 70 3f 5d e3 bf 3e
       0.20182997 0.423964 0.93909496 0.37478152
0001d0 5d d3 b6 3e 50 73 76 3e bb bc b1 3d 3a 8c 4d 3f
       0.35708132 0.24067426 0.086785756 0.80292094
0001e0 fb 96 58 3f 27 3f 3f 3f b3 b0 09 3f 90 29 8a 3e
       0.8460538 0.7470574 0.53785247 0.26984835
0001f0 37 11 4d 3e a2 91 9e 3e fa 31 fd 3e e0 60 6a 3f
       0.20026098 0.30970484 0.49452192 0.9155407

feature.1.bias f4 [128]
000000 f9 90 e4 3c 38 58 9f 3d 38 84 40 be c9 c8 58 3e
       0.02790116 0.07780498 -0.18800437 0.21170343
000010 66 40 70 3c 05 86 1c 3e 0d fd dd 3d b7 2c b7 3c
       0.014663791 0.152855 0.10839281 0.022360189
000020 49 81 7e 3d 74 15 80 3b 3a 20 89 3c 44 53 0a 3d
       0.062135015 0.0039088074 0.016739 0.033770815
000030 0e 08 85 bd 80 93 b5 3d 45 d3 d5 3c 85 b8 00 bd
       -0.06495677 0.08866024 0.026101718 -0.03142597
000040 06 88 82 bd 01 2d 81 bc 89 20 66 3d 80 7f 86 3d
       -0.06373601 -0.01576853 0.05618337 0.065672874
000050 72 20 8d 3d 14 3e 35 bd e9 cc 08 be ee 12 8f bd
       0.06890954 -0.044248655 -0.13359417 -0.069860324
000060 07 4d 7c 3d c3 c7 a7 bc e2 fb 5d 3d 0b a0 be 3d
       0.061596896 -0.020480996 0.054195292 0.093078695
000070 ac f3 8d 3d 87 cc c8 3d 53 20 59 bd 31 d5 b6 3d
       0.06931242 0.098046355 -0.053009342 0.08927382
000080 d8 f9 0e 3d 75 21 0a 3d c3 d5 69 bd 7d b2 a9 3c
       0.03490624 0.033723313 -0.057088625 0.020714993
000090 51 13 a2 bc a6 7c e5 3d 1e 6d 50 bd c8 19 e4 bc
       -0.019784601 0.112054154 -0.050885312 -0.027844325
0000a0 45 fd 02 bc 55 a9 a1 3d cc ae 1a 3d 38 83 2a bc
       -0.0079949545 0.07893626 0.037764356 -0.010407262
0000b0 f8 d1 82 3d 3d 3a e6 3c ba b1 cd 3d ca 02 25 bd
       0.063877046 0.028103942 0.10043664 -0.040285863
0000c0 a4 1d e6 bd 74 25 5f bd 13 f1 6e bd 8b fa e7 bc
       -0.11236122 -0.054479077 -0.058335375 -0.02831771
0000d0 09 59 f9 3d 29 eb c3 3d 38 41 ae bc 2c 49 ec 3d
       0.12175185 0.095663376 -0.021271333 0.11537394
0000e0 ed 3c 14 bd 86 4d 99 3c f8 f6 b4 3d 75 a3 02 bd
       -0.036190916 0.018713724 0.08836168 -0.031894166
0000f0 4f e5 53 3d fd 24 5d 3d d1 77 ef 3d a3 f6 d2 bd
       0.051732358 0.053990353 0.11692775 -0.103009485
000100 68 91 ff 3d 34 de bb 3d 07 ce 2e 3d 70 c7 a5 bd
       0.12478906 0.09173241 0.04267695 -0.0809468
000110 f1 8e b6 3c fb 8b 4c 3d 0a 97 91 bd ed 24 bf 3d
       0.022284957 0.049938183 -0.071088865 0.09333215
000120 5c 49 d0 3d db c6 04 be dd 43 e1 3c 9b 0b 9c 3d
       0.10170242 -0.12966482 0.02749818 0.07619401
000130 1b b1 ee 3c 31 26 b8 bc 18 f8 fa bd 21 d4 3c 3d
       0.029137185 -0.022479149 -0.122543514 0.04610074
000140 b2 02 8d 3d df 97 fe 3d 75 79 b4 3c 6a 4b 1a 3d
       0.0688528 0.12431311 0.022030571 0.037669577
000150 89 2f 96 bc 16 39 13 bd 6c f7 2c 3d 3a 59 d2 3d
       -0.018333213 -0.035943113 0.042228147 0.10270925
000160 48 b9 5b 3c 64 4a 96 3d 0a 2e 2e bd f1 85 13 3d
       0.013410874 0.07338408 -0.042524375 0.03601641
000170 ca ec c6 3c 7e cb 44 3c 22 96 9e 3c 3e a7 28 be
       0.024282832 0.012011407 0.019358698 -0.16470048
000180 1a a4 c9 bd 7d 7c 53 3d 20 24 49 bd bb a8 5d 3d
       -0.09845753 0.051632393 -0.049106717 0.054115992
000190 26 0b 50 3c d3 a0 1b 3e 1c 0f fe bd 83 55 56 3d
       0.0126979705 0.15198068 -0.12405226 0.052327644
0001a0 54 1d 4a bd 4e 1e 3f 3d b6 c6 76 3c 7c 8c 9a 3d
       -0.049344376 0.04665976 0.015062025 0.075463265
0001b0 94 20 a4 3d 66 09 6e bd ef b0 b8 bc 8e 46 56 bd
       0.08014026 -0.05811443 -0.022545306 -0.05231338
0001c0 2f b5 0b bd cc 18 2e 3e ae 9c 5d bd 14 4f 22 be
       -0.034108337 0.17001647 -0.0541045 -0.15850478
0001d0 9d eb 65 bc 4b 87 12 3e 56 0e 29 bd ad 63 b4 3c
       -0.014033225 0.14309423 -0.041273437 0.022020185
0001e0 21 8e a5 3a fc a3 c2 bd 02 2c 23 be 58 5e 63 3d
       0.0012630859 -0.09503934 -0.15934756 0.055509895
0001f0 43 af 17 3d 76 ce 45 3d dc 35 87 3d 5e 54 83 bc
       0.037032377 0.0482926 0.0660207 -0.01603144

feature.1.running_mean f4 [128]
000000 8d 8f 6b bf d4 1b 8b 3f 41 11 b2 3f 7f 3a 14 bf
       -0.92015916 1.0867867 1.3911515 -0.5790176
000010 11 88 9b bf 01 68 bb 3e 91 b8 b5 bf 59 73 43 bf
       -1.2150899 0.36602786 -1.419695 -0.7634788
000020 45 39 9b bf c7 40 ab bf f2 64 b7 bf 37 3d 2b bf
       -1.2126852 -1.3379143 -1.4327681 -0.6689028
000030 73 a2 d9 3e f1 83 cc be e7 0f 1e bf 2b 95 b3 bf
       0.4250675 -0.39944413 -0.61743015 -1.4029897
000040 c4 8e 3b 3e 28 6c 0c 3f 5a d0 a2 bf 49 5f 7e 3f
       0.1831618 0.54852533 -1.2719834 0.99364144
000050 56 63 fc bd 8a a0 5b 3e 99 41 d9 3e 34 da 38 bf
       -0.12323634 0.2144796 0.4243286 -0.7220795
000060 23 2e a8 be 29 77 94 bf b0 ed bb bf 05 c2 32 c0
       -0.328477 -1.1598865 -1.4681911 -2.793092
000070 8f bd 51 bf 08 61 0e bf 06 8b 1c 3f b3 74 1a bf
       -0.8192987 -0.5561681 0.6114963 -0.6033432
000080 35 c5 91 bd f0 26 38 bf f6 92 0b c0 46 a0 29 3e
       -0.071176924 -0.71934414 -2.1808448 0.16565046
000090 11 8b e0 be ab 4d 4c 3f 78 f1 8b 3f ca 9b 7f 3e
       -0.438561 0.7980601 1.0933065 0.24961773
0000a0 39 02 6a 3e 20 e5 06 c0 3b 8d 92 bf ad e1 9e 3e
       0.2285241 -2.1077347 -1.144935 0.31031552
0000b0 be 86 6a bf fa ac 3e 3f ad 3e 36 3d 29 13 09 bd
       -0.9161185 0.7448269 0.044493366 -0.03346554
0000c0 d7 c6 09 3f 3b fd f9 bd 91 41 b9 bd 18 c8 aa bf
       0.5381903 -0.12206503 -0.09045709 -1.3342314
0000d0 f5 65 84 bf e8 6b fa be 7b 40 b4 3f 48 6b 4b 3e
       -1.0343615 -0.4891045 1.4082178 0.19865143
0000e0 8a 95 db bf 01 30 4d bf fe bf 2f 3f 63 52 e3 3d
       -1.7155011 -0.80151373 0.6865233 0.110996984
0000f0 15 ae a9 3f 44 8e 2a bf 86 31 62 3f 6d 7b b3 bc
       1.3256251 -0.6662333 0.88356817 -0.02190944
000100 3a 09 fe be 74 ab d2 3f 10 55 7b bf 63 0b 4a 3e
       -0.49616414 1.6458573 -0.9817667 0.19730906
000110 5f 59 74 3d 7f 91 74 3f af a8 1d 3f a2 a1 9f bf
       0.059655543 0.9553451 0.61585516 -1.2471201
000120 10 45 c3 bd f5 dd 2c bf e5 15 9f be 86 b4 a1 bf
       -0.09534657 -0.6752618 -0.31071392 -1.2633216
000130 93 6f bf 3e 30 ef 8b bd ef 43 19 bf 68 15 cf 3e
       0.37389812 -0.06832731 -0.59869283 0.4044602
000140 c0 76 96 3c 99 ec 16 bf 41 a6 a1 be 13 1f 5f be
       0.018367171 -0.5895477 -0.31572154 -0.21789198
000150 40 e6 84 bd 53 a6 09 bf df ff 97 bf 33 8d b5 3e
       -0.06489229 -0.53769416 -1.1874961 0.3545929
000160 5c 61 48 bf 68 a9 54 bf fa 5a 5a bf 1c f2 4a bf
       -0.7827356 -0.83070993 -0.8529507 -0.7927568
000170 5c 67 11 c0 2c 87 c1 bf f9 72 a8 bf 2e d5 3d 3e
       -2.2719336 -1.5119376 -1.3160087 0.18538353
000180 1a bf d5 be 5f 2d 49 3f 11 97 9a 3e 1e 70 b2 be
       -0.4174736 0.78584856 0.3019338 -0.34851164
000190 97 82 96 3e 2b 89 eb bf 85 d4 ae be 9f 47 42 3f
       0.29396507 -1.8401235 -0.34146515 0.75890535
0001a0 95 6d 84 3f cd 97 78 bf d9 7b 4e 3e df 4e 47 3f
       1.0345942 -0.9710663 0.20164432 0.7785472
0001b0 8c cf a8 bf e7 67 6d 3f 92 94 66 3e d9 de 28 bf
       -1.3188338 0.9273667 0.22517613 -0.6596504
0001c0 ff 76 02 3f 1c 6e 0d 40 91 75 4c be be f0 5e 3e
       0.50962824 2.2098455 -0.19966723 0.21771523
0001d0 89 51 75 3f f6 a6 c8 bf bc 73 c7 3f d9 98 cd 3e
       0.9582754 -1.5675952 1.5582194 0.40155676
0001e0 84 f9 d5 be ec 2b 0a c0 ae 43 7e bf 53 ca cc 3d
       -0.41791928 -2.1589308 -0.9932202 0.09999528
0001f0 8b 57 88 3f 73 63 ae 3f 2e 8a 7e 3f 09 2a c9 3f
       1.0651716 1.36241 0.99429595 1.5715953

feature.1.running_var f4 [128]
000000 d2 81 65 44 e8 11 34 44 60 66 a7 44 d4 79 81 3e
       918.02844 720.2798 1339.1992 0.2528826
000010 bb 02 5c 43 b5 df 94 43 17 3d 21 44 16 e5 a7 43
       220.01067 297.7477 644.9545 335.78973
000020 17 88 aa 43 92 93 bb 43 75 c7 a4 44 c1 86 5a 43
       341.0632 375.1529 1318.233 218.52638
000030 4b 8f ee 43 2c 92 bc 43 69 34 62 42 a8 8d e4 43
       477.11948 377.14197 56.55118 457.1067
000040 2b c4 85 44 5e e3 07 44 8c 46 70 44 49 15 38 44
       1070.1302 543.5526 961.1023 736.3326
000050 97 ab 79 44 9c ee 8f 43 ad ff a7 43 8e 77 29 44
       998.6811 287.86414 335.99747 677.86804
000060 99 1c 0b 44 3f b4 04 44 01 72 1a 44 e7 8a 6f 44
       556.44684 530.81635 617.7813 958.17035
000070 11 a9 fb 43 c1 7e 61 43 3f 92 f0 43 e7 bf 5a 44
       503.32083 225.49513 481.14255 874.9985
000080 e5 78 43 44 20 30 52 44 d7 03 13 44 8b 27 c3 43
       781.889 840.75195 588.06 390.30893
000090 ff 1f d0 41 ff 01 29 44 94 93 2a 44 61 8b 10 44
       26.015623 676.0312 682.3059 578.1778
0000a0 d1 48 c6 43 e8 a5 41 44 e0 30 f3 43 02 fe 5e 44
       396.56888 774.5923 486.38184 891.9689
0000b0 30 7e 4b 43 2a 78 cc 43 6c db fc 43 2f 4f 51 43
       203.49292 408.93878 505.71423 209.30931
0000c0 af ce e1 42 31 0f a7 44 17 4d 3c 44 60 27 b9 43
       112.90368 1336.4747 753.2045 370.30762
0000d0 9e f9 2d 44 90 89 a5 43 32 18 0b 44 da 87 35 44
       695.90027 331.0747 556.37805 726.1227
0000e0 56 7e b6 43 10 c9 84 43 2b 2d 32 43 3d d7 ba 43
       364.987 265.5708 178.17644 373.68155
0000f0 85 54 bb 44 2a de 81 43 d6 50 17 43 a9 69 26 43
       1498.6412 259.73566 151.31577 166.41273
000100 2e e8 28 44 62 ad 0f 44 bf ac 1f 43 89 f0 0d 44
       675.6278 574.7091 159.67479 567.75836
000110 79 f5 c0 3f c5 38 29 44 cb 9b 68 44 41 75 a6 43
       1.5074912 676.887 930.43427 332.91605
000120 4b 85 57 43 b4 92 42 44 d2 d5 49 43 35 0c 5f 44
       215.52068 778.29224 201.83524 892.19073
000130 72 28 3b 44 47 c5 79 43 77 56 de 43 fb 82 8f 44
       748.63196 249.77061 444.6755 1148.0931
000140 4a d0 9a 42 cf 5c da 43 31 22 fe 43 ce 2d 2e 44
       77.406815 436.72507 508.26712 696.7157
000150 1d db b6 44 43 20 5b 43 01 d8 b4 43 20 43 4e 44
       1462.8473 219.12602 361.68753 825.0488
000160 98 1d 55 43 7b 15 a2 43 16 9c 01 43 32 6e fd 43
       213.1156 324.16782 129.60971 506.8609
000170 ec 7a 6f 44 35 4f 34 44 b5 bf f9 43 70 0c e2 43
       957.92065 721.2376 499.4977 452.09717
000180 53 56 37 40 52 4a 0b 43 2b 13 2f 44 49 5d d9 44
       2.8646438 139.29031 700.2995 1738.9152
000190 96 3d 07 44 86 06 35 44 74 65 30 44 2c aa 19 44
       540.9623 724.1019 705.5852 614.65894
0001a0 bd 50 c6 43 81 2d ab 43 64 31 37 44 1b 61 0b 44
       396.63077 342.3555 732.7717 557.5173
0001b0 9c b3 63 44 8d 7c 01 43 ef cc 6f 44 eb 8a 5f 43
       910.8064 129.48653 959.2021 223.54265
0001c0 dc c1 ae 44 ec a5 10 3f 61 9f a4 43 cc 84 3a 43
       1398.0581 0.56503177 329.24515 186.51874
0001d0 ca ea ef 43 64 75 87 44 87 a0 21 43 fd af 43 43
       479.8343 1083.6685 161.62706 195.68745
0001e0 0b 04 35 43 f1 62 15 44 f6 fb 2c 43 20 87 57 44
       181.0158 597.54596 172.98422 862.1113
0001f0 76 c4 1e 44 2d 6b ea 43 9c 9b 8c 43 d7 e7 97 44
       635.0697 468.8373 281.2157 1215.245

feature.3.weight f4 [128, 128]
000000 7d 6c b4 bd 10 d6 fd 3d 72 48 4a bc e0 a0 23 bd
       -0.08809755 0.12394345 -0.012346374 -0.039948344
000010 a8 e9 be bd e7 2c f4 3c 0e 2e f8 bc ba c4 b1 bd
       -0.0932191 0.029806567 -0.030295398 -0.08680101
000020 19 94 c0 3d 7c ac 9d 3b 83 14 b4 bd 8f d0 f8 bd
       0.094032474 0.0048118215 -0.08792975 -0.121491544
000030 a2 03 4c bd 0b 22 a5 3c ff 6d f7 3c b6 22 b4 bd
       -0.049808152 0.020157835 0.030203817 -0.08795683
000040 02 6f 8d 3d b9 84 94 3d 91 be 85 3c ac 13 33 bd
       0.06905939 0.07251877 0.01632622 -0.043719932
000050 64 b1 5c bd 52 ef af bd 63 df b2 bd 2b c6 b0 3d
       -0.05388011 -0.085905686 -0.08734014 0.086315475
000060 a1 e8 45 3d 40 bd cc bd bd 69 84 bc cd 0c 37 be
       0.048317555 -0.09997034 -0.016163701 -0.17875977
000070 31 97 1e be 14 8f ba bd 3e 66 a9 3d 42 48 df 3c
       -0.15487362 -0.09109321 0.08271454 0.027256135
000080 a0 9e 22 bd c9 f6 34 bd ba d1 ab bd 1b d8 f8 bc
       -0.039702058 -0.044180665 -0.083896115 -0.030376485
000090 7a 79 18 3c 3c 19 31 3d 20 e3 8e bc 7b 1d 16 bd
       0.009306306 0.043236956 -0.017442286 -0.03664921
0000a0 7a 5a 94 3d b8 8f 9f bd 6d 01 d7 bd 31 cb 9c 3d
       0.072438195 -0.07791084 -0.10498319 0.07655943
0000b0 7c 7c 8c bd b3 d7 db 3d 8e bb ab 3d 44 44 6b 3b
       -0.06859681 0.10734501 0.083853826 0.0035898844
0000c0 8c a8 1e 3d 6b e0 9b bb 58 63 9d 3d a8 e7 27 be
       0.038734958 -0.0047569773 0.07684964 -0.16396964
0000d0 e4 c5 41 3c d6 57 c9 3d 87 92 be 3d de 8d 77 bd
       0.011826966 0.098312065 0.093052916 -0.06043803
0000e0 0e f6 17 3d b9 c0 0a bc 40 bb 88 bd ef 91 18 3c
       0.03709989 -0.0084688 -0.0667634 0.009312137
0000f0 78 0b 99 bb fd 6d 41 bc 58 ed 7f 3d 47 f9 af bc
       -0.0046705566 -0.011806008 0.062482208 -0.02148117
000100 58 12 cf 3c 1f 61 97 bc 83 18 43 be c2 c6 59 3d
       0.025277302 -0.018478928 -0.19052319 0.053168066
000110 88 1c ba 3b bb 6e f5 3d 11 88 e6 bb 02 3a b7 bd
       0.0056796707 0.11984011 -0.0070352633 -0.08946611
000120 8c 8d 37 3d 9e 58 13 bd 33 c7 b0 bd ae a0 18 bc
       0.044812724 -0.035973184 -0.08631744 -0.009315653
000130 12 1c 16 3d 94 b7 3d bd bb f9 0f 3d 35 e8 89 3c
       0.036647864 -0.046317652 0.03515027 0.016834358
000140 44 b8 7b 3d bd ca b9 3b b2 01 83 bd 69 31 44 bd
       0.061455026 0.0056699202 -0.06396808 -0.047898684
000150 ce 11 bc bd fd 1c 28 bd 94 e7 fc bd 78 27 22 bd
       -0.091830835 -0.04104327 -0.123488575 -0.03958842
000160 42 68 6c 3d fb fa b6 bd dc fc 8d 3b dc bc 5e bd
       0.057716615 -0.089345895 0.0043331217 -0.05437933
000170 d3 da 15 be 01 a8 5c bd f6 76 02 be 40 7a 0a bd
       -0.14634256 -0.05387116 -0.12740692 -0.033807993
000180 9c 73 c9 3c 24 4e a5 3d 2e 43 11 3d 41 c4 90 ba
       0.02459126 0.08071545 0.03546446 -0.0011044816
000190 71 fe 96 ba df 90 24 be 27 82 b2 3d 62 70 99 bd
       -0.0011519921 -0.16070889 0.08716231 -0.074921384
0001a0 3d 99 e3 39 93 a1 93 bd f9 2f 3b 3d 85 1c c5 bc
       0.00043410985 -0.07208552 0.045700047 -0.02406145
0001b0 4a f6 31 bd 8c c9 5c bd 07 16 bb bd 78 3e a2 3c
       -0.04344777 -0.053903148 -0.09135061 0.019805178
0001c0 b4 b8 c5 bc 44 61 68 3e e5 7e 38 3d 52 10 34 bd
       -0.024135925 0.22693354 0.04504289 -0.043960877
0001d0 d5 f5 d8 3c 6d 67 6f bd c4 d1 69 bd 78 c8 21 3d
       0.02648441 -0.058448244 -0.057084814 0.039497823
0001e0 04 2f 23 bd 23 c3 37 be 2b 90 14 3d f4 b8 a4 3d
       -0.03983976 -0.17945533 0.0362703 0.080430895
0001f0 8d bf a1 3d ee c4 27 3c fa 1b d5 3d ad 0f 96 bd
       0.078978635 0.010239823 0.10405727 -0.07327209
000200 b2 2e b5 3d 0e 53 dc 3d 2a 7e 9e bb 6a 18 17 3e
       0.08846797 0.10758029 -0.0048368173 0.14755407
000210 94 a2 6e 3d 6d dd ee 3c f2 ec 6c bc b4 d4 5f 3d
       0.058260515 0.029158318 -0.014460789 0.05464621
000220 cc 33 b1 3d b5 f5 59 bd fd d5 9e 3d aa dc e0 3c
       0.086524576 -0.05321284 0.07755659 0.02744897
000230 34 1c 09 3e 9f 4b e5 3d 65 a0 b9 3c 57 ea 2b bd
       0.13389665 0.11196064 0.02265949 -0.04197153
000240 5b ce 0b bd c8 4c f2 3b 6f 6a cc 3b 74 4b 0a 3d
       -0.034132343 0.007394407 0.006238274 0.033763364
000250 8b 88 32 bb 5a ad b8 3d 99 9b c0 bc ed 32 f0 3d
       -0.002724203 0.09017439 -0.023511695 0.11728463
000260 ee 0c 3a 3d 85 e5 16 bc 9b b3 f2 3d ee 34 87 3d
       0.045422487 -0.009209995 0.11850663 0.066018924
000270 f1 35 c6 3d fe 90 70 bb 2d 30 12 3d e5 b4 68 3c
       0.09678257 -0.0036707516 0.035690475 0.014203285
000280 8f 81 5d 3d f1 26 41 3d 45 21 66 3d af e9 a0 3d
       0.054078635 0.047156278 0.056184072 0.078570716
000290 0e 13 95 3a fe 48 23 bc ec ed 0e 3d ff 80 ae 3c
       0.0011373477 -0.009966133 0.03489487 0.021301745
0002a0 e9 70 da 3c f2 38 c3 3b 19 7f bc 3d 74 53 13 bd
       0.026665168 0.005957716 0.092039295 -0.03596826
0002b0 27 d3 40 bd 48 6c c6 3d 73 35 dd 3a 20 03 14 3e
       -0.04707637 0.09688622 0.0016876891 0.14454317
0002c0 b8 95 00 bd 5d 9a ce bc 24 f8 e5 3c 5b a1 af bc
       -0.031392783 -0.02522009 0.028072424 -0.021439245
0002d0 6a 4a 00 3e cc 1b 17 3d e6 1b f4 bb 0e a1 0f 3d
       0.12528387 0.036891744 -0.007449615 0.035065703
0002e0 47 7d ba 3d 5e 54 02 3e 46 04 99 3c a9 9e 25 3d
       0.09105926 0.12727496 0.018678796 0.040434513
0002f0 b7 c4 52 bd 95 f2 66 bd 01 6f e0 bc 34 86 c7 3c
       -0.051457133 -0.056383688 -0.02739668 0.024355985
000300 75 04 83 3b b6 a8 f1 3d c8 8d af bc ae 9b 13 bc
       0.003998334 0.11799757 -0.021429911 -0.009009285
000310 13 48 74 3e c6 f4 5b 3c d9 88 a5 3d b0 a8 52 3d
       0.23855619 0.013425058 0.08082742 0.051430404
000320 f8 a2 cd 3d 8a 89 a5 3d 5f 40 d7 3d be 81 a8 bb
       0.100408494 0.08082874 0.10510325 -0.0051424196
000330 74 f5 66 3d 1f 48 83 3b 49 e8 39 3d 69 bc 80 3d
       0.056386426 0.0040064002 0.04538754 0.062859364
000340 29 b1 14 3d 6f eb 89 3d f0 59 35 3d 1f e7 cd bc
       0.036301766 0.067343585 0.044275224 -0.025134621
000350 13 c6 83 3c ce 0f bb 3d 9a bd 9b 3d 60 01 0f 3e
       0.01608566 0.09133874 0.07604523 0.13965368
000360 21 cc ab bc 1f 27 10 3e d0 23 4f 3b 3c 1d 7b 3d
       -0.02097136 0.14077424 0.003160704 0.061307177
000370 ef db c6 3d d8 b1 40 bc 34 bc d4 3d 0d 2f 17 3e
       0.09709918 -0.011761151 0.103874594 0.14764042
000380 90 2f c9 3d 39 d6 82 3d e2 18 7f 3c 2b 32 c5 3b
       0.09823525 0.06388516 0.015569897 0.0060179434
000390 65 2b cf 3d db 1f 0d 3c 60 d3 67 bc 6d 53 17 3d
       0.10115699 0.008613552 -0.014149517 0.036944795
0003a0 5d 1e b3 3d 29 d3 72 3d 9a 93 01 3e 02 96 06 3e
       0.08746026 0.05928341 0.12653962 0.13143161
0003b0 ac f2 32 3d d7 24 22 3d a0 ba ec 3c 8b 10 79 bc
       0.04368846 0.039585914 0.028897583 -0.015201698
0003c0 f7 9a ce 3d 9f 63 d5 be 46 ca c5 3c 62 f1 ad 3d
       0.10088151 -0.41677567 0.024144303 0.08493306
0003d0 2f 18 f6 3c 3e 88 75 bc 35 6e bc bc bf 37 f2 ba
       0.030040829 -0.014986096 -0.02300177 -0.0018479748
0003e0 88 7b 18 3e fa 07 54 bd 2e ba ae 3d e9 b2 fe 3b
       0.14890873 -0.05176542 0.08531605 0.0077727926
0003f0 d2 b7 a5 3c a5 9e a3 3d 7e 31 06 3a 9f d4 9e bd
       0.020229254 0.079892434 0.0005119069 -0.07755398

feature.3.bias f4 [128]
000000 56 fc 56 ba 56 6a a9 bd 4c 79 08 3d 14 11 b0 bd
       -0.0008201053 -0.08272235 0.033318803 -0.085970074
000010 fd f4 5e bb e9 68 75 3d 78 82 fe 3b 9a 98 9d bd
       -0.0034020536 0.059914503 0.007767018 -0.07695122
000020 6f f4 a9 3d 04 63 3f bd e8 e1 36 bd f1 13 97 3b
       0.08298575 -0.046725288 -0.044649035 0.0046105315
000030 fa 07 ae 3d 88 d2 aa 3d f7 34 06 3d 3d 64 37 3d
       0.08497615 0.08340937 0.032765355 0.04477333
000040 60 53 96 ba 9e 57 c4 3c e2 1a c5 bc 02 d5 9e bd
       -0.001146894 0.02396756 -0.02406067 -0.07755472
000050 a5 d0 1e 3d d9 33 24 bd 35 bf 8e 3c 05 42 06 3d
       0.038773198 -0.04008851 0.017425159 0.032777805
000060 91 e9 29 bc bb 1d 46 bd 0d 67 0c 3c 48 fa 2c 3d
       -0.010370628 -0.048368197 0.008569491 0.042230874
000070 58 04 a6 bd 18 2f f6 3b 39 f5 38 3c f0 65 72 3d
       -0.08106297 0.007512938 0.011288934 0.059179246
000080 8c 94 af bd 31 b3 89 3d 1f 24 17 3d 68 9c 00 3b
       -0.08573255 0.06723631 0.036899682 0.0019624475
000090 68 d2 d5 3a a9 92 a6 bd 93 b3 b2 3d e9 b2 b5 3d
       0.0016313316 -0.08133442 0.08725657 0.08872015
0000a0 1f 34 0d 3b 07 13 49 bc 38 70 35 3d a7 46 b8 bc
       0.002154596 -0.012272603 0.044296473 -0.022494627
0000b0 bf 34 b0 3d fd 13 4e 3c 6f 9f 19 3d 34 04 45 3d
       0.086038105 0.012578008 0.037505563 0.04809971
0000c0 71 04 6c bd db 3d 8f 3d 59 82 70 bd a6 b3 37 3d
       -0.057621423 0.0699422 -0.05871806 0.04484906
0000d0 bb 04 0a 3d e0 5f 31 3d 63 94 4f bd 3a d7 c4 bc
       0.033695918 0.043304324 -0.050678622 -0.02402841
0000e0 59 4a 2a bd f2 00 6f bd 45 31 06 3c cc 1b 96 3d
       -0.04157481 -0.05835051 0.008190458 0.073295206
0000f0 74 b0 8a 3d 9f 57 3b bc 79 32 09 bd c2 59 de 3c
       0.06771937 -0.011434465 -0.0334954 0.02714241
000100 a8 fe 98 bc 88 51 8b 3d 34 ba 8d bd 21 cb 86 3d
       -0.018676117 0.0680266 -0.06920281 0.065817125
000110 a8 73 d7 bc ad ee 92 bd 7b df b8 3d 62 f4 c9 bb
       -0.026300266 -0.0717443 0.090270005 -0.006163166
000120 75 13 ae bb 03 92 4e 3d ff 34 bb bc 86 b6 90 bd
       -0.005312378 0.050432216 -0.022852419 -0.070660636
000130 c1 68 8d bc 9f 93 95 bb fe 92 00 bd 2b ef 28 bd
       -0.017261865 -0.004564717 -0.031390183 -0.041243713
000140 96 16 10 3d 50 41 32 3d 10 19 02 bd 7d 57 24 bd
       0.03517779 0.043519318 -0.031762183 -0.040122498
000150 77 f6 d7 3c e8 a4 3d bd 8b 55 7e 3b f4 35 d7 bc
       0.02636264 -0.046299845 0.0038808312 -0.026270844
000160 c0 44 05 3d 48 62 56 bd 0c 05 6a 3d 98 65 aa 3c
       0.03253627 -0.052339822 0.05713372 0.020800397
000170 12 0b 28 3c a2 f9 74 3d 16 a9 07 bb ec 1a 2f bd
       0.010256546 0.05980838 -0.0020700148 -0.042750284
000180 30 3c aa bd fe 53 52 3d 15 24 a1 bc ad 10 ec 3c
       -0.08312261 0.051349632 -0.019670526 0.028816545
000190 0f dc 42 bd 80 44 a7 ba 27 02 d3 bc cd 50 95 3d
       -0.047573145 -0.0012761503 -0.025757862 0.07290802
0001a0 b5 cf 5b 3d bb c3 35 3d 1d bc 12 3d 32 80 6e bb
       0.05366488 0.044376116 0.03582393 -0.0036392328
0001b0 47 50 9a bd 5b 91 ec 3c f1 e4 c4 bc 47 c3 a4 bc
       -0.07534843 0.028877905 -0.024034949 -0.020112647
0001c0 38 3a c2 3c 77 51 a7 bd d8 8b ad bd c8 3f 8a bd
       0.023709401 -0.08169835 -0.08473939 -0.067504466
0001d0 cd 31 82 bd 87 79 a9 3c f8 0a b5 3b 54 ec b7 bc
       -0.06357155 0.020687832 0.005524989 -0.022451557
0001e0 d2 3d 2d bd 19 9b 97 3d 5c a4 ae 3c 88 c4 3f 3d
       -0.042295285 0.074026294 0.021318607 0.046818286
0001f0 c2 ba 9c bd 17 86 80 bd 72 23 24 3c a8 15 01 bc
       -0.07652809 -0.062755756 0.010018216 -0.007878698

feature.4.weight f4 [128]
000000 b1 ff 40 3f 2b 6d 30 3f 26 a2 74 3e f1 3f b4 3e
       0.75390154 0.6891658 0.2388998 0.35205033
000010 a1 cb 37 3f 5b 07 a6 3e d0 be d5 3e 02 65 ec 3e
       0.7179509 0.32427487 0.4174714 0.46170813
000020 2d a2 53 3f 2e 0e 4b 3e de b9 42 3b 0b de 6d 3e
       0.82669336 0.19829628 0.0029712836 0.23229234
000030 20 d0 c3 3c 16 3d 34 3f 37 76 37 3f e1 a2 54 3f
       0.023902953 0.7040571 0.71664757 0.83061033
000040 99 68 38 3e de 97 43 3f a2 90 35 3e 22 03 c2 3e
       0.18008651 0.76403606 0.17730954 0.37893015
000050 66 d4 c2 3e 20 e9 8f 3e 55 b5 14 3f 92 1c 01 3e
       0.38052672 0.28107548 0.5808919 0.12608555
000060 85 65 e1 3e c2 e0 6d 3f 84 69 2a 3f 96 c7 09 3f
       0.44022766 0.9292108 0.66567254 0.5382017
000070 a2 0b 7b 3f a8 02 c3 3e e4 18 69 3f 03 89 60 3f
       0.98064625 0.38087964 0.91053605 0.87709063
000080 67 36 3d 3f b9 b7 47 3e d1 58 02 3a 96 94 a2 3c
       0.73911136 0.19503678 0.0004972341 0.019846242
000090 68 d8 37 3f f0 8c 45 3e ef 50 ef 3e 07 e2 0d 3f
       0.71814585 0.19292045 0.46741435 0.55423015
0000a0 a5 99 dc 3e 14 55 9e 3d e7 05 73 3e 3e 4d 71 3f
       0.4308597 0.07731071 0.2373272 0.9425849
0000b0 3c 88 63 3d 42 f7 6f 3f 16 64 7d 3e fd 7d 00 3f
       0.055549845 0.9373666 0.24745211 0.5019224
0000c0 dc ad 49 3f f4 52 20 3f cd f9 7d 3f f3 3f 57 3f
       0.78780913 0.62626576 0.9920929 0.84081954
0000d0 0b 5e 32 3f b6 9d 27 3f ca 46 18 3f 87 13 a7 3e
       0.6967475 0.6547502 0.59483016 0.32632086
0000e0 c1 0e 65 3f e3 ee 38 3f f1 8e 0a 3f 23 b7 34 3f
       0.8947564 0.7223951 0.5412436 0.70591944
0000f0 fb d8 56 3f 67 55 26 3f f9 b3 29 3f d0 ee 59 3e
       0.83924836 0.64974064 0.6629024 0.21282506
000100 e5 53 80 3f 32 1f ee 3e 59 09 14 3f 25 de 0f 3e
       1.0025603 0.46508175 0.57826763 0.14049585
000110 fb 77 74 3f b5 20 b1 3d f7 e8 61 3f cd 7b 67 3e
       0.95495576 0.086488165 0.882461 0.2260582
000120 49 58 2b 3f 4e 77 5a 3f 08 10 4e 3e d8 34 9d ba
       0.6693159 0.85338295 0.20123303 -0.0011993898
000130 02 08 cf 3d ee 36 bf 3e 5a 26 6d 3f 13 df 25 3f
       0.10108949 0.37346596 0.92636645 0.6479351
000140 f3 89 9e 3e cd fa 7b b6 5b 7b c3 3d 5e 1c eb 3e
       0.30964622 -3.75479e-06 0.095450126 0.4592008
000150 cc 37 8a 3c da 8d 08 3f 0c ba 57 3f 52 f4 15 3f
       0.01687231 0.5334145 0.8426826 0.5857593
000160 2a 31 35 3f 0f be dc 3e 38 92 0b 3f 7d 30 61 3e
       0.70778143 0.43113753 0.5451999 0.21991153
000170 2b a6 1b 3f 26 88 28 3e d4 7c 80 3f dc 5b 96 3e
       0.6080043 0.16458187 1.0038095 0.29366958
000180 39 60 0b 3f 08 df 47 3f ea d3 8d 3f f4 b3 29 3f
       0.544437 0.78074694 1.1080296 0.6629021
000190 d1 8a 0c 3f 79 5b 6a 3e 35 35 a0 3c 70 a2 0c 3f
       0.5489932 0.22886457 0.019556621 0.5493536
0001a0 a1 37 c9 3e 04 cb bc 3d c1 b7 08 3f 4d f5 04 3f
       0.39300254 0.0921841 0.53405386 0.519368
0001b0 9f 97 23 3f 2b 0d e8 3e d3 6c 51 3f 86 f5 6c 3e
       0.6390323 0.45322546 0.8180668 0.23140535
0001c0 16 00 4e 3f 3b ee ad 3d c2 77 d9 3d 5f de f0 3e
       0.8046888 0.084927045 0.10618545 0.47044656
0001d0 97 17 92 ba 01 44 c9 3d f2 3c 04 3f d8 b8 07 3f
       -0.0011145946 0.09827424 0.51655495 0.53016424
0001e0 97 93 20 3f c1 4c 13 3c 2f 98 42 3f 99 65 4a 3e
       0.62725204 0.0089904675 0.76013464 0.19765319
0001f0 27 eb 82 3e 85 4d 29 3f d7 12 ff 3e 1e e3 4c 3e
       0.25570032 0.6613391 0.4981906 0.20008513

feature.4.bias f4 [128]
000000 f7 35 0d bc 11 74 f5 bd dc 3a c8 bd ba 51 c7 39
       -0.008618823 -0.119850285 -0.097768515 0.0003801713
000010 cd fa a0 bd b2 77 6f be 55 e6 ba 3d e1 52 46 bd
       -0.078603365 -0.23385504 0.091259636 -0.048418883
000020 3d 90 b9 bd e4 c2 2b 3b 2d 91 10 3c 95 4d 31 bb
       -0.090607144 0.0026208693 0.008823675 -0.00270543
000030 b9 eb ef bc a7 15 f6 bd ff d2 f7 bd 32 69 37 bd
       -0.029287206 -0.120158486 -0.12100791 -0.044778056
000040 20 1e c5 bd 04 bc 55 be 3a 0b 1c bd bc d0 e4 bd
       -0.096248865 -0.20872504 -0.038096644 -0.111726254
000050 e1 34 72 bd eb bf b5 bc aa 71 10 bd 1a 76 f0 3c
       -0.05913246 -0.02218624 -0.03526465 0.02935319
000060 65 bb 99 bd df cf de bd 3c 3f 1b 3e 2a ae e3 bd
       -0.07506446 -0.10879492 0.15160841 -0.111172035
000070 bd 9c 1e bd 49 b7 01 be 52 c1 b5 bd a3 f3 04 be
       -0.038723696 -0.12667574 -0.088747635 -0.12983565
000080 ec 79 0d bd 6e db 11 be 2d a8 a3 bc c9 60 6d bd
       -0.034540102 -0.14243862 -0.019977653 -0.05795363
000090 18 ca f3 bc cd 3c 6c 3b 6c 7c ec bc bd 30 99 bd
       -0.029759452 0.0036046982 -0.028867923 -0.07479999
0000a0 a6 fa cd bd 8d 67 38 bd fd d3 b7 bb ab aa 7b 3d
       -0.10057573 -0.04502063 -0.005609988 0.06144206
0000b0 64 62 6e bd 43 99 c1 37 32 ff a2 3d 35 86 10 be
       -0.0581993 2.3078761e-05 0.07958831 -0.14113696
0000c0 e8 be f6 bd 59 b7 df bd 00 04 3b 3c 03 66 7e bd
       -0.12048131 -0.10923643 0.011414528 -0.062109005
0000d0 90 e6 17 bd 39 de 7e bd 81 13 1b bc e5 11 86 bd
       -0.037085116 -0.062223647 -0.009465099 -0.06546382
0000e0 6b 6f cb bc f8 d1 a0 bd de 50 ac bd 89 d5 38 be
       -0.024833402 -0.07852548 -0.08413862 -0.18050207
0000f0 53 4d 76 bd 58 d6 a7 bd d1 c1 1b 3c b0 cc ba bd
       -0.060132336 -0.0819518 0.009506659 -0.09121072
000100 63 68 c6 bd 3f 6b 44 bd f7 25 05 be 52 91 3d bd
       -0.09687879 -0.04795384 -0.13002764 -0.046281166
000110 d0 b5 a2 bd cd c6 04 bd 03 32 4d bd 65 8d b7 3c
       -0.07944834 -0.032416154 -0.050096523 0.02240629
000120 1a 2e 4f 3d af e2 8e 3d 65 f3 f6 bd cb d6 a8 bc
       0.050581075 0.0697683 -0.120581426 -0.020610234
000130 d8 00 a2 bd 01 1a 25 be d4 66 5e bd 2f 21 de bc
       -0.07910317 -0.16123201 -0.054297283 -0.027115433
000140 db fa 74 bd 47 b6 bd bc 14 cf ef bb a6 d1 84 bc
       -0.059809547 -0.023158206 -0.007318387 -0.01621325
000150 97 f4 66 bd 48 f8 6a bd 7e d4 56 3a 7d 3d 02 be
       -0.056385603 -0.057365686 0.0008195116 -0.12718768
000160 4b f0 f1 bc 59 5b 39 bd db ff a1 3d bd f4 b6 bd
       -0.029533526 -0.04525313 0.07910129 -0.08933399
000170 66 7b cd bc 48 02 ab bd a2 41 bd bb 81 9c 9e bd
       -0.025083255 -0.083500445 -0.0057756463 -0.077446945
000180 fa 72 a0 bd 6e 0f ab 3d df a6 93 bd 57 23 2d bd
       -0.0783443 0.08352552 -0.072095625 -0.04227003
000190 90 a2 0f be a1 b1 3e 3d c3 fd b1 3c 09 ad 52 bd
       -0.14026856 0.04655612 0.021727448 -0.05143455
0001a0 c4 56 12 3d f9 44 46 bd df 7d 99 bc b2 b1 28 3d
       0.035727277 -0.04840562 -0.018736778 0.04118509
0001b0 1b 7b 63 bd c6 8b 13 bd 46 e7 3f 3d 46 33 af bd
       -0.055537324 -0.03602197 0.04685142 -0.085547015
0001c0 ad a3 e0 bd c1 49 a6 bd ad a5 cb bd 45 7e e9 3d
       -0.10968719 -0.08119536 -0.099437095 0.11401037
0001d0 c0 3f 9c bc 5e 74 05 ba 50 c6 31 be 19 48 da bd
       -0.019073367 -0.00050908874 -0.17360806 -0.10658283
0001e0 b4 04 e0 3b 09 d4 11 bd 64 b2 cc 3d 33 81 e3 bc
       0.006836498 -0.035602603 0.09994963 -0.027771568
0001f0 9c ae 01 be b5 dd 5a bd 02 fb 07 bc 0d b7 f7 bd
       -0.12664264 -0.053434093 -0.008299591 -0.12095461

feature.4.running_mean f4 [128]
000000 ad 50 4a be 74 e0 01 3f f4 06 1c 3e 24 58 bb bd
       -0.19757338 0.50733113 0.15237027 -0.09147671
000010 68 af d2 be a0 d7 ba 3e 86 a0 76 be b9 13 d2 be
       -0.4114945 0.36492634 -0.24084672 -0.41030672
000020 6e f4 1f bf 3c 0b a3 be dd 36 63 be 70 c5 12 bf
       -0.62482345 -0.3184451 -0.22188897 -0.57332516
000030 98 5a e8 be ff 89 4a 3f fc 12 2f be f8 b0 cd be
       -0.45381618 0.79116815 -0.17097086 -0.4017408
000040 ed 64 6a be 95 82 66 3e 34 c0 2f bf 09 7d 32 bf
       -0.22890063 0.2251075 -0.68652654 -0.6972204
000050 8a 80 2c ba ae b4 3f bf 81 d2 9e be 04 00 8e be
       -0.0006580433 -0.7488507 -0.31019977 -0.27734387
000060 a7 b4 ce be db c9 31 bf 52 00 f3 be 8e 61 2b 3f
       -0.40372202 -0.6944863 -0.47461182 0.6694573
000070 48 90 ab be 0a 01 f2 3d dc 91 48 3e 71 16 a5 bd
       -0.33508515 0.118166044 0.19586891 -0.08060921
000080 9e e8 77 be 78 5c 72 be 72 79 d9 3e dc 70 96 3e
       -0.2420983 -0.23668087 0.42475468 0.2938298
000090 22 24 64 be e7 7b dd be 0b 74 10 bf b2 3e 10 3f
       -0.22279409 -0.43258592 -0.5642707 0.56345665
0000a0 6c b9 11 3f 2e aa 27 3e 6d cf c5 be 7c c4 04 bf
       0.56923556 0.16373512 -0.38634816 -0.5186231
0000b0 72 38 20 be bf 8e be be d3 9d de be cc 52 ff 3e
       -0.15646532 -0.37218282 -0.43479785 0.49867857
0000c0 a6 b4 0b bf ca 23 be be a4 0a 1b bf 24 da 10 3f
       -0.5457252 -0.3713668 -0.6056311 0.56582856
0000d0 fb b6 b7 be 38 e2 be be 18 2a 00 bf 5d a0 0b bf
       -0.3588179 -0.37281966 -0.5006423 -0.5454157
0000e0 04 3b dd be d7 3c 15 bf 88 e5 1e bf 3f a4 fe 3e
       -0.43209088 -0.5829596 -0.62068987 0.49734685
0000f0 c8 cb e0 3d 43 15 0f 3f 70 0d 23 bf 04 5e a1 be
       0.10976368 0.5589182 -0.6369238 -0.3151704
000100 72 b2 cd be 8a 85 a8 be 71 2c a3 be 50 fd a0 be
       -0.40175205 -0.32914382 -0.31869844 -0.31443262
000110 b7 d4 d3 3d d9 df 06 bf 82 49 ef be f2 cb d4 be
       0.103433065 -0.52685314 -0.4673577 -0.41561848
000120 0a 0b 06 bf b5 56 a2 be bc b8 0f bf 49 20 11 bd
       -0.52360594 -0.31706777 -0.5614126 -0.03543118
000130 4f b5 dc be 07 56 81 be ed 3a 42 3e 1b c7 1c be
       -0.43107077 -0.25260946 0.18967791 -0.15310328
000140 d2 17 08 be e2 42 ac 3c 7e 9e e9 bd fb 87 0a bf
       -0.13290337 0.021027986 -0.11407183 -0.5411374
000150 e9 49 3b 3e 85 d0 04 bf 95 a1 e5 be bb b8 c5 bc
       0.18289913 -0.51880676 -0.4484984 -0.024135938
000160 74 f3 d4 be 47 d1 a9 be 76 a5 04 be 6e 2b ba be
       -0.4159199 -0.33167478 -0.12953743 -0.3636126
000170 46 2d 08 bf c5 39 d5 be b4 d3 1b bf 5b 5e ea 3e
       -0.5319408 -0.41645637 -0.6086991 0.45775113
000180 2f b2 45 bd f4 c1 0a bf 90 8a 6f be c5 94 1b bf
       -0.048265632 -0.542022 -0.23392701 -0.6077388
000190 a4 43 a5 bd 1a aa bf be 98 8b fb bd 3f af af 3e
       -0.08069542 -0.37434465 -0.12282485 0.3431339
0001a0 42 41 d8 be 1d 68 f0 be b5 4e ef be 12 88 ae be
       -0.42237288 -0.46954432 -0.46739736 -0.34088188
0001b0 88 79 1f bf b3 1f c4 be 39 72 70 be 61 92 21 be
       -0.62294817 -0.38305435 -0.23481072 -0.15778495
0001c0 0b 37 2f 3f 31 fa 41 3f 99 7a c2 3d 18 61 17 bf
       0.68443364 0.75772387 0.0949604 -0.5913253
0001d0 37 4a 00 3e a2 eb 16 be 42 b0 b2 bd ff 4f c0 3e
       0.1252831 -0.14738324 -0.08725025 0.37561032
0001e0 42 fc ec be 54 31 29 be 9d 06 f6 be 76 6f 5b be
       -0.46286207 -0.16522723 -0.4805192 -0.21429238
0001f0 ac 94 16 bf 67 2c 06 bf b8 ae cc be 99 c1 30 3f
       -0.58820605 -0.524115 -0.3997705 0.69045407

feature.4.running_var f4 [128]
000000 a8 f2 18 3f 75 c8 01 3f 6e ae e7 3e cd 4c 2f 3f
       0.59745264 0.506965 0.45250267 0.68476564
000010 15 d6 e0 3e eb be 46 3f 92 cd 14 3f 25 ba 0c 3f
       0.43913332 0.7763507 0.58126175 0.54971534
000020 0f dd 18 3f a4 12 68 3f aa 50 f9 3e 84 8b 94 3f
       0.5971231 0.90653443 0.48694354 1.1605077
000030 d1 47 c3 3e 57 e9 cb 3e a6 f9 6b 3e 9c 49 18 3f
       0.3814073 0.39826462 0.23044452 0.5948732
000040 d4 69 ef 3e d1 63 4b 3f 1f c1 10 3f c2 39 07 3f
       0.46760428 0.7944918 0.5654468 0.52822506
000050 54 18 ee 3e 5b 6c 9b 3f 1d ab 91 3f 11 37 37 3f
       0.46502936 1.2142442 1.1380345 0.715684
000060 3d 54 b1 3e dd 9c 0a 3f e3 e9 c1 3e 11 e4 9a 3e
       0.3463458 0.54145604 0.37873754 0.30252126
000070 5e 62 50 3f 23 c2 81 3f f3 19 03 3f 3c a2 fb 3e
       0.81400096 1.0137371 0.5121147 0.49147213
000080 8e dd 58 3f 8d 28 89 3e 78 2e b5 3e c6 0e 58 3f
       0.84713066 0.2678875 0.35387015 0.8439754
000090 3c c5 0e 3f 83 63 e7 3e 7d 2a c4 3f 02 e4 8c 3e
       0.55769706 0.4519311 1.5325466 0.27517706
0000a0 91 a9 94 3e b9 57 0e 3f 05 e0 6b 3f b7 dd aa 3f
       0.2903562 0.55602604 0.921387 1.3348912
0000b0 a9 e7 2b 3f 9c 84 c1 3f 08 b6 9f 3e 15 dd a3 3e
       0.6715036 1.5118594 0.31193566 0.3200461
0000c0 f9 99 b0 3e 65 be f3 3e 75 54 ec 3e 99 6f 01 3f
       0.34492472 0.47606197 0.46158186 0.5056091
0000d0 3d 5d 6a 3e 65 d1 9c 3e 6b b7 ae 3f c9 76 11 3f
       0.2288713 0.30628505 1.3649725 0.56821877
0000e0 e3 c1 1e 3f ae 9e a6 3e bc 2a ec 3e b5 bf db 3e
       0.620146 0.32542938 0.46126354 0.42919698
0000f0 ba 7c c0 3e e7 12 c0 3e 96 03 b1 3f 13 22 6d 3e
       0.3759516 0.3751442 1.3829219 0.2315753
000100 f4 f6 31 3e 35 b9 9b 3f 65 d3 b8 3d 0f 0e 0f 3f
       0.17379361 1.2165896 0.09024695 0.55880827
000110 97 91 5c 3f dc 00 ec 3e 44 53 66 3f 4c 09 de 3d
       0.8615965 0.46094406 0.89970803 0.10841617
000120 95 ef 19 3f 6a a0 a1 3e 06 47 a6 3e a7 72 1a 3e
       0.601312 0.315677 0.32476062 0.15082799
000130 53 de 9f 3e 4f 39 cd 3e bd 57 48 3f 33 ac 8b 3e
       0.31224307 0.40082785 0.7825888 0.27279815
000140 9b 34 e5 3e 1e b1 1c 3e aa 31 21 3f f5 45 ad 3e
       0.44766697 0.1530194 0.62966406 0.33842435
000150 dc b9 cf 3e 50 18 cc 3e 41 9e 51 3e 9f 67 da 3e
       0.40571487 0.398623 0.20470525 0.42657182
000160 f6 da 87 3e 44 8c 2a 3f c6 bd 85 3f 97 60 84 3e
       0.2653424 0.6662028 1.0448539 0.25854942
000170 fc e6 86 3e fa 7a a6 3e d0 f0 89 3f 27 6c 68 3e
       0.26348102 0.325157 1.0776615 0.22697507
000180 0b e0 aa 3e 12 2c 2a 3f b0 b7 70 3e 0e be 28 3f
       0.33374056 0.66473496 0.23507571 0.65915
000190 e8 55 55 3f 11 8c 4c 3f e7 83 24 3f d3 b0 a9 3e
       0.8333421 0.79901224 0.64263767 0.3314272
0001a0 95 0e 5e 3f bd fe 00 3f fb 66 e9 3e 93 0c 13 3f
       0.86741 0.503887 0.4558638 0.5744106
0001b0 48 f8 82 3f e9 3b c3 3e dd e5 0b 3f da 64 f6 3e
       1.023202 0.38131645 0.5464762 0.4812382
0001c0 55 40 01 3f ca 1d 08 3f c2 a5 17 3f 14 70 c4 3e
       0.5048879 0.53170455 0.592373 0.3836676
0001d0 c5 43 01 3f ab 12 38 3e c3 f5 c4 3e 41 3f 27 3f
       0.50494033 0.17975871 0.3846875 0.6533089
0001e0 0b 8c 8e 3e df 9c fe 3d 2a 7a 27 3f 2e f0 93 3e
       0.2784122 0.124322645 0.6542078 0.2889418
0001f0 5b 71 d1 3e 5c 8e e4 3e f7 aa a4 3f b6 2e 2b 3f
       0.40906796 0.44639862 1.2864674 0.6686815
