gesture_detection/pretrained/latest_net_netClassifier.pth (torch_old, 78565 bytes, 31 tensors)

feature.0.weight f4 [64, 9]
-0.34381643 -0.07377794 -0.4307864 -0.16861294 0.20018646 -0.12187166 0.1129909 0.5048917
0.9077405 -0.4461826 0.242654 -0.7508726 0.14127858 -0.17323238 0.11402919 0.21021467
0.35522527 1.5404925 0.1312473 0.3340595 -0.582091 0.13539807 0.20580356 0.15602626
0.13019356 0.34867585 1.5393473 -0.096188836 0.1504321 0.254445 0.23005545 0.105171576
-0.006432905 0.117191136 -0.22717524 -0.59498256 -0.3663604 0.59919333 -0.71964383 0.15291804
-0.1991573 0.23213594 -0.00732592 0.022056911 1.3182967 -1.0415242 -0.033898313 -0.49027178
0.0086027365 -0.0010124911 -0.012249833 0.03609094 1.0494306 1.8476639 -0.26375213 -0.048475806
-0.2831479 -0.01790646 0.5583196 -0.03674198 -0.81339973 0.053674366 0.21102731 -0.24947926
0.56583154 -0.18833973 -0.04825675 0.22014938 -0.2740863 0.6937201 0.38188717 0.8112894
-0.33998546 -0.29852703 -0.5814598 -0.23854075 0.024233965 0.08957647 -0.028850032 0.57724077
0.73898405 0.005783391 -0.22117716 0.050672036 -0.31353262 -0.3539656 -0.104092196 -0.67330784
0.19050334 0.7929492 -0.5503867 -0.02873762 -0.50161004 0.17103994 0.37420058 0.03720562
-0.46186435 0.089565344 0.72179586 0.03292979 -0.60844916 -0.32161218 -0.25164557 -0.16735615
0.14273408 -0.5916041 0.95247644 1.3501825 0.19474965 0.26884732 -0.71409523 -0.06671368
0.11568855 0.2976128 0.82866603 -0.3416279 0.33482194 -0.12369949 0.48946014 -0.70600414
0.12873827 0.04038047 -0.33267814 0.9935667 -0.03189636 0.50540286 -0.29192916 0.16435574
-0.5081096 0.15139313 -0.079920664 0.0100656785 0.44877172 0.70257777 1.4642601 -0.2503176
0.10419769 0.109136075 0.17801447 -0.32395893 0.07031878 -0.32345048 0.04994551 0.25208306
-0.018329082 0.33970675 -0.40001586 0.004658062 0.45360684 -0.0282432 -0.4386243 0.4116546
0.8087584 0.15755162 0.5229555 0.070058964 0.12746091 -0.13466154 0.28004774 -1.0560924
-0.25414777 0.16679344 -0.19412486 -0.151706 -0.6488889 0.02762464 -0.047216255 -0.29787648
0.99536943 0.58081144 0.8001832 -0.060734693 0.10568587 -0.112157024 -0.002725006 -0.2312442
0.2592523 -0.11121974 0.11565187 1.2394414 0.15856977 0.26792634 -0.38237715 0.219933
0.12943152 -0.03330702 0.25623682 0.4048587 1.8637092 -0.30585086 -0.26962107 -0.46853513
-0.0070772837 0.0068869805 -0.001392917 -0.18270962 0.9570233 1.9954653 0.16012038 0.03723619
0.030647645 0.3017504 -0.24391322 0.0069828397 -0.46728233 -0.08599404 0.77553546 -0.66511655
-0.25016618 -0.11739416 0.30366006 0.195623 -0.25199133 1.1969526 0.32145357 0.4496705
-0.5044301 -0.10546342 -0.4871184 0.100733265 -0.3231143 0.064100735 -0.02632571 0.79706
1.3564935 0.5519589 -0.36227232 0.5086034 -0.13866627 -0.092439815 0.05569226 -0.6343294
-0.34337628 -0.19863828 -0.19986926 0.068849936 0.34365916 0.14972465 0.279724 -0.18620105
-0.7498248 -0.31278953 -0.35864913 -0.0773323 -0.12841041 -0.63994145 -0.21913363 -0.26631534
-0.22947688 0.20706101 0.3310152 0.5533456 0.40052006 0.726594 -0.76068527 -0.008849963
00000000: b508 b0be e318 97bd 0990 dcbe dfa8 2cbe
00000010: aefd 4c3e d997 f9bd c667 e73d 9540 013f
00000020: ae61 683f 0c72 e4be 4a7a 783e 3039 40bf
00000030: 55ab 103e d463 31be 2388 e93d 8442 573e
00000040: 16e0 b53e dc2e c53f b165 063e d909 ab3e
00000050: ea03 15bf cba5 0a3e 2bbe 523e 59c5 1f3e
00000060: 7651 053e a485 b23e 5509 c53f a7fe c4bd
00000070: df0a 1a3e 9d46 823e a893 6b3e 3264 d73d
00000080: 1ecb d2bb e801 f03d a0a0 68be c750 18bf
00000090: 9793 bbbe bc64 193f 943a 38bf 8c96 1c3e
000000a0: e4ef 4bbe 0bb5 6d3e 450e f0bb b2b0 b43c
000000b0: f2bd a83f aa50 85bf f5d8 0abd e704 fbbe
000000c0: 7ef2 0c3c 90b5 84ba 86b3 48bc 18d4 133d
000000d0: be53 863f 4080 ec3f 850a 87be 918e 46bd
000000e0: c3f8 90be 92b0 92bc 09ee 0e3f c27e 16bd
000000f0: f73a 50bf a7d9 5b3d 8b17 583e 7e77 7fbe
00000100: 56da 103f 21dc 40be dfa8 45bd d76e 613e
00000110: 0a55 8cbe a497 313f b786 c33e aab0 4f3f
00000120: 9312 aebe 89d8 98be 8dda 14bf 0744 74be
00000130: 4f86 c63c de73 b73d e756 ecbc 0dc6 133f
00000140: 0f2e 3d3f 9a82 bd3b 447c 62be 7b8d 4f3d
00000150: 5987 a0be fb3a b5be 4a2e d5bd e75d 2cbf
00000160: 4f13 433e b8fe 4a3f 25e6 0cbf 286b ebbc
00000170: 8469 00bf 1825 2f3e 3897 bf3e ec64 183d
00000180: 7c79 ecbe 096e b73d 9dc7 383f 63e1 063d
00000190: 53c3 1bbf 5aaa a4be b0d7 80be 695f 2bbe
000001a0: e228 123e 5e73 17bf 7fd5 733f c8d2 ac3f
000001b0: 746c 473e 5ba6 893e f2ce 36bf 2fa1 88bd
000001c0: 1eee ec3d b460 983e 7523 543f dae9 aebe
000001d0: c86d ab3e 2956 fdbd 859a fa3e b0bc 34bf
000001e0: f7d3 033e fe65 253d ca54 aabe 635a 7e3f
000001f0: c2a5 02bd 1562 013f bd77 95be df4c 283e
00000200: 7913 02bf cd06 1b3e 72ad a3bd 84ea 243c
00000210: 68c5 e53e 23dc 333f e06c bb3f a129 80be
00000220: 9965 d53d bc82 df3d 6d49 363e f2dd a5be
00000230: 4b03 903d 4d9b a5be aa93 4c3d 0811 813e
00000240: df26 96bc 0bee ad3e e1ce ccbe a8a2 983b
00000250: 283f e83e 495e e7bc 5d93 e0be 64c4 d23e
00000260: ca0a 4f3f 3655 213e 69e0 053f 137b 8f3d
00000270: 1d85 023e b7e4 09be 6b62 8f3e 092e 87bf
00000280: a81f 82be e6cb 2a3e abc8 46be d158 1bbe
00000290: 951d 26bf 124d e23c d565 41bd 4483 98be
000002a0: 88d0 7e3f 0fb0 143f ced8 4c3f f1c4 78bd
000002b0: d571 d83d 95b2 e5bd 0496 32bb 48cb 6cbe
000002c0: b8bc 843e 2dc7 e3bd e3da ec3d 04a6 9e3f
000002d0: 1d60 223e a42d 893e f0c6 c3be 1e36 613e
000002e0: b289 043e f16c 08bd 7931 833e a449 cf3e
000002f0: 068e ee3f 7c98 9cbe c60b 8abe d6e3 efbe
00000300: 8fe8 e7bb 2eac e13b 8a92 b6ba 3b18 3bbe
00000310: 7bff 743f 686b ff3f 99f6 233e fa84 183d
00000320: c510 fb3c 077f 9a3e 63c4 79be 4ed0 e43b
00000330: a13f efbe a51d b0bd 7e89 463f 1445 2abf
00000340: c815 80be 596c f0bd 5579 9b3e 6551 483e
00000350: 0205 81be be35 993f 9095 a43e 363b e63e
00000360: 5522 01bf 35fd d7bd 9567 f9be 3e4d ce3d
00000370: 3d6f a5be 3f47 833d 04a9 d7bc 200c 4c3f
00000380: 94a1 ad3f 2e4d 0d3f c27b b9be d533 023f
00000390: 88fe 0dbe 1651 bdbd 911d 643d 6963 22bf
000003a0: 04cf afbe d567 4bbe 87aa 4cbe 3201 8d3d
000003b0: 18f4 af3e 6b51 193e fc37 8f3e 7dab 3ebe
000003c0: 85f4 3fbf f325 a0be dca0 b7be 6660 9ebd
000003d0: 057e 03be 34d3 23bf 9164 60be 7c5a 88be
000003e0: fdfb 6abe cd07 543e d37a a93e 0fa8 0d3f
000003f0: f710 cd3e 1002 3a3f 45bc 42bf 6fff 10bc

feature.0.bias f4 [64]
-0.20102438 -0.13624777 0.26037455 -0.20940876 -0.108363956 0.21383879 -0.0087433485 -0.16849841
-0.08290577 -0.15228274 -0.1575612 -0.2110605 -0.061475653 -0.047228135 -0.16931257 0.07559754
-0.027099796 -0.25660783 0.27209952 0.21456788 0.22084825 0.10879813 0.082059234 -0.09503079
-0.093070276 0.11177228 0.21966419 0.2748449 -0.1404939 0.099635184 0.32500395 -0.13918035
-0.16235109 -0.19743061 0.28346297 -0.0026080417 -0.31736633 -0.05519028 0.07610238 -0.1197831
0.062551364 -0.15258536 0.21536471 -0.0991838 0.33046874 0.120860316 0.26946658 -0.3284125
0.26149634 0.22696231 0.20911103 0.29649574 -0.12549946 0.20904724 -0.29385468 0.31543878
0.18241926 0.3195209 -0.28096357 -0.16578276 0.3178889 0.28322297 0.02580179 0.29486924
00000000: 56d9 4dbe 8984 0bbe d04f 853e 406f 56be
00000010: eced ddbd 8ef8 5a3e 4340 0fbc d98a 2cbe
00000020: 80ca a9bd 02f0 1bbe b957 21be 3e20 58be
00000030: e5cd 7bbd 4a72 41bd 4660 2dbe e2d2 9a3d
00000040: 6400 debc 1a62 83be a150 8b3e afb7 5b3e
00000050: 0b26 623e 8ed1 de3d ac0e a83d 819f c2bd
00000060: a19b bebd dde8 e43d a6ef 603e 79b8 8c3e
00000070: a2dd 0fbe 880d cc3d eb66 a63e 4b85 0ebe
00000080: 5d3f 26be 402b 4abe 0f22 913e aeeb 2abb
00000090: d77d a2be 340f 62bd 91db 9b3d d850 f5bd
000000a0: ee1a 803d 563f 1cbe 9188 5c3e e020 cbbd
000000b0: 3333 a93e 9d85 f73d 86f7 893e af25 a8be
000000c0: d9e2 853e cf68 683e 3421 563e 4ace 973e
000000d0: ee82 00be 7b10 563e 1f74 96be 3181 a13e
000000e0: 1dcc 3a3e 3e98 a33e 75da 8fbe f5c2 29be
000000f0: 55c2 a23e 9a02 913e 475e d33c 1af9 963e

feature.1.weight f4 [64]
0.013150196 0.49546197 0.4429449 0.011574628 0.29918158 0.39476275 0.11962633 0.3401313
0.5773269 0.37159666 0.203282 0.6225165 0.17183787 0.56904376 0.30449736 -0.013901694
0.68166745 0.76249015 0.555733 0.45019382 0.16327044 0.89843494 0.17576781 0.38042173
0.6910092 0.8509191 0.109493144 0.3037427 0.7656175 0.35053733 0.51103336 0.7586996
0.29586136 0.45799842 0.49253124 0.21483846 0.41841564 0.41900802 0.588332 0.59810096
0.45901805 0.8871724 0.1691873 0.31658438 0.34772748 0.57989717 0.99755085 0.68339753
0.4109592 0.67003185 0.75138867 0.6014107 0.54400635 0.12022992 0.6658922 -0.016257714
0.8335914 0.63990194 -0.18230143 0.25543803 0.32077873 0.66019523 0.51267594 0.6721108
00000000: eb73 573c 31ad fd3e adc9 e23e 82a3 3d3c
00000010: 542e 993e 581e ca3e a6fe f43d b125 ae3e
00000020: b2cb 133f eb41 be3e 2829 503e 3e5d 1f3f
00000030: 44f6 2f3e daac 113f 14e7 9b3e eec3 63bc
00000040: c281 2e3f 8e32 433f 8544 0e3f ce7f e63e
00000050: 5e30 273e d5ff 653f 7afc 333e a3c6 c23e
00000060: fbe5 303f d6d5 593f f13d e03d 2a84 9b3e
00000070: 82ff 433f a179 b33e 15d3 023f 233a 423f
00000080: 247b 973e c57e ea3e 0e2d fc3e 9dfe 5b3e
00000090: 933a d63e 3888 d63e ed9c 163f 251d 193f
000000a0: 6a04 eb3e bb1d 633f 703f 2d3e 5917 a23e
000000b0: 5609 b23e 2474 143f 7e5f 7f3f 24f3 2e3f
000000c0: 3f69 d23e 3587 2b3f 025b 403f 0df6 193f
000000d0: 0044 0b3f 1b3b f63d e977 2a3f e62e 85bc
000000e0: 3f66 553f 9dd0 233f 3aad 3abe c6c8 823e
000000f0: 1c3d a43e 8e02 293f bb3e 033f 740f 2c3f

feature.1.bias f4 [64]
-0.07668937 0.0960343 -0.20338476 -0.06431215 -0.023158306 0.008203393 -0.066887684 -0.10754724
0.069769554 0.04531114 -0.15108915 0.21763775 -0.09046689 0.0323915 0.20350155 -0.076962434
-0.15044907 0.17693679 0.20234382 0.062374506 0.05612489 0.11967766 -0.063084036 0.0060324287
0.22151828 0.25603035 -0.10651625 -0.059417482 -0.008961316 0.06591997 0.06481055 0.12060887
0.11407933 -0.20424023 0.15712918 -0.112146094 0.09695246 -0.19518422 -0.085487895 0.044636253
-0.0792212 -0.024334623 0.031549875 -0.19241531 0.1413973 0.16907474 0.18353161 0.14188246
-0.21453437 0.25474522 0.08820653 0.05052335 -0.09082649 0.09210134 -0.02155435 -0.039906166
0.19714095 -0.022551788 -0.12096065 -0.08293415 -0.095020466 -0.18493716 -0.035862077 0.23564729
00000000: 510f 9dbd a2ad c43d 1844 50be 17b6 83bd
00000010: 7db6 bdbc 8667 063c 69fc 88bd ba41 dcbd
00000020: 57e3 8e3d 2d98 393d 1db7 1abe 6edc 5e3e
00000030: b446 b9bd f3ac 043d b662 503e 7b9e 9dbd
00000040: 520f 1abe eb2e 353e 3833 4f3e 697c 7f3d
00000050: 36e3 653d 9019 f53d 3432 81bd aeab c53b
00000060: b0d5 623e 6916 833e 3125 dabd bf5f 73bd
00000070: 7cd2 12bc 0d01 873d 65bb 843d c901 f73d
00000080: 6ca2 e93d 5a24 51be 79e6 203e daac e5bd
00000090: 038f c63d 5fde 47be 4714 afbd 81d4 363d
000000a0: b93e a2bd 6759 c7bc 713a 013d 8508 45be
000000b0: 74ca 103e ee21 2d3e b6ef 3b3e a349 113e
000000c0: e6ae 5bbe f76d 823e a0a5 b43d 92f1 4e3d
000000d0: 3d03 babd a19f bc3d c092 b0bc a674 23bd
000000e0: 51df 493e 87be b8bc 38ba f7bd 61d9 a9bd
000000f0: 179a c2bd 2b60 3dbe 1de4 12bd 864d 713e

feature.1.running_mean f4 [64]
0.9156891 -0.15457103 2.1625814 0.9412481 -0.52062637 0.8380587 2.6948934 2.1204643
-0.6811079 -2.9171133 2.3050508 -2.108285 0.34333092 2.0833333 0.61662203 -1.3263224
2.71335 -1.380239 1.4267567 -1.2202289 2.466751 0.6206017 -0.24589348 2.8967862
-1.1933023 -1.4400938 2.0687609 -1.0088838 0.938053 1.9510572 0.46007267 0.21635588
-0.930431 0.5331684 3.0957267 0.89296156 2.5985646 1.992523 1.322052 1.7921604
1.9865654 0.10245549 -0.082277514 -1.2049588 -1.4144433 1.3175098 1.5753613 -1.878046
-2.2761831 1.5753213 1.7043197 0.6963794 1.849096 1.6921659 -0.49059045 -1.8381407
2.259898 -1.6282071 1.1724225 -0.4969399 0.5355063 0.7919113 -0.7249562 -0.6699862
00000000: 9a6a 6a3f de47 1ebe bc67 0a40 a3f5 703f
00000010: c547 05bf 048b 563f 2279 2c40 b0b5 0740
00000020: 165d 2ebf fcb1 3ac0 f485 1340 24ee 06c0
00000030: 12c9 af3e 5555 0540 f1da 1d3f efc4 a9bf
00000040: 87a7 2d40 acab b0bf f79f b63f 7630 9cbf
00000050: 40df 1d40 c1df 1e3f 80cb 7bbe f264 3940
00000060: 21be 98bf fe54 b8bf 9466 0440 1b23 81bf
00000070: 3e24 703f 3ebc f93f a58e eb3e 658c 5d3e
00000080: ba30 6ebf b97d 083f 6320 4640 2199 643f
00000090: e24e 2640 fe0a ff3f 0039 a93f 8365 e53f
000000a0: c647 fe3f 2fd4 d13d 1d81 a8bd 173c 9abf
000000b0: 7a0c b5bf 29a4 a83f 70a5 c93f d063 f0bf
000000c0: fcac 11c0 21a4 c93f 2627 da3f ec45 323f
000000d0: 2daf ec3f e498 d83f ac2e fbbe 3248 ebbf
000000e0: 2ba2 1040 1769 d0bf f111 963f e86e febe
000000f0: f116 093f b3ba 4a3f bb96 39bf 3784 2bbf

feature.1.running_var f4 [64]
327.4593 244.65623 305.93594 247.77985 421.1722 0.8942918 1197.1268 416.1598
237.72565 895.4626 648.5196 386.3754 296.56293 347.09448 119.00178 559.8156
794.2155 375.62543 242.2615 391.1855 249.57378 0.5608092 604.32983 628.7451
458.67493 111.20163 462.9588 616.4801 1.6825933 333.15997 77.33072 484.91605
430.16394 168.13374 905.60925 320.66602 620.0686 556.9368 425.36697 564.9553
531.45764 74.131516 568.2841 353.2094 886.40216 240.89925 318.62158 688.44257
692.66296 95.53447 138.12558 2.9790838 694.847 149.9822 943.8706 949.35016
243.00836 603.50024 227.63368 149.62927 225.3542 305.5188 144.1349 169.67677
00000000: caba a343 ffa7 7443 cdf7 9843 a4c7 7743
00000010: 0b96 d243 4ff0 643f 0fa4 9544 7414 d043
00000020: c4b9 6d43 9bdd 5f44 4121 2244 0d30 c143
00000030: 0e48 9443 188c ad43 e900 ee42 33f4 0b44
00000040: cb8d 4644 0ed0 bb43 f242 7243 be97 c343
00000050: e392 7943 3191 0f3f 1c15 1744 b02f 1d44
00000060: 6456 e543 3c67 de42 ba7a e743 ba1e 1a44
00000070: 385f d73f 7a94 a643 54a9 9a42 4175 f243
00000080: fc14 d743 3d22 2843 fe66 6244 4055 a043
00000090: 6404 1b44 f53b 0b44 f9ae d443 243d 0d44
000000a0: 4add 0444 5643 9442 2f12 0e44 ce9a b043
000000b0: bd99 5d44 35e6 7043 904f 9f43 531c 2c44
000000c0: 6e2a 2d44 a611 bf42 2620 0a43 4fa9 3e40
000000d0: 35b6 2d44 71fb 1543 b8f7 6b44 6956 6d44
000000e0: 2402 7343 04e0 1644 39a2 6343 18a1 1543
000000f0: ad5a 6143 68c2 9843 8922 1043 41ad 2943

feature.3.weight f4 [64, 64]
0.06196138 -0.18941757 -0.0687428 -0.09178685 -0.2016833 -0.017320663 0.051647246 -0.15507172
-0.1530135 -0.19249555 0.07290416 -0.1078425 -0.0067225085 -0.16163915 0.08319861 0.021593882
-0.11216315 -0.18778548 -0.010167345 -0.23158212 0.046974845 0.12468786 -0.08793672 -0.12627831
0.025884474 -0.14428368 0.008317001 -0.14790466 -0.21195772 -0.11195962 -0.1438035 -0.18743974
0.07751701 -0.025487473 0.06374643 -0.033637688 0.009650077 -0.1444459 0.031277865 -0.05646697
-0.065775916 -0.119730085 0.04787209 -0.17098655 0.04175259 -0.08304826 -0.1878262 -0.11544145
-0.15229997 -0.0037922047 0.08970008 0.2997102 -0.030619401 0.12715557 0.07030023 -0.05624541
-0.114414126 -0.106088094 0.11084299 0.0512161 -0.22487792 -0.25321946 -0.047508102 0.062033623
-0.09620636 0.20582259 0.047996886 0.079507284 0.14093332 -0.09392753 0.121860765 -0.045622412
-0.0009913419 0.25302076 0.12797041 0.103296 0.11924201 -0.13662177 0.097403996 0.057936333
-0.04022894 0.14817666 -0.16057597 0.22583096 0.08558788 -0.03194965 0.29992947 0.018036745
0.22114988 0.21871118 -0.07241802 0.17031673 -0.027131423 0.02535858 -0.079229966 -0.042768575
-0.024607034 -0.04133764 -0.06706342 -0.044576403 0.059073605 0.11134889 -0.10401692 0.09764459
0.16727732 0.13250725 0.07413862 0.1221648 0.19393751 -0.11627826 0.14379571 0.13542911
0.24157153 0.08286928 0.102575906 -0.016307227 0.04941843 -0.1537272 0.19228639 0.045946296
0.15943909 0.12483012 0.08472108 0.3069786 -0.006479817 -0.031207828 0.07765143 0.14251776
-0.09749843 -0.19268106 -0.09598496 -0.07896618 -0.10729068 -0.288765 0.020780085 -0.11010948
-0.2150742 -0.038317896 -0.14148994 -0.22994062 0.076798774 -0.09594761 0.026854523 0.04381737
-0.092579626 -0.038255133 -0.016151274 -0.022762356 -0.025988227 -0.16974582 -0.06844517 -0.17558579
-0.16566025 -0.04894687 0.011729777 -0.049361963 -0.0029710485 -0.20608641 -0.31480077 -0.15582348
-0.031121846 -0.07869951 0.084580325 -0.0652588 -0.090880714 -0.18613906 -0.021989707 0.021500103
-0.10415699 -0.09827316 -0.10136835 0.038646597 0.08856004 0.071713306 -0.098759286 -0.060005993
0.00495625 -0.2134626 -0.05927538 -0.244729 -0.11861763 -0.08871159 -0.10875858 0.062593035
-0.061703496 -0.12568848 -0.07977573 -0.039644968 -0.090187415 0.07195145 -0.2164396 -0.16282745
-0.041470934 -0.10218566 -0.1571536 0.011037078 -0.13699175 0.17869572 0.10328301 -0.12909824
-0.11028935 0.093227014 0.111438684 0.06759988 -0.11162125 -0.083304614 0.11022004 -0.018295957
-0.20712075 -0.1592773 -0.0073939613 -0.04492597 -0.14641443 0.025861345 -0.100507356 -0.120273955
0.07306516 0.05510923 0.13650748 0.012570126 -0.07339902 0.039644744 -0.15277041 -0.18695344
-0.016447583 -0.024609093 -0.21595563 -0.082943186 -0.29376012 -0.04202651 -0.14666596 -0.09205479
-0.24059626 -0.08560059 0.049147762 -0.20481294 0.04502606 -0.2926209 -0.2792819 -0.031496607
-0.15177211 -0.14934252 -0.17793375 -0.040400732 -0.29710084 -0.14035112 -0.122713424 -0.024780009
-0.08021556 -0.07093318 -0.2230769 -0.26619405 -0.15979907 -0.045539428 -0.006527625 0.28037536
00000000: 37cb 7d3d aef6 41be 06c9 8cbd befa bbbd
00000010: 1186 4ebe 10e4 8dbc 108c 533d 1fcb 1ebe
00000020: 92af 1cbe 8e1d 45be c74e 953d 87dc dcbd
00000030: 7d48 dcbb bc84 25be 0864 aa3d a7e5 b03c
00000040: cbb5 e5bd d64a 40be f094 26bc dd23 6dbe
00000050: b268 403d 595c ff3d 2b18 b4bd 1a4f 01be
00000060: ad0b d43c 1abf 13be 0844 083c 5274 17be
00000070: 720b 59be 164b e5bd 3a41 13be 34f0 3fbe
00000080: 3dc1 9e3d 1bcb d0bc 7d8d 823d acc7 09bd
00000090: 5b1b 1e3c a0e9 13be 381d 003d e949 67bd
000000a0: 86b5 86bd 0c35 f5bd 8615 443d 1917 2fbe
000000b0: c404 2b3d 3515 aabd 8355 40be 916c ecbd
000000c0: 86f4 1bbe a386 78bb adb4 b73d 9e73 993e
000000d0: 8ad5 fabc 1235 023e 91f9 8f3d 9661 66bd
000000e0: f451 eabd b744 d9bd a601 e33d f9c7 513d
000000f0: 6646 66be fba5 81be db97 42bd f816 7e3d
00000100: d707 c5bd 28c3 523e 6298 443d b7d4 a23d
00000110: d350 103e 145d c0bd 2392 f93d 91de 3abd
00000120: eaef 81ba f08b 813e ad0a 033e da8c d33d
00000130: 2835 f43d 94e6 0bbe bf7b c73d a64e 6d3d
00000140: 1ac7 24bd 9fbb 173e 076e 24be 3b40 673e
00000150: b348 af3d a3dd 02bd 5b90 993e ccc1 933c
00000160: 1d75 623e d3f5 5f3e e64f 94bd 8267 2e3e
00000170: b842 debc ccbc cf3c 5243 a2bd 1a2e 2fbd
00000180: b194 c9bc a851 29bd 8c58 89bd bf95 36bd
00000190: 2af7 713d e30a e43d d306 d5bd e3f9 c73d
000001a0: bf4a 2b3e fbaf 073e fdd5 973d 8a31 fa3d
000001b0: 8e97 463e 4c23 eebd 2f3f 133e eead 0a3e
000001c0: 875e 773e 5eb7 a93d 5113 d23d bc96 85bc
000001d0: fb6a 4a3d aa6a 1dbe b9e6 443e 2f32 3c3d
000001e0: 0044 233e efa6 ff3d 3f82 ad3d 4d2c 9d3e
000001f0: a554 d4bb 8fa7 ffbc b707 9f3d 2df0 113e
00000200: 42ad c7bd 2f4e 45be c393 c4bd 05b9 a1bd
00000210: 37bb dbbd 02d9 93be ff3a aa3c 1481 e1bd
00000220: 693c 5cbe 3af3 1cbd bde2 10be 8e75 6bbe
00000230: ad48 9d3d 2e80 c4bd 04fe db3c d879 333d
00000240: 639a bdbd 6ab1 1cbd ad4f 84bc 1f78 babc
00000250: 43e5 d4bc d9d1 2dbe fb2c 8cbd c3cc 33be
00000260: d7a2 29be 837c 48bd 402e 403c c52f 4abd
00000270: ecb5 42bb 5108 53be 912d a1be 3190 1fbe
00000280: 3ef3 febc 352d a1bd 7338 ad3d 68a6 85bd
00000290: ab1f babd 3d9b 3ebe c223 b4bc fc20 b03c
000002a0: 4350 d5bd 7043 c9bd 369a cfbd e54b 1e3d
000002b0: f75e b53d 6dde 923d 4f42 cabd d8c8 75bd
000002c0: 0a68 a23b f195 5abe beca 72bd 3d9a 7abe
000002d0: cded f2bd 6cae b5bd d2bc debd c730 803d
000002e0: cebc 7cbd 7bb4 00be 7561 a3bd c362 22bd
000002f0: 2eb4 b8bd 485b 933d 58a2 5dbe 3dbc 26be
00000300: 6ddd 29bd b746 d1bd e0ec 20be dcd4 343c
00000310: 9147 0cbe 03fc 363e 0b86 d33d 5432 04be
00000320: 62df e1bd ceed be3d f739 e43d ce71 8a3d
00000330: af99 e4bd 9c9b aabd 0bbb e13d 67e1 95bc
00000340: 7617 54be 9719 23be 0b49 f2bb 4b04 38bd
00000350: aaed 15be 2cdb d33c cdd6 cdbd 3152 f6bd
00000360: 30a3 953d 37ba 613d 9ec8 0b3e eef2 4d3c
00000370: 3a52 96bd 8762 223d d96f 1cbe b970 3fbe
00000380: 15bd 86bc 0299 c9bc 7923 5dbe 1ede a9bd
00000390: ba67 96be fd23 2cbd 9a2f 16be 3987 bcbd
000003a0: de5e 76be 5d4f afbd 2a4f 493d 7cba 51be
000003b0: 3f6d 383d 68d2 95be 0afe 8ebe 9602 01bd
000003c0: 266a 1bbe 3fed 18be 4434 36be 3d7b 25bd
000003d0: 9a1d 98be 34b8 0fbe 2d51 fbbd 72ff cabc
000003e0: 0e48 a4bd 6a45 91bd 456e 64be 964a 88be
000003f0: 5ea2 23be 8d87 3abd b0e5 d5bb 5c8d 8f3e

feature.3.bias f4 [64]
-0.033004068 0.017383028 0.05705671 0.09482969 0.04617624 0.13233693 -0.0095495405 0.12506337
0.03066703 -0.053903073 0.117924824 -0.101904996 0.00092599273 0.10410592 0.10767246 -0.00018338063
-0.078404 -0.061192736 -0.04031862 -0.0727075 0.044200074 0.019622577 -0.10759098 -0.063774295
0.05889319 -0.0221066 0.092117116 0.0037511857 0.0065982235 0.051061776 -0.04648781 0.13192457
0.087270424 -0.0009906847 0.078359105 0.048683044 -0.07288848 0.033226654 0.08042137 0.03128973
0.053110152 0.070080355 -0.020687627 -0.06651539 0.04894943 0.040756784 -0.048233155 -0.01381603
0.0832613 0.123624936 0.08561957 0.06402784 0.024591163 0.11607657 0.023759007 0.10921816
-0.08618829 -0.10546287 -0.047142804 -0.12453577 0.03442063 -0.06801747 -0.11882878 -0.014641411
00000000: 462f 07bd da66 8e3c 4cb4 693d 1236 c23d
00000010: 4c23 3d3d 5583 073e ad75 1cbc 9d10 003e
00000020: 6c39 fb3c 78c9 5cbd 9282 f13d 91b3 d0bd
00000030: 52be 723a 7c35 d53d 6183 dc3d dd49 40b9
00000040: 4792 a0bd 3ca5 7abd 2325 25bd abe7 94bd
00000050: 230b 353d 87bf a03c a958 dcbd 199c 82bd
00000060: fc39 713d e718 b5bc e6a7 bc3d 74d6 753b
00000070: e935 d83b 2726 513d 006a 3ebd 3c17 073e
00000080: d6ba b23d ddd9 81ba bd7a a03d df67 473d
00000090: 8e46 95bd ac18 083d f6b3 a43d a929 003d
000000a0: 088a 593d 4a86 8f3d 1979 a9bc 3939 88bd
000000b0: 337f 483d 96f0 263d 2190 45bd a15c 62bc
000000c0: e784 aa3d 122f fd3d 5059 af3d 0721 833d
000000d0: 6873 c93c 8db9 ed3d 40a2 c23c c5ad df3d
000000e0: 7c83 b0bd ebfc d7bd d018 41bd 9c0c ffbd
000000f0: a6fc 0c3d be4c 8bbd 815c f3bd 87e2 6fbc

feature.4.weight f4 [64]
0.5192828 0.2855558 1.2099915 0.7826704 0.006910045 0.61308235 0.15565598 0.46162847
1.0493181 0.0037842619 0.87996185 0.6802541 0.6403469 0.48466697 0.8710036 0.35127306
0.1784248 0.73776686 0.0011658282 0.41352886 0.3939729 0.32987434 0.7408912 0.7457212
0.66330796 -0.008695748 -0.0051637636 0.04461227 0.64387816 0.22315314 -0.0009775843 0.63949794
-0.00074995856 0.7105228 0.82142353 0.8491234 0.0078442795 0.58579695 0.16981283 0.14281732
0.82316434 0.84933555 0.8574134 0.67155915 0.31508183 0.58255196 0.8637389 0.12369632
1.053101 -0.0061864634 0.24151713 0.7491456 1.2679942 0.13784991 0.14963724 0.17849009
1.0045018 0.050972637 -0.005700762 0.3723163 0.31148925 0.7199061 0.092144266 0.33350164
00000000: b8ef 043f 5f34 923e 00e1 9a3f 165d 483f
00000010: a96d e23b f7f2 1c3f 4864 1f3e 915a ec3e
00000020: 0e50 863f 6101 783b 2e45 613f 2225 2e3f
00000030: c6ed 233f 4526 f83e 18fa 5e3f 10da b33e
00000040: feb4 363e 4ade 3c3f b4ce 983a 0eba d33e
00000050: d1b6 c93e 4ae5 a83e 0cab 3d3f 96e7 3e3f
00000060: 8dce 293f 9c78 0ebc ca34 a9bb 5bbb 363d
00000070: 33d5 243f 4282 643e 4922 80ba 23b6 233f
00000080: de98 44ba d2e4 353f d048 523f 2760 593f
00000090: 4b85 003c caf6 153f 6ae3 2d3e b43e 123e
000000a0: e6ba 523f 0e6e 593f 727f 5b3f 4deb 2b3f
000000b0: 6852 a13e 2022 153f fe1d 5d3f 7f54 fd3d
000000c0: 03cc 863f d1b7 cabb 4450 773e 02c8 3f3f
000000d0: a24d a23f 8728 0d3e 813a 193e 1bc6 363e
000000e0: 8493 803f afc8 503d 75cd babb 3ea0 be3e
000000f0: 857b 9f3e c44b 383f 22b6 bc3d bac0 aa3e

feature.4.bias f4 [64]
-0.055226345 -0.10813776 -0.073470905 -0.122541174 -0.06498426 -0.16032219 -0.12828557 -0.22448996
-0.1076536 -0.07307464 -0.13157646 -0.24508859 -0.13877818 -0.16249767 -0.19472376 -0.07930489
-0.122559294 0.048086517 -0.08944061 0.051667534 -0.16751249 -0.05721612 0.0025528928 -0.026787726
0.01861739 -0.076737955 -0.08774311 -0.09744082 -0.16892067 -0.06189067 -0.027739104 -0.086172774
-0.081975825 -0.017061982 0.08024346 0.096277244 -0.05256343 -0.05607776 0.077973925 -0.11005836
-0.077096306 0.032743707 -0.25565553 -0.068571605 0.009596756 -0.022664849 -0.0190135 -0.18565898
-0.091656536 -0.051211797 0.026112631 -0.3365472 0.03197965 -0.068385325 -0.0063250754 -0.047792498
-0.024018968 -0.05834122 -0.1393942 -0.09173171 -0.05296243 -0.19914606 -0.09612389 0.028984793
00000000: 0535 62bd 5477 ddbd ea77 96bd def6 fabd
00000010: 7816 85bd 802b 24be 4b5d 03be b2e0 65be
00000020: 7e79 dcbd 28a8 95bd fbbb 06be 81f8 7abe
00000030: de1b 0ebe ca65 26be aa65 47be 9a6a a2bd
00000040: 5e00 fbbd 5ef6 443d a32c b7bd 56a1 533d
00000050: 6588 2bbe 735b 6abd 6f4e 273b ef71 dbbc
00000060: 7f83 983c ca28 9dbd a9b2 b3bd 0d8f c7bd
00000070: 8af9 2cbe 1281 7dbd 1e3d e3bc 5a7b b0bd
00000080: f1e2 a7bd 92c5 8bbc af56 a43d 012d c53d
00000090: c04c 57bd cbb1 65bd cbb0 9f3d 4766 e1bd
000000a0: abe4 9dbd 441e 063d 48e5 82be 456f 8cbd
000000b0: b63b 1d3c a2ab b9bc 33c2 9bbc 631d 3ebe
000000c0: 6cb6 bbbd 76c3 51bd 28ea d53c ea4f acbe
000000d0: 18fd 023d 9b0d 8cbd 9442 cfbb 11c2 43bd
000000e0: 6dc3 c4bc 34f7 6ebd 5abd 0ebe d6dd bbbd
000000f0: 22ef 58bd f2ec 4bbe 9adc c4bd 8471 ed3c

feature.4.running_mean f4 [64]
-0.52598375 0.6428281 -0.8061464 -0.49399352 -0.18462873 -0.49397284 -0.053187862 -0.115989394
-0.82387805 0.043302108 -0.5086263 -0.7712625 0.5357974 0.31936768 -0.3738554 -0.9095304
0.50342023 0.52759963 0.35619625 -0.5786006 -0.29046264 -0.53861415 -0.2776193 0.6395202
-0.34606934 0.25557026 -0.33721402 0.4556284 -0.7257162 -0.47834376 -0.16953088 -0.70848584
0.09313975 -0.80103743 -0.70421666 -0.18188025 -0.5033083 -0.38933328 -0.36780488 0.23551546
-0.82048494 -0.4889365 0.56332743 0.44823545 -0.75201666 -0.6595727 -0.6489964 -0.17783076
-0.6108523 0.30739263 -0.53876203 -0.55393195 -0.89385617 0.82249117 -0.20440507 -0.2371634
-1.070182 0.27386364 -0.34032896 -1.0026965 -0.76113975 -0.24928065 -0.00033729992 -0.8637997
00000000: dfa6 06bf 6290 243f 9c5f 4ebf b8ec fcbe
00000010: 500f 3dbe 02ea fcbe 84db 59bd d98b edbd
00000020: ace9 52bf 8d5d 313d 5535 02bf 7671 45bf
00000030: 052a 093f 2984 a33e fa69 bfbe fcd6 68bf
00000040: 26e0 003f c510 073f 5b5f b63e 2b1f 14bf
00000050: 85b7 94be 9ee2 09bf 1e24 8ebe 99b7 233f
00000060: 0030 b1be 1bda 823e 51a7 acbe 2048 e93e
00000070: 89c8 39bf 79e9 f4be 8199 2dbe 545f 35bf
00000080: 0ec0 be3d ca10 4dbf 8b47 34bf d13e 3abe
00000090: d0d8 00bf b156 c7be ec50 bcbe f72a 713e
000000a0: 4d0b 52bf e355 fabe 3a36 103f 1e7f e53e
000000b0: 2a84 40bf c2d9 28bf a124 26bf 4419 36be
000000c0: d160 1cbf 9162 9d3e 4fec 09bf 7cce 0dbf
000000d0: c2d3 64bf c88e 523f 904f 51be f6da 72be
000000e0: b9fb 88bf db37 8c3e 993f aebe 5c58 80bf
000000f0: 0eda 42bf 6d43 7fbe a1d7 b0b9 fa21 5dbf

feature.4.running_var f4 [64]
0.24950793 0.7834165 0.511052 1.038336 0.6505766 0.91860306 1.088157 0.83822066
0.5734283 0.5375389 0.714552 0.5226645 0.7672578 0.955721 0.8413906 0.60123473
0.4659488 0.68142533 0.66385096 1.1091509 1.1204418 0.4473636 0.71513474 0.5494854
0.9275769 0.5956376 0.5787449 0.66790336 0.41413003 0.9550562 0.8472395 0.48494595
0.18226646 0.48052242 0.54883313 0.61454743 0.37261656 0.83270925 0.34360865 0.9823264
0.49952132 0.58982253 0.47664765 0.6447259 0.40393466 0.78775805 0.5767697 0.51827663
0.5141204 0.28647485 0.9854599 0.2738954 0.49440953 0.7593276 0.27780533 0.8706821
0.57664055 0.6962832 0.5207527 0.50110334 0.6280264 0.32619488 0.8035261 0.48280358
00000000: 027f 7f3e fc8d 483f 4ed4 023f 32e8 843f
00000010: 308c 263f 9229 6b3f bb48 8b3f a195 563f
00000020: 32cc 123f 269c 093f e1ec 363f 57cd 053f
00000030: 026b 443f 22aa 743f 6065 573f 85ea 193f
00000040: d790 ee3e e471 2e3f 23f2 293f a8f8 8d3f
00000050: a36a 8f3f d70c e53e 1213 373f 13ab 0c3f
00000060: ae75 6d3f b57b 183f a028 143f b7fb 2a3f
00000070: da08 d43e 907e 743f b0e4 583f d64a f83e
00000080: 0fa4 3a3e 0907 f63e 5480 0c3f fb52 1d3f
00000090: 99c7 be3e 6f2c 553f 79ed af3e be79 7b3f
000000a0: 42c1 ff3e 9cfe 163f 290b f43e c20c 253f
000000b0: 86d0 ce3e 83aa 493f 2ea7 133f c7ad 043f
000000c0: 659d 033f d5ac 923e 1a47 7c3f 053c 8c3e
000000d0: 3f23 fd3e 4b63 423f 803c 8e3e 06e5 5e3f
000000e0: b79e 133f 9e3f 323f 0d50 053f 4f48 003f
000000f0: 57c6 203f 0403 a73e e3b3 4d3f 0832 f73e

feature.6.weight f4 [64, 64]
0.026364353 0.019423854 -0.2183545 0.06745924 0.062304072 0.041659318 -0.02826344 -0.06572085
-0.035755772 -0.06776671 -0.21063513 -0.033780765 -0.07751669 0.02807467 0.031670667 -0.12592427
0.09591968 -0.020028451 0.06466211 0.07583216 -0.0230461 -0.23491994 0.14403391 0.15144803
0.2725436 -0.05379363 0.12287151 0.12980966 -0.13398378 0.08134396 0.014443581 0.12126345
-0.02921202 -0.026408123 -0.21427734 -0.08793727 -0.023325395 -0.07056829 -0.031389266 -0.044308517
-0.12308544 0.03909623 -0.06834311 -0.01010582 -0.16154505 -0.0275732 -0.035099193 0.029735874
-0.06505256 -0.038185872 -0.056140415 0.017584814 -0.28200302 0.04799678 0.18834345 0.08952275
-0.25881276 -0.0023736174 0.13324402 -0.060467202 -0.16097446 0.024035187 -0.00996528 -0.17057186
-0.016358545 -0.114761606 -0.29509336 -0.06188523 -0.052245207 -0.15967053 0.054891728 0.17894891
-0.27600726 -0.028643891 0.15267742 -0.012784832 -0.07969317 0.005090747 -0.14204377 0.06650548
-0.16075882 0.10923504 0.070375286 -0.038679615 -0.1126436 0.025195302 0.07814426 0.07365809
-0.15671633 0.01767166 0.07444713 -0.10019009 -0.060816463 0.18429789 -0.027986886 0.07651235
0.045689978 -0.3220714 0.09801315 0.11615001 -0.04965997 0.0825118 -0.01837462 0.1304346
-0.06328957 -0.15119243 0.071230695 0.19748531 0.08445376 0.20405352 0.04009087 0.049547426
-0.057646174 -0.16553883 0.09798239 0.10859171 -0.20107445 -0.14612553 -0.22464736 0.2336282
-0.018337255 -0.00035986115 -0.06090222 -0.07302374 -0.26610023 0.1043153 0.05863096 -0.063248925
0.15324076 0.09748249 0.3711098 -0.08892428 0.0020082307 0.1080188 -0.12583275 -0.13172172
0.13665499 0.06619686 -0.030971989 0.14342858 -0.021239325 -0.15527186 -0.03157722 -0.022399122
-0.07621491 -0.20115097 -0.033862203 0.10878614 0.09779975 -0.11319226 -0.07824819 -0.01615963
0.0667798 -0.03852342 0.0030001418 -0.08791114 0.07023741 0.011672795 0.101408206 -0.024759073
-0.09775771 0.24858521 0.066947214 -0.16919883 0.019510845 -0.0048634266 -0.035355154 -0.0795629
0.33407798 0.02931704 0.017759245 -0.12635699 0.047511052 0.01197069 -0.06806123 0.03814601
0.008932064 0.0015635738 -0.110230535 0.029523546 0.08526464 0.032064475 -0.12506132 -0.0008008069
0.347083 -0.05407224 0.004879379 0.15898563 0.29651588 -0.030822229 -0.07856872 0.27080742
-0.22409405 -0.049779333 -0.046529647 0.13637757 -0.213173 -0.07458965 -0.058098428 -0.11661803
0.2380325 -0.18477634 0.028981568 -0.01633568 -0.036952257 0.00090486155 -0.33066756 -0.057578415
-0.070756465 -0.1225322 0.04849298 0.11542233 0.016007232 -0.01769158 0.24405558 0.08298572
-0.062462382 0.0048944643 0.077667624 0.06649252 -0.22788927 0.1252921 -0.12692745 0.20551799
0.0534187 -0.06930597 -0.03361856 0.09215982 0.0013497935 0.12708266 0.0940386 -0.118165046
0.10941245 0.03966594 0.01299189 0.011007492 -0.22195776 -0.08265577 -0.03060428 0.044018567
-0.4223692 0.04927929 -0.04560366 0.07503822 0.22462972 0.061944995 -0.015556262 0.15219103
-0.15999313 -0.059067674 0.070192575 0.047689136 0.21862206 0.06749825 -0.16477366 0.06461286
00000000: 0efa d73c c61e 9f3c 5298 5fbe 1228 8a3d
00000010: 8e32 7f3d f6a2 2a3d bb88 e7bc a798 86bd
00000020: a574 12bd 46c9 8abd bcb0 57be b35d 0abd
00000030: 12c1 9ebd dafc e53c 1ab9 013d 4bf2 00be
00000040: 8a71 c43d b512 a4bc 916d 843d e44d 9b3d
00000050: 2dcb bcbc da8e 70be a07d 133e 3115 1b3e
00000060: d68a 8b3e b656 5cbd 0fa4 fb3d d3ec 043e
00000070: 0b33 09be a997 a63d c5a4 6c3c f958 f83d
00000080: 0c4e efbc d955 d8bc 856b 5bbe 7518 b4bd
00000090: e614 bfbc 1c86 90bd 0892 00bd d97c 35bd
000000a0: 3814 fcbd 5e23 203d 79f7 8bbd e292 25bc
000000b0: 116c 25be 31e1 e1bc 2cc4 0fbd a698 f33c
000000c0: 473a 85bd ca68 1cbd 7ef3 65bd 070e 903c
000000d0: b362 90be 4698 443d 1bdd 403e b457 b73d
000000e0: 1b83 84be b18e 1bbb 1f71 083e 75ac 77bd
000000f0: 7dd6 24be 71e5 c43c 6a45 23bc 64aa 2ebe
00000100: 5b02 86bc 2208 ebbd 7a16 97be 5e7b 7dbd
00000110: 12ff 55bd ac80 23be 26d6 603d 623e 373e
00000120: d350 8dbe 98a6 eabc 7857 1c3e 7977 51bc
00000130: 2c36 a3bd 48d0 a63b ec73 11be 0634 883d
00000140: f69d 24be 9fb6 df3d eb20 903d 846e 1ebd
00000150: b0b1 e6bd 6166 ce3c 190a a03d 0dda 963d
00000160: 3f7a 20be 28c4 903c bd77 983d 7630 cdbd
00000170: af1a 79bd 96b8 3c3e c144 e5bc 82b2 9c3d
00000180: 6a25 3b3d 8be6 a4be 1ebb c83d 0ee0 ed3d
00000190: 4168 4bbd f2fb a83d 5f86 96bc a690 053e
000001a0: f69d 81bd 30d2 1abe 66e1 913d 9739 4a3e
000001b0: 18f6 ac3d 68f3 503e 5336 243d 3ef2 4a3d
000001c0: 651e 6cbd 0383 29be feaa c83d 5565 de3d
000001d0: 76e6 4dbe eea1 15be f509 66be 3b3c 6f3e
000001e0: 0338 96bc bfab bcb9 9b74 79bd 788d 95bd
000001f0: 4a3e 88be 43a3 d53d 0427 703d a788 81bd
00000200: 25eb 1c3e e6a4 c73d 1b02 be3e ef1d b6bd
00000210: 859c 033b f638 dd3d 4dda 00be 0fe2 06be
00000220: 49ef 0b3e 3892 873d f8b8 fdbc f1de 123e
00000230: 18fe adbc 96ff 1ebe 1d57 01bd 5d7e b7bc
00000240: 9016 9cbd 85fa 4dbe 18b3 0abd 45cb de3d
00000250: 3c4b c83d 58d1 e7bd 9640 a0bd 3361 84bc
00000260: d9c3 883d bcca 1dbd 079e 443b c10a b4bd
00000270: a2d8 8f3d 403f 3f3c 1baf cf3d 8ad3 cabc
00000280: 3235 c8bd 1f8d 7e3e 9f1b 893d 7542 2dbe
00000290: 35d5 9f3c 615d 9fbb 91d0 10bd e0f1 a2bd
000002a0: 450c ab3e 4a2a f03c d67b 913c ba63 01be
000002b0: f39a 423d b720 443c b063 8bbd fe3e 1c3d
000002c0: cb57 123c d5f0 cc3a 8cc0 e1bd 5ddb f13c
000002d0: 3a9f ae3d 0a56 033d 1310 00be 3eed 51ba
000002e0: ddb4 b13e da7a 5dbd 33e3 9f3b 21cd 223e
000002f0: eed0 973e e67e fcbc a3e8 a0bd 45a7 8a3e
00000300: e978 65be 6ae5 4bbd df95 3ebd 90a6 0b3e
00000310: 064a 5abe 75c2 98bd 9ef8 6dbd 6fd5 eebd
00000320: cbbe 733e 0236 3dbe c16a ed3c 67d2 85bc
00000330: 405b 17bd 3b34 6d3a 424d a9be 58d7 6bbd
00000340: c4e8 90bd 29f2 fabd 93a0 463d 8b62 ec3d
00000350: 9921 833c efed 90bc b5e9 793e 6bf4 a93d
00000360: 8ed8 7fbd be61 a03b 3410 9f3d 3b2d 883d
00000370: ce5b 69be 924c 003e 45f9 01be 4f73 523e
00000380: 91cd 5a3d 4af0 8dbd 9db3 09bd 4abe bc3d
00000390: 8eeb b03a f521 023e 4f97 c03d 8400 f2bd
000003a0: a213 e03d c178 223d f0db 543c c558 343c
000003b0: e548 63be 6e47 a9bd d4b5 fabc d04c 343d
000003c0: c740 d8be 15d9 493d e7ca 3abd a3ad 993d
000003d0: 5505 663e 09ba 7d3d b1df 7ebc f7d7 1b3e
000003e0: 3dd5 23be f2f0 71bd 20c1 8f3d af55 433d
000003f0: 76de 5f3e 863c 8a3d 6dba 28be bf53 843d

feature.6.bias f4 [64]
-0.0854304 0.119061485 0.025874507 -0.054290712 -0.104099296 -0.116493694 -0.06653669 -0.028689303
0.024907786 -0.016699875 0.036565173 0.09675231 0.05693243 -0.025651364 0.06371499 0.01033194
0.0720464 0.014855285 0.10889485 0.034789123 0.09102584 -0.08283036 0.030301817 0.062528744
0.1262788 -0.16722433 0.008589117 -0.007753342 0.0387364 -0.10808702 0.082547314 -0.041883774
-0.01917842 0.03534701 -0.030579466 0.0014205143 -0.025071066 0.04306001 -0.10127849 0.02428619
0.12875764 -0.061754856 0.017714038 -0.0555635 0.037871234 0.053917464 -0.049977273 0.004197879
0.026917817 0.094103925 -0.081788294 -0.0031425417 -0.07627859 0.07266254 0.07970177 -0.09737616
0.013284389 0.047297858 0.10801565 -0.001254984 -0.04356143 0.072214246 -0.013506672 0.0855714
00000000: 22f6 aebd 82d6 f33d c6f6 d33c f05f 5ebd
00000010: 0332 d5bd 3f94 eebd 6344 88bd d405 ebbc
00000020: 6a0b cc3c 2dce 88bc 5dc5 153d 1326 c63d
00000030: fb31 693d cf22 d2bc 017d 823d 4c47 293c
00000040: 108d 933d 9563 733c 4304 df3d 0a7f 0e3d
00000050: c16b ba3d f7a2 a9bd 843b f83c 120f 803d
00000060: 3b4f 013e db3c 2bbe 5eb9 0c3c bf0f febb
00000070: 0faa 1e3d ba5c ddbd 910e a93d 528e 2bbd
00000080: 101c 9dbc 07c8 103d ca81 fabc 8d30 ba3a
00000090: d661 cdbc b15f 303d 196b cfbd d5f3 c63c
000000a0: 0bd9 033e a9f2 7cbd 081d 913c 8d96 63bd
000000b0: de1e 1b3d 8fd8 5c3d f8b4 4cbd 5d8e 893b
000000c0: c182 dc3c 8fb9 c03d 9f80 a7bd 1af3 4dbb
000000d0: f337 9cbd 19d0 943d ae3a a33d 276d c7bd
000000e0: c4a6 593c 66bb 413d 4f37 dd3d 467e a4ba
000000f0: 786d 32bd 10e5 933d 174b 5dbc 0f40 af3d

feature.7.weight f4 [64]
0.38760048 0.7187178 0.8178191 0.39870837 0.51690364 0.08925106 0.38440457 0.21849294
0.26545876 0.74174696 0.5430149 0.28121525 0.7672105 0.77915794 0.9721714 0.9052752
-0.008540371 0.3080773 0.49848714 0.69278026 0.6130171 0.4820364 1.0459968 0.70742875
0.3338558 0.5550936 0.63852215 0.9411234 0.91122496 0.73383147 0.6889693 0.2930734
0.7395784 0.5142292 0.005008996 0.47138277 0.79643786 -0.0023847944 0.49155235 0.5230411
0.18599637 0.64479566 0.28731632 0.83479303 0.8066172 0.27699757 0.4217317 0.98847365
0.65036917 0.16476946 0.8260961 0.4015332 0.4085937 0.7788939 0.34219268 1.1337357
0.32685584 0.94037676 0.17910472 0.14112163 0.0028275186 0.34403726 0.8385488 0.21529748
00000000: 9273 c63e e4fd 373f 985c 513f 8123 cc3e
00000010: cc53 043f 42c9 b63d add0 c43e 9dbc 5f3e
00000020: 36ea 873e 21e3 3d3f 0603 0b3f 72fb 8f3e
00000030: e867 443f e576 473f 3ae0 783f 1ec0 673f
00000040: eaec 0bbc 4fbc 9d3e b539 ff3e 0c5a 313f
00000050: b0ee 1c3f 7acd f63e 39e3 853f 0d1a 353f
00000060: 26ef aa3e 9d1a 0e3f 3076 233f 77ed 703f
00000070: 0a46 693f 61dc 3b3f 4b60 303f b70d 963e
00000080: 0355 3d3f 86a4 033f 8122 a43b 1559 f13e
00000090: 5ae3 4b3f 364a 1cbb c0ac fb3e 06e6 053f
000000a0: d575 3e3e 5411 253f 201b 933e ffb4 553f
000000b0: 777e 4e3f a0d2 8d3e 38ed d73e 9c0c 7d3f
000000c0: 987e 263f 53b9 283e 097b 533f c295 cd3e
000000d0: 3233 d13e 9765 473f e133 af3e 401e 913f
000000e0: a659 a73e 88bc 703f 3a67 373e 3082 103e
000000f0: e44d 393b a725 b03e 22ab 563f f176 5c3e

feature.7.bias f4 [64]
-0.18468232 -0.20827998 -0.3558104 0.065184735 -0.17776108 -0.1401147 -0.032521337 0.045879744
-0.0345616 -0.24759765 0.02071787 -0.22338438 -0.21939549 -0.18665215 -0.08898367 -0.17744029
-0.06087817 -0.22413933 -0.1567439 0.047995795 -0.034984447 -0.17536068 -0.027207557 -0.404912
-0.024993591 -0.3351752 -0.29737803 -0.13766152 -0.07395171 -0.0020331014 -0.15030228 -0.12077519
-0.11194163 -0.004238621 -0.082285166 -0.3155495 -0.13226257 -0.08794444 -0.21294735 -0.12023769
-0.032308903 -0.19325903 -0.10434256 -0.13242851 -0.17908897 -0.28172708 -0.12540008 -0.2914732
-0.0492961 -0.15742046 -0.2144375 -0.01706939 -0.1865554 -0.10668509 -0.10614992 -0.024196047
-0.14186598 -0.20646992 -0.09565258 -0.0977575 -0.08887715 -0.15988977 -0.19449957 -0.2193522
00000000: 5d1d 3dbe 5947 55be c82c b6be 937f 853d
00000010: 0007 36be 3a7a 0fbe 1835 05bd 66ec 3b3d
00000020: 7790 0dbd 3d8a 7dbe 86b8 a93c e0be 64be
00000030: 36a9 60be be21 3fbe 123d b6bd e8b2 35be
00000040: 635b 79bd c884 65be 7981 20be 3d97 443d
00000050: da4b 0fbd c091 33be 62e2 debc a050 cfbe
00000060: 5cbf ccbc 159c abbe ef41 98be 24f7 0cbe
00000070: fe73 97bd c83d 05bb d7e8 19be fc58 f7bd
00000080: a741 e5bd 21e4 8abb 2085 a8bd b48f a1be
00000090: d76f 07be 371c b4bd df0e 5abe 2e3f f6bd
000000a0: 5756 04bd b2e5 45be 8db1 d5bd 579b 07be
000000b0: 1963 37be 883e 90be e168 00be fa3b 95be
000000c0: b5ea 49bd d432 21be 8195 5bbe 1bd5 8bbc
000000d0: 6108 3fbe b67d dabd 2165 d9bd ca36 c6bc
000000e0: 5145 11be da6c 53be 80e5 c3bd 1635 c8bd
000000f0: 3905 b6bd 25ba 23be e52a 47be dd9d 60be

feature.7.running_mean f4 [64]
-0.50523067 -0.16282362 0.44096476 -0.012235193 0.10795864 -0.66135246 -0.6435382 0.060231164
-0.14484246 0.12671834 -0.49796942 0.09608103 0.4354029 0.22924551 0.20693117 -0.18001287
0.30979955 0.026797365 0.18578902 0.25765932 0.16939151 -0.23685735 0.26553208 -0.12589654
0.3671519 -0.39047107 -0.030001588 0.09477229 -0.75173116 -0.77715325 -0.50802636 -0.09250824
0.17297576 0.15586361 -0.036270753 0.22851655 -7.440518e-05 0.038378306 -0.24739572 -0.22123873
0.86331975 -0.32562083 0.073016725 -0.015321025 -0.055598296 -0.21913692 0.0838167 -0.23481618
-0.502427 -0.15977857 -0.09265031 -0.01001105 -0.14311394 -0.051945828 0.35691008 -0.06361898
0.021408597 0.36832112 -0.012438249 -0.6898025 -0.20633215 0.09083419 0.07018292 0.3703644
00000000: cc56 01bf 3cbb 26be 22c6 e13e 1e76 48bc
00000010: 6b19 dd3d 654e 29bf ebbe 24bf f4b4 763d
00000020: 9551 14be 74c2 013e d9f5 febe 22c6 c43d
00000030: 21ed de3e 56bf 6a3e c4e5 533e 4b55 38be
00000040: 0c9e 9e3e 2686 db3c 7a3f 3e3e eceb 833e
00000050: f874 2d3e bc8a 72be d2f3 873e 06eb 00be
00000060: 55fb bb3e d3eb c7be e4c5 f5bc f917 c23d
00000070: 7471 40bf 84f3 46bf 040e 02bf f674 bdbd
00000080: 8f20 313e b69a 1f3e a490 14bd 3e00 6a3e
00000090: fa09 9cb8 9232 1d3d 4e55 7dbe 688c 62be
000000a0: 8602 5d3f c6b7 a6be cb89 953d 0905 7bbc
000000b0: 0abb 63bd 6e65 60be 17a8 ab3d a773 70be
000000c0: 0e9f 00bf fe9c 23be 72bf bdbd 6305 24bc
000000d0: 768c 12be 26c5 54bd ebbc b63e ab4a 82bd
000000e0: 1561 af3c 9694 bc3e ccc9 4bbc e696 30bf
000000f0: bc48 53be 4707 ba3d 10bc 8f3d 67a0 bd3e

feature.7.running_var f4 [64]
0.5507105 0.7550105 1.1047989 0.15204383 1.0131314 0.97566944 1.1843271 0.14482154
0.39610448 0.37919495 0.9730283 0.0985346 0.07114721 0.43010953 0.40581763 0.24118772
0.3007389 0.16128248 0.69630855 0.09394112 0.5679995 0.13510382 1.2352642 0.1505182
0.20535202 0.23117119 0.4551822 0.6796282 1.624967 1.400471 1.1878519 0.22509067
0.99566185 0.3263961 0.1701096 0.27431256 0.29165098 0.3206959 0.11238443 0.40085548
0.27289742 0.19202879 0.25735438 0.81613827 0.09435825 0.58055955 0.43334576 0.12003967
0.86351603 0.34452033 0.40183973 0.20291053 0.06854081 0.5217372 1.0121156 0.36032242
0.039422657 0.1649447 0.19298089 1.219747 0.21911561 0.09756251 0.34311992 0.8604279
00000000: 5dfb 0c3f 5e48 413f 0d6a 8d3f 61b1 1b3e
00000010: 4aae 813f 79c5 793f 0898 973f 194c 143e
00000020: 35ce ca3e d725 c23e 6218 793f 82cc c93d
00000030: a1b5 913d 5137 dc3e 54c7 cf3e eaf9 763e
00000040: 73fa 993e 3c27 253e 4741 323f 3464 c03d
00000050: 6a68 113f a858 0a3e 231d 9e3f 7121 1a3e
00000060: cd47 523e 24b8 6c3e a40d e93e 1dfc 2d3f
00000070: ebfe cf3f a242 b33f 880b 983f 2b7e 663e
00000080: b2e3 7e3f 641d a73e 3631 2e3e b272 8c3e
00000090: 4753 953e 4132 a43e cf29 e63d ee3c cd3e
000000a0: 36b9 8b3e 32a3 443e f4c3 833e 70ee 503f
000000b0: e63e c13d 8d9f 143f 7fdf dd3e 5cd7 f53d
000000c0: 630f 5d3f f864 b03e f0bd cd3e c7c7 4f3e
000000d0: 205f 8c3d 9290 053f 018d 813f 2e7c b83e
000000e0: a779 213d 43e7 283e c89c 453e ab20 9c3f
000000f0: d85f 603e dace c73d 6aad af3e 0145 5c3f

feature.9.weight f4 [64, 64]
0.036738694 -0.13906264 0.14865538 -0.21290272 0.07491481 -0.27946833 -0.05049542 -0.038748425
0.09094075 -0.14452931 -0.20342682 -0.20581014 -0.23067416 0.09176519 -0.14674295 -0.060785003
0.07520219 0.060557626 0.04232453 -0.20033593 -0.04212045 -0.16179815 0.016824134 -0.009483387
-0.19072415 0.03687417 -0.045765143 0.117078975 -0.21657638 -0.11314764 -0.20172209 -0.017918468
0.1799532 -0.17157403 -0.08786438 -0.13036121 -0.041622344 -0.036592178 -0.07997033 -0.01859673
-0.16492854 0.05201596 0.022881981 0.03719599 -0.14113179 -0.120786496 0.04778839 0.14854144
-0.026228856 -0.039010447 0.21864682 -0.1231025 -0.056449752 -0.10335419 0.18715641 0.20724759
0.11481628 0.0233549 -0.11266481 -0.21344839 -0.018609954 0.009537339 0.032060686 0.2582736
-0.0029026153 -0.14081548 0.22935835 -0.09430894 0.16585046 -0.0910132 -0.1521262 0.1211021
-0.039124075 -0.06723658 -0.11892217 0.17506102 0.016120328 0.018538626 -0.21772413 -0.026904749
-0.1933757 -0.08831942 0.10809312 -0.2235055 -0.13960291 -0.08272455 0.15887684 0.08338544
-0.0026717172 -0.07765963 -0.047919407 0.11545434 -0.21856546 -0.015038557 -0.20053229 -0.1223357
0.17355347 -0.07839244 -0.10513486 -0.187742 -0.081931986 -0.1296544 -0.017073689 -0.21330248
-0.0183695 0.034663096 -0.16608633 0.22353077 0.09308769 -0.18582934 0.03477629 -0.010589505
0.07356889 -0.021011353 0.23363572 0.024157554 -0.20519842 -0.08804738 0.14484826 0.012900891
-0.024882754 -0.13638665 -0.10671911 0.013409684 -0.10961323 -0.22163345 -0.038259443 0.090632804
0.02093741 0.098385625 0.067016385 0.01749225 -0.0003619414 -0.0015974392 -0.023282807 0.124519
-0.17525582 0.026734944 -0.14826818 0.008115989 0.12106088 -0.07709414 -0.3994962 0.09450839
0.0507959 0.015993081 -0.07944969 0.07768281 -0.02831941 0.15716141 -0.06628232 -0.09972649
-0.15089063 0.12760065 0.064004384 -0.17276236 -0.044721752 -0.020750092 0.19762217 -0.14858134
-0.027804332 0.09988045 -0.019607035 -0.08809655 -0.34112933 -0.03683405 -0.009646904 0.024239495
-0.012927335 0.06295445 0.0035344043 -0.07303026 -0.3294759 0.059767593 0.10595948 -0.1626715
0.071492486 -0.00014988265 0.17633364 0.07204216 -0.014313724 -0.09228944 0.04706373 -0.122112095
0.17464541 -0.12360785 0.005458 -0.0341747 0.018768607 -0.34865114 0.11727512 -0.13110034
0.036279768 0.05030916 0.14415303 -0.11012723 -0.097602695 0.1604285 0.17641485 0.1327564
-0.42294508 0.11093229 0.0023349645 0.31495833 -0.15926804 0.048449542 0.034323145 0.097275265
0.066190965 -0.08052837 -0.3344244 -0.19338743 -0.1007789 0.23284714 -0.005671062 0.17056425
-0.1442891 0.082385 -0.028249282 -0.021777732 0.08996518 0.20330691 0.0034023249 -0.3242864
0.07359825 0.2685122 0.023592044 -0.22128527 -0.063633636 -0.041361637 -0.22487222 0.11511058
-0.043025933 0.13304369 -0.055495758 0.11958832 -0.26347724 -0.034978516 0.041019633 -0.044440646
0.1556898 0.051348254 0.21081065 -0.48124743 0.21769634 0.047436167 0.04787859 -0.03207371
0.15106028 -0.15042074 0.06923981 0.14095914 0.09359394 0.032506507 0.12616599 -0.05746098
00000000: 507b 163d 7066 0ebe 1e39 183e 2c03 5abe
00000010: f06c 993d 7916 8fbe 49d4 4ebd abb6 1ebd
00000020: 253f ba3d 7eff 13be 1f4f 50be e5bf 52be
00000030: d935 6cbe 63ef bb3d c943 16be b2f9 78bd
00000040: 9b03 9a3d 460b 783d 7d5c 2d3d dd24 4dbe
00000050: 7e86 2cbd 6aae 25be c4d2 893c 3560 1bbc
00000060: 314d 43be 5f09 173d 3b74 3bbd 1ac7 ef3d
00000070: 33c6 5dbe f3b9 e7bd 3c90 4ebe c0c9 92bc
00000080: a745 383e 1ab1 2fbe 3df2 b3bd 697d 05be
00000090: 317c 2abd aee1 15bd 7cc7 a3bd 2b58 98bc
000000a0: 07e3 28be b00e 553d fe72 bb3c d35a 183d
000000b0: da84 10be e95e f7bd c2bd 433d 3f1b 183e
000000c0: e6dd d6bc 6bc9 1fbd f4e4 5f3e 2a1d fcbd
000000d0: db37 67bd 5dab d3bd eea5 3f3e b638 543e
000000e0: cc24 eb3d c652 bf3c cfbc e6bd 3792 5abe
000000f0: e773 98bc 8042 1c3c 1152 033d 703c 843e
00000100: ce39 3ebb ef31 10be eadc 6a3e 0c25 c1bd
00000110: b4d4 293e 2165 babd f8c6 1bbe 6104 f83d
00000120: 9140 20bd 55b3 89bd 778d f3bd 3243 333e
00000130: c70e 843c 51de 973c 13f3 5ebe 5967 dcbc
00000140: 4804 46be d0e0 b4bd ed5f dd3d a0de 64be
00000150: 11f4 0ebe 7d6b a9bd 9cb0 223e fcc5 aa3d
00000160: fa17 2fbb 030c 9fbd 2447 44bd 5373 ec3d
00000170: a0cf 5fbe 4864 76bc 5658 4dbe 248b fabd
00000180: 00b8 313e 378c a0bd f250 d7bd 703f 40be
00000190: f5cb a7bd 1fc4 04be 1fde 8bbc f76b 5abe
000001a0: a27b 96bc e4fa 0d3d 8912 2abe 40e5 643e
000001b0: c2a4 be3d 0c4a 3ebe 9571 0e3d 9a7f 2dbc
000001c0: 49ab 963d 0020 acbc 343e 6f3e 10e6 c53c
000001d0: 891f 52be 2f52 b4bd 1a53 143e 425e 533c
000001e0: ebd6 cbbc f1a8 0bbe 8c8f dabd 4bb4 5b3c
000001f0: e77c e0bd e1f3 62be efb5 1cbd b19d b93d
00000200: ee84 ab3c 677e c93d e33f 893d e84b 8f3c
00000210: f4c2 bdb9 2a61 d1ba 96bb bebc d103 ff3d
00000220: 4376 33be 3e03 db3c 9dd3 17be edf8 043c
00000230: c4ee f73d 88e3 9dbd c48a ccbe 9d8d c13d
00000240: 5d0f 503d ec03 833c 85b6 a2bd 2a18 9f3d
00000250: 1bfe e7bc ecee 203e 06bf 87bd 673d ccbd
00000260: 1383 1abe bfa9 023e bb14 833d 9ee8 30be
00000270: 282e 37bd 19fc a9bc 775d 4a3e b525 18be
00000280: e9c5 e3bc 1f8e cc3d ef9e a0bc f76b b4bd
00000290: 81a8 aebe 4ddf 16bd 0c0e 1ebc e891 c63c
000002a0: 2ccd 53bc 43ee 803d 77a1 673b e490 95bd
000002b0: 11b1 a8be ddce 743d 4901 d93d 5c93 26be
000002c0: a76a 923d d129 1db9 ce90 343e d78a 933d
000002d0: 1c84 6abc 3f02 bdbd e6c5 403d e815 fabd
000002e0: 3fd6 323e 1d26 fdbd 06d9 b23b c5fa 0bbd
000002f0: 9fc0 993c 6782 b2be f02d f03d 2b3f 06be
00000300: 189a 143d fa10 4e3d da9c 133e 638a e1bd
00000310: ece3 c7bd 5e47 243e 18a6 343e 4bf1 073e
00000320: 428c d8be 7830 e33d 3406 193b 3842 a13e
00000330: 2917 23be 0773 463d 6d96 0c3d 4138 c73d
00000340: 218f 873d 0fec a4bd ad39 abbe 5b07 46be
00000350: 2b65 cebd 7b6f 6e3e 51d4 b9bb 65a8 2e3e
00000360: 86c0 13be 78b9 a83d 0a6b e7bc 3767 b2bc
00000370: aa3f b83d b02f 503e 8af9 5e3b de08 a6be
00000380: aeba 963d 6e7a 893e 1a44 c13c 9b98 62be
00000390: 5a52 82bd d26a 29bd e744 66be 19bf eb3d
000003a0: f63b 30bd 9b3c 083e 854f 63bd b9ea f43d
000003b0: 7de6 86be a245 0fbd 3404 283d 6507 36bd
000003c0: 266d 1f3e 8c52 523d bfde 573e 1066 f6be
000003d0: caeb 5e3e 6d4c 423d 571c 443d b95f 03bd
000003e0: 8caf 1a3e e507 1abe 9acd 8d3d 9857 103e
000003f0: 2eae bf3d 8b25 053d a831 013e 345c 6bbd

feature.9.bias f4 [64]
-0.0007180291 0.058095858 0.00055250124 0.006502371 0.004387757 0.082585745 0.12296946 -0.01537341
0.085592605 0.031965457 0.017507564 0.018021932 0.10680873 0.07417903 0.082612686 -0.076309115
0.050810806 0.10121651 -0.0025161107 -0.01541303 -0.0053958134 0.03323233 -0.10598178 0.07008167
0.08591018 0.05124138 -0.062915206 0.02227718 -0.06881554 0.06602866 0.019661518 0.091944374
0.039681222 0.008028046 -0.06572076 0.057021588 -0.08867642 0.094989456 -0.096659705 -0.016195027
0.07658508 0.02831484 0.047302764 0.0108288815 -0.04796116 -0.11818921 0.101318985 -0.053597666
-0.09858346 0.05066663 0.030364938 -0.027920451 0.1496692 0.017464 -0.11956615 0.046616208
-0.10252875 0.04166098 -0.04733109 0.045568917 0.02496872 0.107913524 -0.086383745 -0.11024531
00000000: 1e3a 3cba ecf5 6d3d bbd5 103a d711 d53b
00000010: 2cc7 8f3b b722 a93d 6ad7 fb3d c1e0 7bbc
00000020: 2d4b af3d 36ee 023d 066c 8f3c bba2 933c
00000030: 89be da3d 2deb 973d d730 a93d f447 9cbd
00000040: fe1e 503d 9a4a cf3d 55e5 24bb ef86 7cbc
00000050: 5dcf b0bb a01e 083d fa0c d9bd fb86 8f3d
00000060: adf1 af3d 7be2 513d b0d9 80bd a27e b63c
00000070: 29ef 8cbd 093a 873d 3111 a13c 554d bc3d
00000080: c788 223d 1188 033c 9b98 86bd 788f 693d
00000090: fc9b b5bd d589 c23d 86f5 c5bd 6fab 84bc
000000a0: a3d8 9c3d 86f4 e73c 8bc0 413d 9f6b 313c
000000b0: ec72 44bd 2f0d f2bd 5480 cf3d 3a89 5bbd
000000c0: 20e6 c9bd d087 4f3d e4bf f83c 6eb9 e4bc
000000d0: e242 193e aa10 8f3c 19df f4bd a3f0 3e3d
000000e0: 98fa d1bd b4a4 2a3d 3fde 41bd 79a6 3a3d
000000f0: 338b cc3c c401 dd3d f6e9 b0bd 4bc8 e1bd
